code/1st_model_pt.pt (torch_old, 74296 bytes, 14 tensors)

fc1.weight f4 [100, 63]
-0.081615925 -0.10619821 0.083341725 0.19500041 0.029654235 -0.10116464 -0.06443571 0.1143091
-0.06076557 -0.09222344 -0.008151449 0.020043848 -0.061185453 -0.011207616 0.106589176 0.0523046
-0.06706758 -0.044594612 0.06860138 -0.080288626 -0.24343483 -0.06918374 -0.006526928 0.09256727
-0.2177681 -0.022708723 -0.19792424 0.065075666 -0.0476425 -0.15528668 -0.007802707 0.008569524
0.25219664 -0.112345636 -0.026629932 0.07305335 0.12590128 0.10953604 -0.06082555 -0.05176139
0.098936334 0.065387085 0.056786276 0.09799243 0.15749472 0.03077216 0.12853788 -0.0086508375
0.09788715 -0.16259001 0.019410985 0.3822022 -0.11380716 -0.14814518 -0.037867658 0.02491178
0.1201752 0.042084303 -0.16539724 -0.17293072 -0.01883879 0.015140829 0.15499684 -0.07258903
0.13377482 -0.057057258 -0.11298828 0.08297637 0.079187654 -0.01926275 0.12484644 0.011006639
-0.021047032 0.046050828 0.058982752 0.018267438 0.23616706 0.016963806 0.028588133 -0.029805562
0.03896978 -0.043990754 0.17809366 -0.01083739 -0.0147102075 -0.3057623 -0.1695973 -0.07451691
-0.17219666 0.054872487 0.13113725 -0.0017015466 0.15727386 -0.008228052 0.00022854493 0.12857085
-0.278614 -0.097541295 -0.14471486 -0.019890824 -0.13840745 -0.04027445 0.059904948 0.08851774
0.04823779 -0.43275794 -0.2954384 -0.17020138 0.115644485 0.0033245098 0.10189889 0.054703794
-0.017845992 0.08840718 -0.057079755 0.03802538 0.03153014 -0.08423936 -0.11142111 0.13102083
-0.09854264 -0.211841 -0.02882098 0.010268198 0.03116926 -0.012858788 0.09260748 0.0055619217
-0.02004402 0.11245772 0.044174578 0.2405556 0.1012187 0.0022325641 -0.09044772 -0.119572416
-0.006570331 -0.0708028 0.003273412 0.2337836 -0.009096919 -0.31025714 -0.024023803 -0.03582334
-0.040104516 -0.0056813033 0.039372675 -0.005241573 -0.13257365 -0.2404172 0.36033845 -0.0046175695
-0.12825802 0.12379272 -0.17905319 -0.0766042 -0.01971228 -0.05189325 0.05737608 -0.020431278
-0.101949036 -0.13159715 0.17122827 -0.008324426 -0.089387074 -0.093972445 0.12603919 0.1713817
0.18769984 0.21567875 -0.02783787 -0.012578373 0.022549849 0.20154014 -0.15226968 0.011232856
-0.09107495 -0.050162062 0.1954358 -0.065154314 0.1537685 0.07791439 -0.06918592 -0.06477228
-0.081535354 -0.11068385 -0.16277574 -0.018493287 -0.0037299278 0.04361875 -0.033694282 0.29831475
-0.022569628 0.06930686 -0.06877872 0.038744222 -0.12534873 -0.013720036 -0.05312437 -0.0070037474
0.08591411 -0.04637658 0.025368629 0.0034694015 -0.02234282 -0.2895944 0.019068258 0.048531543
-0.035779215 0.037322856 0.16134112 -0.013473375 -0.053001594 -0.36997944 -0.10789267 -0.02855644
0.013570796 0.025312092 -0.09850551 -0.28211373 0.20606984 0.252085 0.08020071 0.24697408
0.032081746 0.17194153 -0.020973977 0.025474237 0.038912445 -0.0045279823 0.051731765 0.029545682
-0.050238334 0.056032345 -0.04577542 0.017641986 0.16921797 0.0877816 -0.03435967 0.04634964
0.09610355 0.041513707 0.0012914997 0.09286792 0.07248209 -0.22219275 -0.07514554 -0.28130224
-0.28600362 0.059798595 0.04215832 -0.079329476 -0.08639692 -0.016865836 0.1535862 -0.060642283
00000000: 4026 a7bd 727e d9bd 11af aa3d 30ae 473e
00000010: 70ed f23c 682f cfbd dff6 83bd e41a ea3d
00000020: 51e5 78bd a5df bcbd a88d 05bc ff32 a43c
00000030: 999d 7abd 26a0 37bc 6d4b da3d 593d 563d
00000040: ba5a 89bd d7a8 36bd e17e 8c3d 5d6e a4bd
00000050: fb46 79be 34b0 8dbd d7df d5bb e993 bd3d
00000060: 9afe 5ebe a507 babc a7ac 4abe 6446 853d
00000070: c824 43bd 7903 1fbe daad ffbb 3067 0c3c
00000080: eb1f 813e 7815 e6bd 0427 dabc ff9c 953d
00000090: 44ec 003e 6e54 e03d 3624 79bd c003 54bd
000000a0: 229f ca3d aae9 853d ba98 683d 41b0 c83d
000000b0: 4c46 213e e615 fc3c 6f9f 033e 3ebc 0dbc
000000c0: 0f79 c83d ff7d 26be c903 9f3c 02b0 c33e
000000d0: ba13 e9bd 5fb3 17be 1e1b 1bbd ca13 cc3c
000000e0: 6a1e f63d 9760 2c3d e55d 29be c014 31be
000000f0: ce53 9abc 3d11 783c 7eb7 1e3e 8fa9 94bd
00000100: 44fc 083e dfb4 69bd 6666 e7bd 84ef a93d
00000110: 232d a23d eacc 9dbc 7eaf ff3d 3155 343c
00000120: d36a acbc cb9f 3c3d e697 713d 98a5 953c
00000130: c7d5 713e aef7 8a3c a931 ea3c cb2a f4bc
00000140: c79e 1f3d a62f 34bd 2f5e 363e 4f8f 31bc
00000150: 1503 71bc e08c 9cbe eaaa 2dbe 529c 98bd
00000160: 5254 30be f9c1 603d d848 063e 6e06 dfba
00000170: 660c 213e f4ce 06bc 90a5 6f39 14a8 033e
00000180: 7fa6 8ebe bbc3 c7bd 2230 14be 15f2 a2bc
00000190: afba 0dbe d2f6 24bd e45e 753d ca48 b53d
000001a0: fd94 453d 7392 ddbe b443 97be 4549 2ebe
000001b0: 04d7 ec3d 05e0 593b 5eb0 d03d 1611 603d
000001c0: c231 92bc d30e b53d 76cc 69bd 80c0 1b3d
000001d0: c025 013d b085 acbd c030 e4bd 532a 063e
000001e0: b9d0 c9bd d9ec 58be fa19 ecbc f23b 283c
000001f0: ad56 ff3c aaad 52bc fea8 bd3d c840 b63b
00000200: 5b33 a4bc 3c50 e63d 67f0 343d 3554 763e
00000210: c04b cf3d 3650 123b a73c b9bd 62e2 f4bd
00000220: ee4b d7bb 0f01 91bd bd86 563b f864 6f3e
00000230: 3e0b 15bc 06da 9ebe 91cd c4bc 7fbb 12bd
00000240: a244 24bd 3a2a babb 3e45 213d 80c1 abbb
00000250: 63c1 07be ed2f 76be 487e b83e fb4e 97bb
00000260: 1256 03be 0a87 fd3d b859 37be aae2 9cbd
00000270: a67b a1bc 048e 54bd 2e03 6b3d 7f5f a7bc
00000280: a8ca d0bd 67c1 06be 7756 2f3e 2c63 08bc
00000290: 9210 b7bd a074 c0bd 6b10 013e af7e 2f3e
000002a0: 6334 403e e4da 5c3e 3f0c e4bc 8515 4ebc
000002b0: 76ba b83c 8a60 4e3e 95ec 1bbe 030a 383c
000002c0: 8185 babd bc76 4dbd 5320 483e a06f 85bd
000002d0: 7d75 1d3e 9491 9f3d 59b1 8dbd 54a7 84bd
000002e0: 02fc a6bd 37ae e2bd afae 26be 3c7f 97bc
000002f0: ce71 74bb 93a9 323d 0403 0abd b6bc 983e
00000300: f1e3 b8bc c1f0 8d3d dcdb 8cbd 43b2 1e3d
00000310: 6b5b 00be 00ca 60bc f098 59bd b17f e5bb
00000320: bdf3 af3d 5ef5 3dbd dfd1 cf3c e65e 633b
00000330: 4a08 b7bc b845 94be 0935 9c3c 03c9 463d
00000340: 3a8d 12bd dadf 183d 9b36 253e 6ebf 5cbc
00000350: 3318 59bd f26d bdbe d5f6 dcbd 32ef e9bc
00000360: 0b58 5e3c 4e5b cf3c 42bd c9bd 3671 90be
00000370: f903 533e 4911 813e 4540 a43d c6e6 7c3e
00000380: 2668 033d 7111 303e 9ed1 abbc 59af d03c
00000390: a862 1f3d 785f 94bb b0e4 533d c909 f23c
000003a0: b6c6 4dbd 2c82 653d 027f 3bbd ed85 903c
000003b0: 7a47 2d3e d7c6 b33d babc 0cbd 1fd9 3d3d
000003c0: f0d1 c43d 470a 2a3d 8a47 a93a 8931 be3d
000003d0: 7d71 943d 7f86 63be e8e5 99bd d906 90be
000003e0: 116f 92be 5fef 743d 34ae 2c3d 7e77 a2bd
000003f0: def0 b0bd 392a 8abc b345 1d3e 0b64 78bd

fc1.bias f4 [100]
-0.059576172 -0.005494233 -0.057288595 0.08977022 0.07129303 0.09689132 -0.010778121 0.093399614
-0.013938471 -0.005346646 0.019148393 0.047057588 -0.03324817 0.024425805 -0.040627368 -0.03039792
-0.022777388 -0.0073932437 0.00662253 0.12447156 0.0509477 0.0011622868 0.096306965 0.039854467
0.092318475 -0.1183903 -0.060950056 -0.032841247 -0.06123793 -0.098555125 -0.053918716 -0.1022485
0.08105543 -0.08855962 0.085143596 0.10418596 0.047232416 -0.07497041 0.026598165 -0.025820917
-0.0652318 -0.10906883 0.09704469 0.10269158 0.0077875806 -0.13748501 0.05526627 0.08937358
0.045369495 -0.005052945 -0.025161974 -0.11362257 0.113434225 0.016786892 0.10535595 -0.11996325
0.11642892 -0.029230403 -0.080859125 -0.10642617 -0.000699136 -0.08570391 0.103085585 -0.050585907
-0.008798846 0.079240486 -0.07397607 0.03893007 0.11530588 -0.022706052 0.06625729 -0.067823626
0.092793524 0.120890714 -0.027950013 0.04730561 0.12645324 -0.06635127 0.08730274 0.031389393
0.03373471 0.007101053 -0.07162321 -0.09779621 0.024647012 0.106896326 0.046237003 0.052336037
-0.032892983 -0.058307525 0.033650085 -0.0029996524 0.09480653 0.0064366376 -0.045425378 0.023838885
0.095041454 -0.081165045 0.0328088 0.040413678
00000000: 2506 74bd f808 b4bb 72a7 6abd 73d9 b73d
00000010: 1502 923d f56e c63d b796 30bc 4c48 bf3d
00000020: 2f5e 64bc eb32 afbb 17dd 9c3c 75bf 403d
00000030: 3c2f 08bd a018 c83c e268 26bd 0f05 f9bc
00000040: a597 babc 0643 f2bb cf01 d93b f2ea fe3d
00000050: 89ae 503d e057 983a 963c c53d 703e 233d
00000060: 7811 bd3d 9d76 f2bd c4a6 79bd 8b84 06bd
00000070: a0d4 7abd 45d7 c9bd dfd9 5cbd a967 d1bd
00000080: 6400 a63d bf5e b5bd c45f ae3d 735f d53d
00000090: c776 413d 168a 99bd 65e4 d93c 6386 d3bc
000000a0: 4098 85bd 7b5f dfbd 5ebf c63d f74f d23d
000000b0: f62e ff3b dfc8 0cbe e25e 623d 7f09 b73d
000000c0: 5dd5 393d 2d93 a5bb 7c20 cebc f3b2 e8bd
000000d0: 3450 e83d aa84 893c dcc4 d73d 4baf f5bd
000000e0: 4972 ee3d 9974 efbc 7899 a5bd f7f5 d9bd
000000f0: 3946 37ba 8885 afbd 891e d33d 2b33 4fbd
00000100: 0929 10bc d648 a23d c480 97bd 2375 1f3d
00000110: 7d25 ec3d 0b02 babc e7b1 873d 1de7 8abd
00000120: 880a be3d 8d95 f73d 6df7 e4bc 87c3 413d
00000130: f57c 013e 2de3 87bd c7cb b23d 2a92 003d
00000140: 682d 0a3d f3af e83b 31af 92bd 6149 c8bd
00000150: 88e8 c93c 76ec da3d 0363 3d3d 505e 563d
00000160: cbba 06bd dfd3 6ebd acd4 093d d195 44bb
00000170: ed29 c23d 6eea d23b f60f 3abd c449 c33c
00000180: 18a5 c23d dc39 a6bd 8562 063d d088 253d

bn1.weight f4 [100]
1.0151262 0.92225367 1.0630883 1.0233625 0.93515503 0.9011292 0.9859627 0.92752254
0.9549412 1.003177 1.0652126 0.93958193 1.0044621 0.93988806 0.9166012 1.062975
0.8270488 0.96347 1.0527564 0.97022134 1.1285707 1.0213622 0.9878011 0.95072514
0.93759364 0.9690017 0.9542484 0.9016967 0.9806509 0.9275636 0.8973512 0.9552305
1.0009807 1.0163275 1.0127316 1.0552611 0.9027489 1.0673116 0.97415996 0.9949076
1.0026078 0.97619754 1.060396 1.1768314 0.9752882 0.99796456 1.047538 0.9734985
1.0502642 1.06594 1.0469056 0.97711104 0.9693627 0.9188936 0.92088336 0.98673135
1.0455749 1.0421212 0.89913905 0.93695766 0.97996306 0.9756093 0.8817221 1.0617317
1.0128354 0.94628835 0.97219425 0.972496 0.8561356 1.0034603 1.0431846 0.96618825
0.97611356 1.1152818 0.993984 1.0455061 0.97606283 0.9735583 1.0114294 1.0391837
1.0440365 1.082731 1.0320168 0.92077285 0.92215 1.0301715 0.96565706 1.0895147
0.9451371 0.93325603 1.0503291 0.9391551 1.064334 0.90404516 1.0403643 0.9042423
1.1072041 0.98410916 0.9775242 1.077252
00000000: a8ef 813f d118 6c3f 4713 883f 8bfd 823f
00000010: 5266 6f3f 67b0 663f 0d68 7c3f 1e72 6d3f
00000020: 0777 743f 1b68 803f e358 883f 7188 703f
00000030: 3792 803f 819c 703f 60a6 6a3f 910f 883f
00000040: 78b9 533f f8a5 763f b9c0 863f 6d60 783f
00000050: 0175 903f ffbb 823f 88e0 7c3f b962 733f
00000060: 2306 703f 7f10 783f a049 743f 98d5 663f
00000070: f00b 7b3f cf74 6d3f cfb8 653f fc89 743f
00000080: 2320 803f 0517 823f 30a1 813f cc12 873f
00000090: 8d1a 673f ab9d 883f 8c62 793f 44b2 7e3f
000000a0: 7455 803f 15e8 793f 0ebb 873f 69a2 963f
000000b0: 7dac 793f 9b7a 7f3f ba15 863f 3337 793f
000000c0: 0f6f 863f b970 883f 0101 863f f323 7a3f
000000d0: 2728 783f 9c3c 6b3f 03bf 6b3f 6d9a 7c3f
000000e0: 66d5 853f 3a64 853f fa2d 663f 75dc 6f3f
000000f0: dcde 7a3f 88c1 793f 8ab8 613f d3e6 873f
00000100: 97a4 813f f43f 723f b9e1 783f 7ff5 783f
00000110: b42b 5b3f 6371 803f 1387 853f 1d58 773f
00000120: 94e2 793f 8ec1 8e3f bc75 7e3f 25d3 853f
00000130: 41df 793f 1e3b 793f 8576 813f f903 853f
00000140: fda2 853f ee96 8a3f 2019 843f c5b7 6b3f
00000150: 0612 6c3f a9dc 833f 4d35 773f 3875 8b3f
00000160: 81f4 713f dee9 6e3f 2f71 863f 786c 703f
00000170: 193c 883f 816f 673f a82a 853f 6c7c 673f
00000180: ddb8 8d3f 94ee 7b3f 073f 7a3f 65e3 893f

bn1.bias f4 [100]
-0.1359773 -0.21496089 -0.097767875 -0.057334743 -0.03294014 -0.0062547554 -0.19445805 -0.056602314
0.039724775 -0.27996418 -0.21412326 -0.101379015 -0.07074656 -0.1809478 -0.18553448 -0.1603339
-0.13117303 -0.21615194 -0.04893249 -0.19203569 -0.029731482 -0.14690974 -0.103445806 -0.088086404
-0.019504583 -0.09579872 -0.09224605 -0.106884606 -0.2576789 -0.18013418 -0.009867207 -0.14888033
-0.21109319 -0.18979347 -0.17085642 -0.040847108 -0.11952719 -0.04828954 -0.114221156 -0.24959542
-0.12955016 -0.2226821 0.022536552 -0.13096231 -0.158319 -0.085404746 -0.12831199 -0.071176626
-0.14182568 -0.15236063 -0.24771376 -0.29084316 0.043612503 -0.2922467 -0.14016087 -0.20690382
-0.06358575 -0.11304516 -0.24460405 -0.046848368 -0.02110486 -0.16917087 -0.21136552 -0.30079627
-0.22544692 -0.10494409 -0.15006056 0.026123626 -0.05608255 -0.17246023 -0.07560776 -0.20368518
-0.32114932 -0.08484945 -0.21705693 -0.064647414 -0.16881588 -0.21925709 -0.15417892 -0.073968485
-0.10807166 -0.026985548 -0.11916909 0.022147158 -0.20773982 -0.24252424 -0.21522656 -0.043601967
-0.15571539 -0.1220883 -0.08756736 0.027428864 0.009490813 -0.07638655 -0.10702987 -0.050477404
0.08635561 -0.22484909 -0.00858924 0.008711556
00000000: a23d 0bbe b51e 5cbe 863a c8bd d6d7 6abd
00000010: 3eec 06bd b1f4 ccbb 0320 47be d4d7 67bd
00000020: 72b6 223d 7757 8fbe 2143 5bbe cd9f cfbd
00000030: 93e3 90bd 614a 39be c0fc 3dbe 922e 24be
00000040: 3952 06be ef56 5dbe 6f6d 48bd 01a5 44be
00000050: 708f f3bc 826f 16be 65db d3bd a566 b4bd
00000060: 13c8 9fbc 1f32 c4bd 7feb bcbd 51e6 dabd
00000070: 7dee 83be 1875 38be 11aa 21bc 1674 18be
00000080: d028 58be 3859 42be fcf4 2ebe 4c4f 27bd
00000090: acca f4bd 41cb 45bd c8ec e9bd f195 7fbe
000000a0: cca8 04be c706 64be 939e b83c fc1a 06be
000000b0: 601e 22be afe8 aebd 3864 03be 0dc5 91bd
000000c0: c03a 11be 6d04 1cbe ada8 7dbe 65e9 94be
000000d0: 06a3 323d 5ca1 95be 5586 0fbe 98de 53be
000000e0: 3f39 82bd 3984 e7bd 7c79 7abe 13e4 3fbd
000000f0: 19e4 acbc 213b 2dbe 3470 58be f801 9abe
00000100: 8fdb 66be edec d6bd 7aa9 19be 3701 d63c
00000110: d1b6 65bd 6a99 30be 3ed8 9abd d992 50be
00000120: af6d a4be 8cc5 adbd 2c44 5ebe dd65 84bd
00000130: 12de 2cbe ee84 60be 14e1 1dbe ca7c 97bd
00000140: ad54 ddbd cc10 ddbc ed0e f4bd f56d b53c
00000150: bfb9 54be 4658 78be 5a64 5cbe fa97 32bd
00000160: db73 1fbe 6e09 fabd 8456 b3bd 7fb2 e03c
00000170: 5b7f 1b3c 8d70 9cbd 7a32 dbbd 65c1 4ebd
00000180: 36db b03d d73e 66be e2b9 0cbc eaba 0e3c

bn1.running_mean f4 [100]
-0.015761515 -0.053624216 -0.13681704 0.24300024 -0.07542089 -0.31580177 0.23185876 0.519521
0.6641301 -0.07683443 -0.15642388 -0.27636114 -0.31254035 0.36171225 -0.012934256 -0.22362694
0.17134546 -0.46919155 -0.15438542 -0.019663794 -0.32756782 0.601184 0.06191825 0.19603387
0.46718574 -0.18789838 -0.5287727 0.20006293 0.3415569 0.038066324 -0.634034 0.5132351
0.15129808 -0.32088694 0.2758571 0.085197374 -0.43449005 -0.08067909 0.7051128 0.24364159
-0.059363365 -0.71777236 0.36598697 -0.28384838 0.06478174 -0.60799253 -0.46423608 0.3241677
-0.6961002 -0.2959661 -0.50031316 -0.16264792 0.43111062 0.09256895 -0.3079439 0.14461957
0.017542548 -0.17114271 -0.36380196 -0.19937362 -0.29099825 -0.04363684 -0.47574937 -0.5242594
-0.7403331 -0.23274302 -0.765796 0.17091872 0.49284548 -0.45766357 -0.17191206 0.646202
0.10192763 -0.15900765 0.38363358 -0.49042743 0.18080847 -0.058637362 0.23823525 0.46100485
0.20209205 0.6120374 -0.1400443 -0.048789784 0.30354863 -0.4530796 -0.58082974 0.29705787
-0.035016857 -0.0927091 0.2287015 0.32993197 0.31911415 -0.104673326 0.17812258 0.3198251
0.20972547 0.24211942 0.4199892 -0.27929938
00000000: 4b1e 81bc 11a5 5bbd c419 0cbe 0ed5 783e
00000010: 4476 9abd c5b0 a1be 626c 6d3e 54ff 043f
00000020: 6e04 2a3f 5f5b 9dbd 952d 20be 357f 8dbe
00000030: 4a05 a0be 5932 b93e 34ea 53bc 76fe 64be
00000040: 2f75 2f3e e039 f0be 3617 1ebe f715 a1bc
00000050: f8b6 a7be 32e7 193f fe9d 7d3d 1abd 483e
00000060: f832 ef3e 6f68 40be a65d 07bf 4cdd 4c3e
00000070: 8ce0 ae3e 6feb 1b3d 0d50 22bf 6063 033f
00000080: e2ed 1a3e 4b4b a4be 243d 8d3e f67b ae3d
00000090: 7b75 debe 143b a5bd 4682 343f 2e7d 793e
000000a0: 0027 73bd eebf 37bf a562 bb3e 9354 91be
000000b0: 4aac 843d 66a5 1bbf 5ab0 edbe 4ff9 a53e
000000c0: 9f33 32bf de88 97be 8614 00bf 2d8d 26be
000000d0: 88ba dc3e ca94 bd3d d3aa 9dbe 2717 143e
000000e0: 64b5 8f3c 0940 2fbe 4044 babe 9928 4cbe
000000f0: b9fd 94be 8bbc 32bd 6c95 f3be dd35 06bf
00000100: 7886 3dbf 3054 6ebe 350b 44bf 5105 2f3e
00000110: 3e56 fc3e e152 eabe b709 30be 7f6d 253f
00000120: 6fbf d03d e7d2 22be 9f6b c43e 4e19 fbbe
00000130: db25 393e bb2d 70bd f1f3 733e d408 ec3e
00000140: 38f1 4e3e 7cae 1c3f c667 0fbe ccd7 47bd
00000150: ba6a 9b3e 0dfa e7be 42b1 14bf f817 983e
00000160: d66d 0fbd 45de bdbd ba30 6a3e d8ec a83e
00000170: ee62 a33e f85e d6bd c465 363e 1ec0 a33e
00000180: 46c2 563e 27ee 773e d308 d73e 5400 8fbe

bn1.running_var f4 [100]
0.020039367 0.033320572 0.031257417 0.018285226 0.033021253 0.039180554 0.016461521 0.019416383
0.028782777 0.022677056 0.019434592 0.024850652 0.02103638 0.0232062 0.024305822 0.027226703
0.030719932 0.030041825 0.021246377 0.031946898 0.029963734 0.025567787 0.027804147 0.022589104
0.024916772 0.01983993 0.026542235 0.028272659 0.03430897 0.02071599 0.022599332 0.027839506
0.021847121 0.023141354 0.021870725 0.015949186 0.022180347 0.021619296 0.03087579 0.023327116
0.025256034 0.022061301 0.020644646 0.022924114 0.027248401 0.022211257 0.035939634 0.019496717
0.026628952 0.031271327 0.02592169 0.028291916 0.021923319 0.029891202 0.036185186 0.02541565
0.020877145 0.026179353 0.027783241 0.02124644 0.02168864 0.02895037 0.032630887 0.025797023
0.03926263 0.024682833 0.02371647 0.023443032 0.024038563 0.046644542 0.028881522 0.02011987
0.021756995 0.019848924 0.020694783 0.017514018 0.024170216 0.021570843 0.021054788 0.020315832
0.023904439 0.02517526 0.022169491 0.02605202 0.024948495 0.037108716 0.02977571 0.02660505
0.020510582 0.03308766 0.024655517 0.026889112 0.029336063 0.034552947 0.017519861 0.03612281
0.022781732 0.021488028 0.028759072 0.025234269
00000000: 9929 a43c 277b 083d c707 003d e6ca 953c
00000010: 4b41 073d ca7b 203d 50da 863c 1b0f 9f3c
00000020: dcc9 eb3c 3cc5 b93c 4b35 9f3c 9893 cb3c
00000030: 7d54 ac3c ee1a be3c 011d c73c 890a df3c
00000040: 5ea8 fb3c 461a f63c e20c ae3c c0da 023d
00000050: 8176 f53c 8973 d13c 86c5 e33c c90c b93c
00000060: 421e cc3c 5987 a23c 1a6f d93c 109c e73c
00000070: 9087 0c3d 94b4 a93c 3c22 b93c ad0f e43c
00000080: bcf8 b23c f092 bd3c 3c2a b33c dea7 823c
00000090: 8fb3 b53c f31a b13c 3aef fc3c 8218 bf3c
000000a0: bee5 ce3c e7b9 b43c f61e a93c 5acb bb3c
000000b0: 0a38 df3c 62f4 b53c 7035 133d 94b7 9f3c
000000c0: f624 da3c 5d16 003d b959 d43c 73c4 e73c
000000d0: 8898 b33c 65de f43c eb36 143d 7b34 d03c
000000e0: 8c06 ab3c 1576 d63c ae99 e33c 040d ae3c
000000f0: 60ac b13c 5429 ed3c f7a7 053d 4754 d33c
00000100: dad1 203d a733 ca3c 0b49 c23c 9a0b c03c
00000110: 85ec c43c 590e 3f3d f198 ec3c 6dd2 a43c
00000120: ba3b b23c 369a a23c 1b88 a93c 8f79 8f3c
00000130: 9e00 c63c 56b5 b03c 177b ac3c 636d a63c
00000140: 3ed3 c33c 593c ce3c cb9c b53c 0c6b d53c
00000150: c960 cc3c 4fff 173d 31ec f33c d5f2 d93c
00000160: cf05 a83c ed86 073d 5efa c93c 8e46 dc3c
00000170: 2f52 f03c 6487 0d3d d085 8f3c 83f5 133d
00000180: c1a0 ba3c a907 b03c 2598 eb3c 19b8 ce3c

fc2.weight f4 [100, 100]
-0.0063819694 -0.01017528 0.06681151 0.039711535 -0.17448357 0.11644127 -0.01634828 -0.041492052
0.057475623 0.07483874 -0.13855657 0.043046445 -0.13060725 -0.07080749 0.011098688 -0.056336656
0.09562183 -0.031352233 -0.068863116 0.09189188 0.053916164 -0.06959323 0.11696653 0.026009822
-0.04753525 -0.0033169996 0.12589058 -0.09418485 0.025055682 -0.0021855412 0.026637575 -0.09411542
-0.04913743 0.058661584 -0.12361817 0.14688525 0.061809164 -0.13543878 -0.07659493 -0.04111477
-0.09930501 -0.032641947 -0.040467683 0.0342925 -0.019195287 -0.06525688 -0.040503606 0.122591846
-0.13492319 0.07151873 -0.028549528 -0.18677457 -0.038792748 -0.027981637 0.036117684 -0.0018978072
0.11715362 0.13581318 -0.24061757 0.091904595 -0.03061676 -0.1030011 0.08422359 0.034082405
0.017604174 -0.017648984 0.02662318 0.04108047 -0.052683767 0.0140177235 0.11472977 0.05824714
-0.104647025 -0.04840284 -0.052401114 0.088833235 -0.059429757 0.06334838 0.20824653 -0.034407206
-0.110892765 -0.15455298 0.14193714 0.07731316 0.03963653 -0.02641063 0.05560024 0.15669341
0.0003161066 -0.037040487 0.22484101 0.062207747 -0.08658923 0.10301777 0.01264367 -0.035817813
0.18116298 0.15714176 -0.022057796 0.067732714 0.028333073 0.088085085 -0.16371763 0.11421713
0.034704905 -0.061271846 0.16468383 -0.014309042 0.12939057 0.051967636 -0.019601744 -0.10860539
0.0979876 0.02686239 -0.050606355 -0.071862705 -0.08549931 0.003586873 -0.034064755 -0.11920143
0.031033313 0.071352705 -0.042580314 0.13077731 -0.010581677 0.019088097 -0.052205324 -0.040542606
0.18013108 0.07430736 0.14921252 0.006853338 -0.06799045 0.10780645 0.07583421 -0.18947466
-0.14387845 0.07429827 -0.121712476 0.081041284 -0.04556991 -0.016506484 0.015696937 0.07510956
-0.07372832 -0.019787861 -0.01010193 -0.12013579 -0.04591877 -0.0006259078 -0.06588169 0.030360246
0.055412285 -0.12993595 0.034890383 -0.014311358 -0.1348639 0.13665044 0.011210952 -0.004570393
0.065622196 -0.14909579 -0.07911433 0.029399738 0.023668855 0.08342433 -0.01678447 -0.12284184
-0.11316682 -0.0059712273 0.029412672 0.001177896 -0.04648207 -0.06055305 -0.008871288 -0.030922633
0.017782342 -0.027195984 -0.015414894 0.12349961 0.10565221 -0.04187266 -0.1773857 -0.17671528
-0.1222262 0.10884971 -0.04921186 -0.1480496 0.028644742 -0.0024536795 -0.050936498 -0.15540883
0.07735895 -0.12528436 0.111023486 0.017555239 -0.0013228205 -0.08140458 0.31201896 0.12050906
0.16184208 0.014830909 -0.16438852 0.020556005 0.16783527 -0.07378126 0.031047149 -0.040637564
0.13996634 0.0029001702 -0.00061881164 0.044235494 -0.0006282024 0.07020684 0.01793679 -0.009156797
0.009070602 0.04220473 0.096146055 0.019091189 -0.09788299 -0.05127878 -0.06710103 -0.058323905
-0.021197246 -0.00090396556 -0.0887002 -0.01895401 0.19105223 0.07238943 -0.010452251 -0.055761077
0.026863955 0.1421601 0.056809127 -0.073208325 -0.010864735 0.08977841 0.029012332 -0.0026478854
-0.05054898 0.010825208 -0.037813965 0.113829985 0.11875856 0.007087441 -0.07802693 0.06577458
0.032787357 0.11195363 -0.034566067 0.16514505 0.077887975 -0.062741 0.03906559 0.06643673
00000000: d71f d1bb 38b6 26bc 79d4 883d 90a8 223d
00000010: d2ab 32be c378 ee3d d4ec 85bc 92f3 29bd
00000020: 8f6b 6b3d 0e45 993d c6e1 0dbe 7851 303d
00000030: e8bd 05be 8403 91bd 45d7 353c 44c1 66bd
00000040: 61d5 c33d 336b 00bd 1b08 8dbd cf31 bc3d
00000050: 32d7 5c3d e586 8ebd 268c ef3d 8d12 d53c
00000060: 53b4 42bd 0562 59bb 76e9 003e fde3 c0bd
00000070: 9341 cd3c 4c3b 0fbb 0b37 da3c 96bf c0bd
00000080: 5444 49bd 2147 703d 862b fdbd 1669 163e
00000090: 9b2b 7d3d 77b0 0abe cddd 9cbd f667 28bd
000000a0: 6d60 cbbd 90b3 05bd 71c1 25bd 4b76 0c3d
000000b0: 6f3f 9dbc 66a5 85bd 1ce7 25bd 6f11 fb3d
000000c0: 4e29 0abe 6978 923d b3e0 e9bc d541 3fbe
000000d0: 25e5 1ebd bf39 e5bc 23f0 133d d8bf f8ba
000000e0: 3dee ef3d 9c12 0b3e 7464 76be 7a38 bc3d
000000f0: 00d0 fabc 3ef2 d2bd 6b7d ac3d fe99 0b3d
00000100: a136 903c 9a94 90bc db18 da3c ff43 283d
00000110: efca 57bd 98aa 653c 71f7 ea3d 8e94 6e3d
00000120: 2e51 d6bd 0e42 46bd 8da2 56bd 33ee b53d
00000130: 9e6c 73bd ccbc 813d 943e 553e 92ee 0cbd
00000140: bf1b e3bd 2343 1ebe f857 113e 5d56 9e3d
00000150: ea59 223d 1b5b d8bc 14bd 633d 3d74 203e
00000160: 1cbb a539 c4b7 17bd b93c 663e 8dcd 7e3d
00000170: b255 b1bd fbfa d23d 6527 4f3c b3b5 12bd
00000180: ca82 393e c5e9 203e 8db2 b4bc 73b7 8a3d
00000190: c31a e83c f465 b43d 98a5 27be acea e93d
000001a0: bb26 0e3d 30f8 7abd e1a2 283e 7970 6abc
000001b0: f67e 043e 04dc 543d d693 a0bc 816c debd
000001c0: b9ad c83d 840e dc3c 9c48 4fbd c12c 93bd
000001d0: 431a afbd be11 6b3b 7c87 0bbd e11f f4bd
000001e0: 9339 fe3c 5e21 923d b268 2ebd 7dea 053e
000001f0: c55e 2dbc a45e 9c3c 40d5 55bd 0110 26bd
00000200: 4874 383e 752e 983d 2bcb 183e f791 e03b
00000210: 943e 8bbd a1c9 dc3d f74e 9b3d a505 42be
00000220: df54 13be b129 983d 6444 f9bd f9f8 a53d
00000230: 84a7 3abd 9b38 87bc dd96 803c 0ad3 993d
00000240: e0fe 96bd 271a a2bc 9182 25bc c109 f6bd
00000250: 5215 3cbd f613 24ba fbec 86bd 0db6 f83c
00000260: fef7 623d ee0d 05be 38e9 0e3d 307a 6abc
00000270: c319 0abe 18ee 0b3e 24ae 373c 3cc3 95bb
00000280: ee64 863d 91ac 18be b206 a2bd b8d7 f03c
00000290: 30e5 c13c 60da aa3d 967f 89bc 8194 fbbd
000002a0: 01c4 e7bd 49aa c3bb d8f2 f03c a263 9a3a
000002b0: fc63 3ebd 7a06 78bd e158 11bc 7651 fdbc
000002c0: 46ac 913c 1dca debc c08e 7cbc 5ded fc3d
000002d0: 3060 d83d ab82 2bbd 99a4 35be daf4 34be
000002e0: bb51 fabd 99ec de3d 6092 49bd 509a 17be
000002f0: 61a8 ea3c e9cd 20bb caa2 50bd 7e23 1fbe
00000300: 5f6e 9e3d 8b4a 00be 4860 e33d 01d0 8f3c
00000310: 7e62 adba 72b7 a6bd f3c0 9f3e 74cd f63d
00000320: eeb9 253e 57fd 723c 7755 28be 1165 a83c
00000330: 02dd 2b3e a11a 97bd 9756 fe3c 9373 26bd
00000340: 5653 0f3e c810 3e3b bf37 22ba 4730 353d
00000350: f3ad 24ba 9bc8 8f3d 2df0 923c 6406 16bc
00000360: dd9c 143c dede 2c3d 39e8 c43d 2065 9c3c
00000370: e176 c8bd b309 52bd 446c 89bd 0ce5 6ebd
00000380: d9a5 adbc 1af8 6cba 73a8 b5bd 7145 9bbc
00000390: 32a3 433e e940 943d eb3f 2bbc ba65 64bd
000003a0: cc11 dc3c 6b92 113e b0b0 683d 3fee 95bd
000003b0: 0002 32bc bedd b73d 45ab ed3c 2588 2dbb
000003c0: 720c 4fbd 375c 313c d1e2 1abd b21f e93d
000003d0: b037 f33d c43d e83b 95cc 9fbd d3b4 863d
000003e0: 094c 063d f247 e53d 2695 0dbd c91b 293e
000003f0: bb83 9f3d 5a7e 80bd 3d03 203d fb0f 883d

fc2.bias f4 [100]
-0.08102606 0.09604457 -0.08160177 0.0394256 0.032629404 0.03775517 -0.05812936 0.068294935
-0.050641097 0.035861734 -0.008715258 -0.036846366 -0.09532325 0.063068874 0.04396903 -0.09906722
-0.06953084 0.005687998 0.01875675 -0.022280455 0.007669958 -0.06087693 -0.023929166 0.07923874
0.0017973637 0.08135744 -0.052540306 0.03154435 0.080489784 -0.09274475 0.030783601 0.032043252
-0.0014476232 0.03773577 -0.0038690488 -0.06460041 -0.060867324 0.09187401 -0.051642273 0.0010659174
0.07462382 0.010046204 -0.052306686 0.087173104 -0.0031045107 0.008521033 0.0281612 0.026972512
-0.09895358 0.06707179 0.031946234 -0.09766866 0.04536997 0.019857755 0.010788513 0.014987053
0.034850508 -0.04564063 0.08459041 -0.0667263 -0.07702075 -0.03417546 0.0486034 0.08798512
0.06552824 0.037475836 -0.011690412 0.017630117 -0.046661105 -0.054798305 -0.055844583 -0.012921167
0.0030434069 -0.042213224 0.07948176 -0.038669635 0.09220815 -0.07956937 -0.03770864 0.047651637
-0.094161704 -0.099061705 0.049300905 -0.0013514139 -0.007643532 -0.047935598 0.078717366 -0.019822264
-0.027108157 -0.015579301 0.0130606685 -0.0610017 0.005061792 0.017715491 -0.04864567 -0.053344227
-0.044092454 -0.0011027392 0.012359616 0.061177142
00000000: fef0 a5bd 04b3 c43d d41e a7bd bd7c 213d
00000010: 69a6 053d 2aa5 1a3d 0d19 6ebd 37de 8b3d
00000020: 0a6d 4fbd c1e3 123d 71ca 0ebc 37ec 16bd
00000030: d638 c3bd 412a 813d df18 343d c1e3 cabd
00000040: 2f66 8ebd 6362 ba3b c1a7 993c 8085 b6bc
00000050: 4554 fb3b 165a 79bd 1907 c4bc ec47 a23d
00000060: 8595 eb3a bb9e a63d 8134 57bd a634 013d
00000070: d4d7 a43d f6f0 bdbd e42d fc3c c93f 033d
00000080: 2dbe bdba d390 1a3d de8f 7dbb 384d 84bd
00000090: 0450 79bd 7128 bc3d d986 53bd 41b6 8b3a
000000a0: 60d4 983d d598 243c 893f 56bd d087 b23d
000000b0: 0c75 4bbb ce9b 0b3c 51b2 e63c 75f5 dc3c
000000c0: 2da8 cabd ef5c 893d 0eda 023d 8206 c8bd
000000d0: ddd5 393d bbac a23c 4ec2 303c 428c 753c
000000e0: 68bf 0e3d abf1 3abd bd3d ad3d cca7 88bd
000000f0: 0ebd 9dbd 91fb 0bbd 5c14 473d 8b31 b43d
00000100: ab33 863d 4380 193d 2489 3fbc 096d 903c
00000110: b71f 3fbd 3074 60bd 4abd 64bd 4db3 53bc
00000120: e573 473b c6e7 2cbd 55c7 a23d 0d64 1ebd
00000130: a0d7 bc3d 44f5 a2bd 6074 1abd 5d2e 433d
00000140: dad7 c0bd dde0 cabd bfef 493d ed21 b1ba
00000150: 9876 fabb 1e58 44bd 9236 a13d 4d62 a2bc
00000160: ed11 debc 5340 7fbc 6afc 553c ebdc 79bd
00000170: 64dd a53b 1420 913c af40 47bd 7a7f 5abd
00000180: 4a9a 34bd ca89 90ba fd7f 4a3c e294 7a3d

bn2.weight f4 [100]
1.3492243 1.252299 1.2354001 1.4417337 1.4477253 1.274207 1.2464545 1.295047
1.3265039 1.2861202 1.1862255 1.2468802 1.3162955 1.2537013 1.331264 1.2328845
1.291384 1.3296692 1.3556329 1.3630545 1.3772155 1.2756989 1.3583128 1.379364
1.2510698 1.3029377 1.2148762 1.255272 1.3269942 1.2137516 1.3483002 1.3233143
1.1748674 1.3786525 1.3231183 1.3846906 1.2831283 1.3065981 1.1777824 1.2344067
1.2903703 1.2903421 1.3077931 1.3479562 1.2641011 1.3089576 1.2701551 1.3638896
1.268244 1.3323667 1.1708325 1.2312737 1.3695291 1.2952961 1.2877902 1.166322
1.2480732 1.3079613 1.1194834 1.3509889 1.1915683 1.2974379 1.3539218 1.2840961
1.2526718 1.3019273 1.2414694 1.2797413 1.404942 1.3744098 1.2185297 1.2935642
1.2204347 1.3756409 1.2706679 1.2059696 1.2544544 1.1959487 1.2896113 1.4020804
1.2844219 1.3403822 1.4714174 1.2347746 1.3353267 1.2702814 1.2793 1.3161649
1.3840387 1.2858485 1.1700348 1.2845154 1.3529179 1.2866963 1.2920785 1.3737553
1.2786292 1.3026614 1.2945203 1.2775353
00000000: 62b3 ac3f 554b a03f 9721 9e3f bb8a b83f
00000010: 104f b93f 3719 a33f d28b 9f3f 1ac4 a53f
00000020: e1ca a93f 969f a43f 3dd6 973f c599 9f3f
00000030: 5f7c a83f 4979 a03f dc66 aa3f 29cf 9d3f
00000040: 124c a53f 9a32 aa3f 6185 ad3f 9278 ae3f
00000050: 9948 b03f 1a4a a33f 32dd ad3f 008f b03f
00000060: 0e23 a03f aac6 a63f 1081 9b3f c1ac a03f
00000070: f2da a93f 365c 9b3f 1a95 ac3f 5d62 a93f
00000080: 0e62 963f af77 b03f f15b a93f 8b3d b13f
00000090: 8c3d a43f 9b3e a73f 93c1 963f 0a01 9e3f
000000a0: db2a a53f ee29 a53f c465 a73f d489 ac3f
000000b0: 11ce a13f ec8b a73f 7194 a23f ef93 ae3f
000000c0: d255 a23f fe8a aa3f d7dd 953f 609a 9d3f
000000d0: bb4c af3f 43cc a53f 4fd6 a43f 0a4a 953f
000000e0: ddc0 9f3f 476b a73f 3b4b 8f3f 34ed ac3f
000000f0: 4f85 983f 7212 a63f 4f4d ad3f 435d a43f
00000100: 8d57 a03f 8ea5 a63f 78e8 9e3f 90ce a33f
00000110: 24d5 b33f a9ec af3f c8f8 9b3f 8393 a53f
00000120: 3437 9c3f 0015 b03f 3fa5 a23f 365d 9a3f
00000130: f691 a03f d914 993f fc11 a53f 5f77 b33f
00000140: f067 a43f a591 ab3f 6857 bc3f 180d 9e3f
00000150: fceb aa3f 9598 a23f 1ac0 a33f 1778 a83f
00000160: 2e28 b13f af96 a43f b3c3 953f 006b a43f
00000170: 6a2c ad3f 77b2 a43f d462 a53f 37d7 af3f
00000180: 1faa a33f 9cbd a63f d7b2 a53f 4786 a33f

bn2.bias f4 [100]
-0.019847412 0.052283287 0.0109567465 0.19503993 0.15423964 0.077259034 -0.050930418 0.03859076
0.0069701383 -0.008751466 -0.08967689 -0.012364964 0.040184848 -0.084182896 0.11391167 -0.057646
-0.010919267 0.015562914 -0.014460238 0.04622854 0.050626982 -0.0398343 0.09287664 0.1283379
-0.110425 0.11687978 0.05081482 -0.021967407 0.14104348 -0.049277082 -0.00063870824 0.044021394
-0.0649233 0.10428649 0.091610566 0.03798343 -0.012042023 0.073785484 -0.089865595 0.06885031
-0.10624317 0.022328649 0.0045288964 -0.011707639 0.051946748 -0.021521807 -0.013981699 0.062894605
-0.07231383 0.019029273 -0.05896066 -0.09444787 0.011427915 0.13557208 -0.044128116 -0.051108297
-0.112528086 0.014212781 -0.15633312 0.08888664 -0.09769317 0.020743588 -0.0123306345 -0.04043439
0.0067901695 0.06281063 0.039354075 0.0050298893 0.13515955 -0.0109443255 -0.02465041 0.0066266283
-0.011808939 -0.0069722845 -0.02848918 0.010594909 -0.02827774 -0.0579402 0.10999517 -0.024243824
-0.024901127 0.032611985 0.16100506 0.03542616 -0.12859009 -0.05521487 0.015013526 0.032404743
-0.018072154 0.0035652192 -0.13108738 -0.05487399 0.1202304 0.061575197 -0.000643096 0.09523703
0.020938748 -0.05015912 0.02618225 0.021414336
00000000: 0a97 a2bc 0027 563d ed83 333c 8cb8 473e
00000010: fff0 1d3e fc39 9e3d 6a9c 50bd 5811 1e3d
00000020: c265 e43b 4f62 0fbc 84a8 b7bd 6b96 4abc
00000030: de98 243d 1568 acbd 864a e93d 361e 6cbd
00000040: bae6 32bc 98fb 7e3c a2ea 6cbc 235a 3d3d
00000050: 3d5e 4f3d 4a29 23bd 1c36 be3d 036b 033e
00000060: 8126 e2bd ab5e ef3d 3323 503d fef4 b3bc
00000070: b46d 103e c4d6 49bd fc6e 27ba c74f 343d
00000080: 82f6 84bd 2894 d53d 529e bb3d 8394 1b3d
00000090: e84b 45bc d81c 973d 740b b8bd 6401 8d3d
000000a0: 0596 d9bd 92ea b63c 2367 943b 66d1 3fbc
000000b0: 1dc6 543d 804e b0bc 7f13 65bc e3ce 803d
000000c0: 4619 94bd 47e3 9b3c bc80 71bd e36d c1bd
000000d0: 263c 3b3c 68d3 0a3e afbf 34bd ef56 51bd
000000e0: 2075 e6bd b9dc 683c ca15 20be 330a b63d
000000f0: 5b13 c8bd 75ee a93c 6e06 4abc 889e 25bd
00000100: 1280 de3b dca2 803d bd31 213d c5d1 a43b
00000110: 4467 0a3e d44f 33bc a8ef c9bc 3024 d93b
00000120: 487a 41bc c377 e4bb 2462 e9bc 4596 2d3c
00000130: b8a6 e7bc b452 6dbd 2645 e13d fc9a c6bc
00000140: 73fd cbbc 2594 053d 83de 243e 051b 113d
00000150: 1fad 03be fd28 62bd 4bfb 753c d6ba 043d
00000160: 0e0c 94bc 74a6 693b c53b 06be 8dc3 60bd
00000170: 5b3b f63d 4636 7c3d 7195 28ba a20b c33d
00000180: bd87 ab3c a673 4dbd 287c d63c 1e6d af3c

bn2.running_mean f4 [100]
0.15774874 -0.041961927 0.032564517 -0.0903165 -0.010810757 0.33508113 0.26268774 0.14852273
0.32555613 0.2944581 -0.04570664 -0.24388131 0.30009443 -0.31141618 0.096267916 0.11188451
0.053068947 0.0021181505 -0.033285867 0.14371568 0.43863112 -0.114071794 -0.31933525 -0.07648625
-0.12284503 0.3628615 0.0119683705 0.27346516 0.059056006 0.11565164 0.041910898 0.4005963
-0.118406646 0.31233555 0.26970065 -0.17344181 -0.2355244 -0.048169088 -0.13058087 0.4451793
0.21259305 -0.42801923 0.0035067045 0.34935865 0.15895015 -0.03699554 0.4848851 -0.19889668
-0.071835816 -0.32028702 0.066424675 0.11335627 -0.05867578 -0.10126572 0.4137522 -0.29260063
-0.2737833 -0.25321347 -0.003925253 0.18926892 -0.083416924 -0.44665456 0.07579162 0.3188818
0.124122344 0.3916238 0.16192801 0.28447768 0.06362229 -0.09576016 -0.24439679 -0.28030416
0.29330528 0.024973376 -0.24145696 0.10300533 0.14705952 -0.2792921 -0.3941647 0.089927405
-0.14565782 -0.52474886 0.07759504 -0.09504441 0.21774791 0.40038598 0.06255575 -0.35915428
0.042511616 0.25821307 -0.21617056 0.1370404 0.07475794 0.32862696 0.06962278 -0.27276298
-0.10421381 -0.11094331 0.1921705 0.14067335
00000000: e388 213e 45e0 2bbd 5f62 053d dbf7 b8bd
00000010: 9a1f 31bc c18f ab3e 027f 863e 5816 183e
00000020: 4baf a63e 36c3 963e e336 3bbd 06bc 79be
00000030: faa5 993e f171 9fbe 1d28 c53d b523 e53d
00000040: d35e 593d abd0 0a3b c356 08bd 342a 133e
00000050: 4294 e03e 799e e9bd e97f a3be d3a4 9cbd
00000060: 2d96 fbbd fcc8 b93e fc16 443c a003 8c3e
00000070: b6e4 713d c4da ec3d c3aa 2b3d f51a cd3e
00000080: 2f7f f2bd 72ea 9f3e 3416 8a3e bb9a 31be
00000090: 4f2d 71be f34c 45bd feb6 05be 8bee e33e
000000a0: feb1 593e 5625 dbbe bdd0 653b 23df b23e
000000b0: d4c3 223e a388 17bd dc42 f83e 92ab 4bbe
000000c0: a81e 93bd a9fc a3be a909 883d 5527 e83d
000000d0: 0456 70bd 6764 cfbd 54d7 d33e c0cf 95be
000000e0: 532d 8cbe 32a5 81be 699f 80bb b6cf 413e
000000f0: 7ed6 aabd e8af e4be a338 9b3d 7a44 a33e
00000100: db33 fe3d ea82 c83e 75d0 253e 0fa7 913e
00000110: 674c 823d e71d c4bd 2743 7abe 0784 8fbe
00000120: 1c2c 963e f794 cc3c 7e40 77be 75f4 d23d
00000130: c596 163e 60ff 8ebe f5cf c9be dc2b b83d
00000140: 5327 15be f155 06bf 26ea 9e3d a5a6 c2bd
00000150: 4ff9 5e3e 64ff cc3e 3b1d 803d 12e3 b7be
00000160: a920 2e3d 8134 843e d15b 5dbe 5254 0c3e
00000170: b11a 993d cb41 a83e 6396 8e3d 97a7 8bbe
00000180: 0d6e d5bd 3f36 e3bd 58c8 443e ad0c 103e

bn2.running_var f4 [100]
0.2721289 0.29058853 0.26321623 0.27350938 0.24714173 0.2840008 0.20766461 0.30841753
0.31314892 0.2983841 0.26153713 0.27523112 0.21918552 0.2060189 0.24903177 0.26724482
0.18438306 0.28478807 0.2794219 0.28808254 0.2755847 0.30336118 0.29884726 0.2471986
0.2146145 0.22371103 0.21374775 0.2344721 0.26292935 0.29225147 0.30346692 0.29062045
0.201054 0.26152676 0.26640788 0.26492321 0.19764596 0.2923059 0.2360146 0.18442926
0.20507069 0.22556987 0.19389522 0.29289985 0.259945 0.22598481 0.30329135 0.2609311
0.23815155 0.2743605 0.28360587 0.2690995 0.20048513 0.23065323 0.25125492 0.18892328
0.25653833 0.2274462 0.22819914 0.38394728 0.19793874 0.25250554 0.19026862 0.29898492
0.27927092 0.25664756 0.21100923 0.2738715 0.2599066 0.2865457 0.20536184 0.25512284
0.21044782 0.247681 0.23991475 0.26061112 0.23336233 0.24633715 0.29211414 0.2354628
0.2555992 0.23189203 0.2734835 0.26561636 0.17983651 0.20342089 0.19832203 0.2511989
0.21147078 0.24899985 0.21750078 0.20654646 0.25135985 0.26815817 0.30440044 0.31575218
0.1856904 0.19895016 0.259167 0.21119271
00000000: 7b54 8b3e 05c8 943e 47c4 863e 6c09 8c3e
00000010: b912 7d3e 8e68 913e 08a6 543e e7e8 9d3e
00000020: 0e55 a03e cdc5 983e 32e8 853e 18eb 8c3e
00000030: 2b72 603e 9ef6 523e 2f02 7f3e 50d4 883e
00000040: eace 3c3e becf 913e 6310 8f3e 8e7f 933e
00000050: 7019 8d3e 2852 9b3e 8202 993e a121 7d3e
00000060: e7c3 5b3e 8114 653e b1e0 5a3e 7419 703e
00000070: ad9e 863e fca1 953e 0460 9b3e 34cc 943e
00000080: 1ae1 4d3e d6e6 853e 9d66 883e 04a4 873e
00000090: b463 4a3e 1ea9 953e d0ad 713e 06db 3c3e
000000a0: 0dfe 513e cafb 663e 788c 463e f8f6 953e
000000b0: 8317 853e 9068 673e 0149 9b3e c398 853e
000000c0: 00de 733e fb78 8c3e ca34 913e 69c7 893e
000000d0: f94b 4d3e 5c30 6c3e 7ca4 803e 1b75 413e
000000e0: fe58 833e a8e7 683e 09ad 693e bd94 c43e
000000f0: 74b0 4a3e 6848 813e c7d5 423e 8d14 993e
00000100: 99fc 8e3e 4f67 833e ce12 583e e338 8c3e
00000110: 7a12 853e 1eb6 923e 604a 523e 769f 823e
00000120: a27f 573e 17a0 7d3e 36ac 753e d26e 853e
00000130: 89f6 6e3e ce3f 7c3e fc8f 953e 291d 713e
00000140: e6dd 823e 1b75 6d3e 0806 8c3e defe 873e
00000150: 1027 383e 914d 503e ee14 4b3e 249d 803e
00000160: cc8b 583e d1f9 7e3e 86b8 5e3e ea80 533e
00000170: 3db2 803e 074c 893e 60da 9b3e 45aa a13e
00000180: a025 3e3e 97b9 4b3e 89b1 843e e742 583e

fc3.weight f4 [7, 100]
0.16368063 -0.08883891 -0.057250157 0.17849943 0.115460366 -0.26423487 0.11213473 -0.2091302
0.1278443 -0.31585193 -0.03563217 0.15828902 0.06656693 0.17207581 -0.102710396 0.116761126
0.076229304 0.057328057 -0.26905638 0.18284081 0.106986284 0.030093903 -0.44426912 -0.2911864
-0.052590672 0.024117567 0.10849258 -0.10449866 -0.43116117 0.13280573 -0.28314683 0.15165974
0.075556666 -0.36026618 -0.29914695 -0.35892385 -0.17602694 0.07542649 0.13395172 0.13480534
0.0899188 0.11179071 0.14357825 0.13385972 0.10936266 -0.15115581 -0.14905097 0.14046341
-0.077345006 -0.3350363 0.17281407 -0.14283584 0.15348612 -0.006942098 -0.24720898 0.040154677
-0.07803074 0.051327642 -0.24858963 0.10360704 -0.094822526 0.08922221 0.20518646 0.13707581
-0.42151594 -0.0049117017 0.115909584 -0.30898038 0.105262294 0.12254527 -0.16092812 0.03472386
-0.04996562 0.068436384 0.09276642 0.16666125 -0.1358521 0.16760673 -0.23911026 0.124382734
-0.0060958196 0.14121906 0.10722301 0.15453969 -0.19626974 -0.015699998 -0.19535887 -0.32927334
0.078108 -0.29100856 -0.07182701 -0.11194921 -0.28219134 -0.17326632 -0.19636884 0.0045854743
0.13088545 -0.019949855 -0.22997124 -0.23935948 -0.2281129 0.056874745 0.043320555 -0.37293565
0.16773869 0.13543545 0.13347492 -0.017375506 -0.43241808 0.08092922 -0.17855303 -0.08487675
-0.017032767 -0.2815229 -0.47214007 -0.26117033 0.164016 0.18910578 -0.1975417 -0.30556324
-0.0016722948 0.18435113 0.037778493 -0.23507547 -0.19028638 0.11424951 -0.11135105 0.09529057
-0.3208484 -0.01004695 -0.15968628 0.07284707 0.15566 0.17373383 0.10495291 -0.051966053
-0.14928247 0.09044156 -0.33744347 0.028895693 0.1599598 -0.30199632 -0.2176113 0.1760705
-0.2805797 -0.20893267 0.031877607 -0.22506633 -0.13492702 0.057017483 0.08755709 0.14521016
0.21842518 -0.40306613 0.15870474 0.004386107 0.21573155 -0.2595695 0.03449977 0.03049851
-0.119069375 -0.36653826 -0.03328661 0.11470708 0.101939745 0.15296389 0.037406135 0.061559822
-0.34640425 0.117177375 -0.020169284 -0.09846972 -0.44584674 0.13995412 0.12384492 -0.027032528
0.12687576 -0.16128288 0.091003805 -0.22207253 -0.27488482 -0.36442533 -0.4807171 -0.287011
-0.3643438 -0.030225955 -0.2545787 0.042220637 0.13861862 -0.2587096 0.065749064 0.19634192
0.14681982 0.17577696 0.14809941 0.11917739 0.17327301 0.08923739 -0.021031583 0.15511683
-0.11335444 -0.33723882 -0.26081973 -0.3646089 0.11036929 0.045900974 0.13872677 0.057179235
0.1874131 0.14860295 -0.2538085 -0.04810268 0.16198875 0.16747619 0.16814372 -0.22890118
-0.17229643 -0.23949985 0.04104753 0.09717164 0.09052955 -0.09010992 -0.27728102 0.119684085
-0.16321743 0.091201134 0.170481 -0.36009982 0.17907059 -0.21498306 -0.13736255 -0.28972092
-0.05328508 0.12098539 0.11267748 0.14309376 0.13547617 -0.20252606 0.13710769 0.12918878
-0.21260928 -0.32976002 -0.21748988 0.14869894 0.056283593 0.14527754 -0.31099856 0.13337453
0.13180473 -0.3115847 0.05651101 0.096709795 -0.33289942 0.10400307 0.028284166 -0.3432315
00000000: e59b 273e 2df1 b5bd 247f 6abd 8ec8 363e
00000010: 7c76 ec3d cb49 87be e5a6 e53d 3a26 56be
00000020: 9ee9 023e 58b7 a1be 0af3 11bd 8416 223e
00000030: 3e54 883d a434 303e d459 d2bd 7520 ef3d
00000040: 1c1e 9c3d d3d0 6a3d c2c1 89be 9f3a 3b3e
00000050: a01b db3d 7d87 f63c 3e77 e3be 6216 95be
00000060: 5169 57bd 3492 c53c 5c31 de3d 6503 d6bd
00000070: 28c1 dcbe 3afe 073e 9ff8 90be b14c 1b3e
00000080: 74bd 9a3d cf74 b8be ca29 99be dec4 b7be
00000090: 6840 34be 3479 9a3d a42a 093e 690a 0a3e
000000a0: 5927 b83d 87f2 e43d 2d06 133e 8612 093e
000000b0: 88f9 df3d 97c8 1abe d1a0 18be a4d5 0f3e
000000c0: 0f67 9ebd e189 abbe 2cf6 303e 8f43 12be
000000d0: 772b 1d3e 8a7a e3bb 5a24 7dbe 3b79 243d
000000e0: 95ce 9fbd ef3c 523d 488e 7ebe ee2f d43d
000000f0: 5032 c2bd 22ba b63d 661c 523e 9a5d 0c3e
00000100: f0d0 d7be 57f2 a0bb 0162 ed3d ad32 9ebe
00000110: c293 d73d 04f9 fa3d 57ca 24be 9b3a 0e3d
00000120: c0a8 4cbd 6028 8c3d 52fc bd3d 3fa9 2a3e
00000130: d01c 0bbe 19a1 2b3e 52d9 74be 60bc fe3d
00000140: 71bf c7bb bb9b 103e bd97 db3d a73f 1e3e
00000150: effa 48be 489d 80bc 280c 48be 8496 a8be
00000160: 16f7 9f3d 13ff 94be 0a1a 93bd a145 e5bd
00000170: 627b 90be ba6c 31be ea14 49be bf41 963b
00000180: d606 063e e16d a3bc 957d 6bbe a71a 75be
00000190: 6e96 69be 7ef5 683d e570 313d 6cf1 bebe
000001a0: b1c3 2b3e 97af 0a3e a6ad 083e 1457 8ebc
000001b0: e765 ddbe 38be a53d 9bd6 36be ddd3 adbd
000001c0: 4d88 8bbc c523 90be 58bc f1be 1eb8 85be
000001d0: cff3 273e f2a4 413e 5f48 4abe c972 9cbe
000001e0: e730 dbba 8bc6 3c3e 9fbd 1a3d a0b7 70be
000001f0: 6fda 42be a6fb e93d 050c e4bd b427 c33d
00000200: 3e46 a4be f69b 24bc cd84 23be d830 953d
00000210: 5665 1f3e 48e7 313e 8df1 d63d 5bda 54bd
00000220: 81dd 18be 6d39 b93d 64c5 acbe a9b6 ec3c
00000230: 80cc 233e 439f 9abe 7fd5 5ebe d34b 343e
00000240: 24a8 8fbe 72f2 55be 1892 023d ca77 66be
00000250: 4f2a 0abe 2a8b 693d 2251 b33d f9b1 143e
00000260: daaa 5f3e af5e cebe 7f83 223e 55b9 8f3b
00000270: bbe8 5c3e 4be6 84be a14f 0d3d 03d8 f93c
00000280: a5da f3bd e7aa bbbe 8a57 08bd 8ceb ea3d
00000290: c9c5 d03d 91a2 1c3e 2d37 193d 2726 7c3d
000002a0: e65b b1be b1fa ef3d 0e3a a5bc 7eaa c9bd
000002b0: 0646 e4be 2250 0f3e 68a2 fd3d 5273 ddbc
000002c0: b8eb 013e 5727 25be 3460 ba3d fb66 63be
000002d0: b4bd 8cbe f595 babe 8d20 f6be 1bf3 92be
000002e0: 458b babe 6c9c f7bc 2458 82be 8cef 2c3d
000002f0: 0af2 0d3e 9675 84be 72a7 863d db0d 493e
00000300: ef57 163e e0fe 333e 5fa7 173e 4713 f43d
00000310: 7b6e 313e 18c2 b63d 6d4a acbc f2d6 1e3e
00000320: 5f26 e8bd 91aa acbe 2a8a 85be 05ae babe
00000330: 4b09 e23d a902 3c3d 640e 0e3e c634 6a3d
00000340: 38e9 3f3e 5f2b 183e 30f3 81be 5107 45bd
00000350: 61e0 253e e17e 2b3e de2d 2c3e 1265 6abe
00000360: 7a6e 30be 733f 75be 7421 283d ed01 c73d
00000370: 8f67 b93d 8d8b b8bd c7f7 8dbe ee1c f53d
00000380: 7822 27be a9c7 ba3d 9292 2e3e 015f b8be
00000390: 485e 373e 8524 5cbe c5a8 0cbe 4d56 94be
000003a0: 7541 5abd 30c7 f73d 73c3 e63d 2c87 123e
000003b0: 44ba 0a3e fe62 4fbe f565 0c3e 104a 043e
000003c0: 3fb6 59be 4ed6 a8be abb5 5ebe 8944 183e
000003d0: a089 663d a3c3 143e 343b 9fbe 5593 083e
000003e0: d2f7 063e 0888 9fbe 1778 673d c90f c63d
000003f0: cb71 aabe 90ff d43d 32b4 e73c 0abc afbe

fc3.bias f4 [7]
0.02699964 0.004094617 0.014534939 0.051940944 -0.047067165 0.045060266 0.0038624764
00000000: 592e dd3c 232c 863b f423 6e3c 07c0 543d
00000010: 80c9 40bd 1d91 383d 9a21 7d3b
