code/2nd_model_pt.pt (torch_old, 74296 bytes, 14 tensors)

fc1.weight f4 [100, 63]
0.041149598 0.0051239864 0.057783823 0.16397035 -0.025530752 0.12079042 0.2699336 -0.10974407
0.044959027 0.06991537 -0.06383829 0.18580133 0.013595722 0.11792891 -0.02951536 0.0545428
0.11073153 0.14033729 0.11586646 0.017234795 0.027861657 -0.24559332 0.03937711 0.107783675
0.14979936 -0.08571185 0.031834923 0.08379483 0.07211481 -0.063266516 -0.042023893 -0.30716607
-0.34205005 -0.08221992 -0.07417624 -0.22708522 -0.042928092 -0.054561865 0.082054205 -0.03755154
-0.060315643 0.07567987 -0.21901028 -0.09025858 -0.16210453 0.011016908 0.056670334 -0.083436504
0.06761474 0.16392727 -0.009309436 0.16423376 0.19721335 0.052375875 0.058454983 0.097496614
0.17634286 0.11880365 0.07081536 -0.033066392 0.02562588 0.05203283 0.14346084 -0.012033666
0.034211006 0.12731323 0.12184436 -0.19056754 -0.14000309 0.22005394 0.18387425 -0.03881907
-0.024748685 -0.011737302 -0.039786726 0.022980066 -0.01097954 -0.08361891 0.30308032 0.12915488
-0.041913714 0.14172457 0.031083744 -0.021540858 -0.23784187 0.15357704 0.16951694 0.15566681
0.101446144 0.092114836 0.00260109 -0.060292013 -0.13579074 0.11856961 -0.2693476 0.027219897
-0.22828777 0.066058576 -0.1729554 -0.05853755 -0.15074342 -0.055212483 0.13632922 -0.015306448
-0.1783351 -0.016050331 -0.15257968 0.0107813 0.09222569 0.056026142 0.003810263 -0.3068796
-0.015628511 0.24875568 -0.06430363 0.04766684 0.006798002 0.07665542 -0.16296312 -0.035379276
0.10318268 0.021243796 -0.15421991 -0.009946485 -0.08839715 -0.10911061 -0.09216344 -0.1199527
-0.20801057 -0.08935612 0.22379512 0.2403537 0.07308348 0.2332483 -0.016559577 0.06650001
-0.01813945 -0.109516874 -0.10817495 -0.055865288 -0.12789588 0.023284819 0.12365316 -0.022074334
0.046097066 -0.012614195 0.07618134 0.079930715 -0.19672796 -0.03983552 0.17613372 -0.06263721
0.14222066 -0.029075088 -0.0755531 0.19932644 -0.091092326 -0.08134533 -0.08964129 0.20815352
-0.08922202 -0.07855015 -0.009415462 0.13115314 -0.09789843 -0.119742826 0.07107832 -0.040933337
-0.15685561 0.096793614 -0.051353864 0.09947957 0.091751784 0.1000815 0.20609921 0.15207177
0.16556898 -0.31977266 -0.37349108 -0.05012135 0.067671366 0.09365023 0.15371196 -0.13390811
0.029499847 0.08153427 -0.14020438 -0.06280131 0.07261679 0.15471718 0.03935034 -0.0022820628
-0.03388924 -0.081476346 -0.16524637 0.0038634932 -0.24931149 -0.1833759 0.14377388 0.0055910745
-0.050285354 -0.18636887 0.15042165 0.15707208 -0.20335235 0.16781089 0.07862993 -0.10559036
-0.032957666 -0.19894487 0.06281543 -0.054998662 -0.071727514 -0.33000508 -0.11164939 0.0026451508
-0.0073042023 0.028092468 0.040046345 0.10294876 0.31496802 0.14454225 0.07918719 -0.0178927
0.04558651 -0.09470372 -0.012057399 -0.049835958 0.11989156 0.05529899 -0.13263227 -0.29122
0.047526978 -0.16863999 -0.011028358 0.09148298 -0.056868486 -0.08452051 -0.18167277 -0.045618482
-0.08294918 -0.2540005 -0.05365212 -0.1366265 0.027060362 0.0059761074 0.25061113 -0.06427889
-0.03742479 0.076763675 -0.13189748 0.05911392 0.12567519 -0.1534848 -0.09092627 0.122144595
00000000: 7b8c 283d 1de7 a73b bbae 6c3d d8e7 273e
00000010: de25 d1bc f860 f73d bd34 8a3e 80c1 e0bd
00000020: f526 383d ca2f 8f3d a6bd 82bd b442 3e3e
00000030: 97c0 5e3c b684 f13d 32ca f1bc 4568 5f3d
00000040: 36c7 e23d 94b4 0f3e 654b ed3d fc2f 8d3c
00000050: 213e e43c d17c 7bbe e449 213d b0bd dc3d
00000060: 0165 193e b289 afbd 5665 023d a09c ab3d
00000070: eeb0 933d e091 81bd 3f21 2cbd df44 9dbe
00000080: 2f21 afbe eb62 a8bd b6e9 97bd 0789 68be
00000090: 5ed5 2fbd 437c 5fbd 090c a83d a5cf 19bd
000000a0: 890d 77bd 0cfe 9a3d 3b44 60be 7ed9 b8bd
000000b0: bbfe 25be 4380 343c 271f 683d c2e0 aabd
000000c0: 9979 8a3d 8ddc 273e 9b86 18bc e52c 283e
000000d0: 4cf2 493e 1688 563d 7e6e 6f3d 4eac c73d
000000e0: 3993 343e 544f f33d a507 913d a070 07bd
000000f0: 5eed d13c 6020 553d 66e7 123e da28 45bc
00000100: d720 0c3d 665e 023e 8989 f93d 2324 43be
00000110: f85c 0fbe d255 613e 8849 3c3e bf00 1fbd
00000120: c1bd cabc d04d 40bc 68f7 22bd b140 bc3c
00000130: 87e3 33bc 6440 abbd 582d 9b3e 2d41 043e
00000140: b7ad 2bbd 3f20 113e 56a3 fe3c 7476 b0bc
00000150: d28c 73be 4d43 1d3e d995 2d3e 1f67 1f3e
00000160: ffc2 cf3d b4a6 bc3d 0c77 2a3b c2f4 76bd
00000170: ba0c 0bbe a0d4 f23d eee7 89be 43fc de3c
00000180: 45c4 69be b849 873d 381b 31be 12c5 6fbd
00000190: 7c5c 1abe 7c26 62bd e399 0b3e e5c7 7abc
000001a0: 7a9d 36be fc7b 83bc d93d 1cbe 0da4 303c
000001b0: d3e0 bc3d ab7b 653d 9bb5 793b 531f 9dbe
000001c0: 5d07 80bc cfb9 7e3e 9fb1 83bd 4e3e 433d
000001d0: c6c1 de3b 84fd 9c3d cedf 26be dce9 10bd
000001e0: 7151 d33d 7807 ae3c d3eb 1dbe 95f6 22bc
000001f0: 9109 b5bd 6275 dfbd 30c0 bcbd c3a9 f5bd
00000200: b900 55be 5700 b7bd 8c2a 653e 481f 763e
00000210: cbac 953d a4d8 6e3e f3a7 87bc 2831 883d
00000220: 2f99 94bc 624a e0bd d48a ddbd 00d3 64bd
00000230: 23f7 02be cebf be3c de3d fd3d 3cd5 b4bc
00000240: 47d0 3c3d c5ab 4ebc f604 9c3d b7b2 a33d
00000250: 0e73 49be 922a 23bd 665c 343e f047 80bd
00000260: 4ba2 113e e12e eebc 95bb 9abd 3b1c 4c3e
00000270: 9d8e babd 6198 a6bd da95 b7bd 3226 553e
00000280: 09ba b6bd e7de a0bd 4f43 1abc 024d 063e
00000290: f97e c8bd ba3b f5bd 8391 913d b7a9 27bd
000002a0: c29e 20be bb3b c63d 6e58 52bd f2bb cb3d
000002b0: 5ce8 bb3d 88f7 cc3d ac0b 533e b4b8 1b3e
000002c0: ea8a 293e 3eb9 a3be 393a bfbe 0b4c 4dbd
000002d0: 4997 8a3d b1cb bf3d ab66 1d3e 351f 09be
000002e0: aaa9 f13c 70fb a63d bd91 0fbe f99d 80bd
000002f0: 1db8 943d 2e6e 1e3e d22d 213d a98e 15bb
00000300: 72cf 0abd 12dd a6bd 5836 29be a932 7d3b
00000310: 834b 7fbe e4c6 3bbe 7639 133e 5535 b73b
00000320: 04f8 4dbd 7bd7 3ebe 2208 1a3e 81d7 203e
00000330: 993b 50be 9ed6 2b3e bb08 a13d c23f d8bd
00000340: 9efe 06bd 34b8 4bbe 60a5 803d 4746 61bd
00000350: e0e5 92bd 6df6 a8be 6fa8 e4bd 445a 2d3b
00000360: 1758 efbb 2d22 e63c a307 243d cdd6 d23d
00000370: 7d43 a13e e202 143e e52c a23d b693 92bc
00000380: ecb8 3a3d 06f4 c1bd 668c 45bc ca20 4cbd
00000390: b589 f53d 3281 623d c1d0 07be ca1a 95be
000003a0: a6ab 423d f6af 2cbe 49b0 34bc 6e5b bb3d
000003b0: eeee 68bd 1719 adbd 6d08 3abe 72da 3abd
000003c0: 42e1 a9bd 5b0c 82be 53c2 5bbd d1e7 0bbe
000003d0: b1ad dd3c 39d3 c33b 1a50 803e a7a4 83bd
000003e0: bd4a 19bd 4636 9d3d 2210 07be 7021 723d
000003f0: ffb0 003e 1f2b 1dbe 8d37 babd f226 fa3d

fc1.bias f4 [100]
-0.0049818438 0.078253314 0.043174796 0.11507046 0.023060936 0.05453821 -0.012598962 -0.06483752
-0.07760355 -0.12008012 0.07151176 -0.12106388 -0.013655483 -0.0970677 -0.035144225 0.104319744
0.0469954 0.10717757 -0.0766372 0.009139775 -0.08648742 -0.049565457 -0.12204108 0.012270662
-0.06595169 0.023448141 0.021155912 0.0727993 -0.07954892 -0.087921485 -0.06795085 0.11405162
0.07556528 -0.026087238 0.094022475 0.07491661 0.04637156 -0.109768115 -0.018939229 -0.019853147
0.03197731 0.09274522 0.038101476 0.09975739 0.05203633 0.05587144 0.065691605 -0.09273538
-0.09321456 0.0852245 0.1253519 -0.022254596 -0.04280393 0.10451101 0.0053239884 0.00164717
-0.08126062 0.033017255 0.09108755 0.013915017 0.10965488 0.061049357 -0.04833871 0.06720904
0.040090535 -0.10511585 -0.020227222 -0.12351151 -0.047343995 -0.021628734 0.044054274 0.09439616
0.032393374 0.082801744 -0.012406585 0.11558301 0.02845593 -0.010862588 -0.08236207 -0.052353546
-0.066222444 -0.11024482 -0.10906646 -0.05029369 -0.107362814 0.04975861 0.07394954 0.017815348
0.044846952 0.104635626 -0.109166875 -0.1370327 0.09924813 -0.08625311 -0.046989307 -0.053314287
0.048532344 0.016230471 0.031308606 0.020408783
00000000: bc3e a3bb 4643 a03d 0ed8 303d 10aa eb3d
00000010: 4aea bc3c 7563 5f3d e06b 4ebc 89c9 84bd
00000020: 9cee 9ebd 91ec f5bd c274 923d 57f0 f7bd
00000030: 3fbb 5fbc 6ecb c6bd 64f3 0fbd 97a5 d53d
00000040: 407e 403d ea7f db3d f7f3 9cbd ffbe 153c
00000050: 5120 b1bd 2605 4bbd acf0 f9bd e30a 493c
00000060: ae11 87bd 5116 c03c 2a4f ad3c cd17 953d
00000070: 8bea a2bd 2e10 b4bd d129 8bbd e593 e93d
00000080: f8c1 9a3d e7b4 d5bc db8e c03d e16d 993d
00000090: 1bf0 3d3d 1bce e0bd 7126 9bbc 11a3 a2bc
000000a0: a4fa 023d 35f1 bd3d 4b10 1c3d 9a4d cc3d
000000b0: 0c24 553d 73d9 643d 5289 863d 0cec bdbd
000000c0: 46e7 bebd 2f8a ae3d 405c 003e 454f b6bc
000000d0: 2c53 2fbd de09 d63d da74 ae3b dbe5 d73a
000000e0: f86b a6bd 1a3d 073d 1c8c ba3d d0fb 633c
000000f0: bd92 e03d e40e 7a3d d0fe 45bd e5a4 893d
00000100: f935 243d fb46 d7bd 8fb3 a5bc 9af3 fcbd
00000110: c7eb 41bd be2e b1bc 4172 343d c652 c13d
00000120: eaae 043d f693 a93d fd44 4bbc c9b6 ec3d
00000130: 691c e93c fff8 31bc 72ad a8bd ac70 56bd
00000140: a29f 87bd 09c8 e1bd 3c5e dfbd c200 4ebd
00000150: 09e1 dbbd afcf 4b3d db72 973d 7ef1 913c
00000160: 70b1 373d 344b d63d e292 dfbd 4d52 0cbe
00000170: 9b42 cb3d 78a5 b0bd dc77 40bd 1560 5abd
00000180: dac9 463d c4f5 843c 743d 003d 5230 a73c

bn1.weight f4 [100]
0.9832519 0.93966234 0.9778989 0.977264 0.9472495 1.0221667 1.0035375 0.9369797
0.9697321 1.1119735 0.89434206 0.96466124 1.0086232 0.9184344 0.9864699 0.9862483
0.97917277 0.9669889 1.079788 1.0671071 1.0434352 0.9995708 1.0141119 0.981379
0.92697376 0.9487596 0.98784745 0.96283025 1.0260212 0.96483386 1.0175351 0.9450172
1.0648617 0.9727498 0.98404753 0.9634073 0.9969855 1.0408734 0.9240586 1.0675516
0.85561407 1.1060178 1.0150244 1.0331285 0.894454 0.90947044 1.0209322 0.9663866
0.9871562 0.8945111 1.0645516 1.0045055 1.0295186 0.87707525 0.9032178 0.8969951
0.93119794 0.991216 1.10357 0.9777701 1.0076332 1.0408218 1.0237793 1.0801553
1.0425571 0.96588475 1.0477574 0.8970101 0.90942335 0.95335245 0.902869 0.9976533
0.95433635 1.0039334 1.090848 1.014888 0.95177954 1.0171034 0.9368443 0.94537526
1.0490471 1.0288801 0.99621475 1.1288542 1.070861 0.9610024 0.97062707 0.9714579
1.0280765 1.0733933 0.9526914 1.0190963 0.90571064 0.995672 1.0301132 1.0361229
1.1429527 0.9584497 1.049705 0.74044585
00000000: 66b6 7b3f b68d 703f 9557 7a3f f92d 7a3f
00000010: f17e 723f 5cd6 823f eb73 803f e7dd 6f3f
00000020: 5d40 783f 2655 8e3f 9af3 643f 0af4 763f
00000030: 911a 813f 841e 6b3f 4b89 7c3f c57a 7c3f
00000040: 11ab 7a3f 968c 773f 7e36 8a3f f796 883f
00000050: 498f 853f dfe3 7f3f 6bce 813f a73b 7b3f
00000060: 274e 6d3f e9e1 723f 92e3 7c3f 0b7c 763f
00000070: aa54 833f 5aff 763f 973e 823f a6ec 713f
00000080: 634d 883f 2206 793f 8aea 7b3f dca1 763f
00000090: 713a 7f3f 573b 853f 1b8f 6c3f 88a5 883f
000000a0: 8609 5b3f fe91 8d3f 52ec 813f 8e3d 843f
000000b0: f0fa 643f 0ed3 683f e8ad 823f 1d65 773f
000000c0: 45b6 7c3f aefe 643f 3a43 883f a393 803f
000000d0: 44c7 833f 0188 603f 4839 673f 79a1 653f
000000e0: fd62 6e3f 55c0 7d3f c841 8d3f 244f 7a3f
000000f0: 20fa 803f a639 853f 330b 833f 8742 8a3f
00000100: 8372 853f 3944 773f ea1c 863f 74a2 653f
00000110: f8cf 683f e80e 743f 6c22 673f 3566 7f3f
00000120: 634f 743f e480 803f e8a0 8b3f dae7 813f
00000130: d3a7 733f 7230 823f 07d5 6f3f 1d04 723f
00000140: 2d47 863f 58b2 833f ee07 7f3f 4b7e 903f
00000150: f911 893f 4104 763f 047b 783f 77b1 783f
00000160: 0398 833f f464 893f 95e3 733f bf71 823f
00000170: a7dc 673f 5ce4 7e3f c0da 833f ad9f 843f
00000180: 464c 923f f65c 753f bc5c 863f dc8d 3d3f

bn1.bias f4 [100]
-0.2638957 -0.16801198 -0.09193627 -0.051039517 0.083160445 -0.24817504 -0.15733364 0.041672546
-0.13680206 -0.12632951 -0.14756821 -0.21171111 -0.09907696 -0.16560942 -0.05578644 -0.015177663
-0.0857164 -0.17712381 -0.14800225 -0.012226617 -0.19388814 -0.13209501 -0.29051507 -0.1373666
0.01203173 -0.15826902 -0.16833185 -0.27318114 -0.37098804 -0.036074802 -0.045842525 -0.056303244
-0.0024359755 -0.2552162 -0.15842472 -0.029205002 -0.038817756 0.00052551 -0.2758242 -0.22945014
-0.1871211 -0.118860796 -0.06551784 -0.1105056 -0.27345356 -0.05299956 0.011026105 -0.051610146
-0.19843188 -0.16633287 -0.18054298 -0.11230002 -0.09836536 -0.14701043 -0.24401107 -0.111054555
-0.23932569 -0.28664887 -0.20911762 -0.12157192 -0.030118506 -0.078704 0.051796272 0.09546021
-0.22947617 -0.06595489 0.002814201 -0.10567238 -0.15481888 -0.33012372 -0.15209846 -0.055464078
-0.08411559 0.07313347 -0.15979184 -0.05877213 -0.06645951 -0.15731025 -0.103661835 -0.16796602
-0.19424643 -0.31148684 -0.14593047 -0.17525321 -0.19956213 -0.12851885 -0.22152409 -0.075945765
-0.18169989 -0.12232487 -0.20123279 0.033757944 -0.15765661 -0.2382629 -0.19184825 -0.12993695
-0.22444066 0.017630547 -0.1890996 -0.31828114
00000000: 561d 87be 550b 2cbe 1549 bcbd d00e 51bd
00000010: 0650 aa3d 9921 7ebe 121c 21be d5b0 2a3d
00000020: d715 0cbe 865c 01be 1f1c 17be ccca 58be
00000030: dce8 cabd 8495 29be 5280 64bd bcab 78bc
00000040: 148c afbd f25f 35be e78d 17be 2652 48bc
00000050: 9d8a 46be ea43 07be 64be 94be d4a9 0cbe
00000060: bc20 453c 4611 22be 2f5f 2cbe 66de 8bbe
00000070: 25f2 bdbe 2cc3 13bd 5fc5 3bbd 3b9e 66bd
00000080: e3a4 1fbb b3ab 82be 173a 22be 543f efbc
00000090: 5eff 1ebd 61c2 093a d438 8dbe faf4 6abe
000000a0: ac9c 3fbe 4a6d f3bd 382e 86bd c350 e2bd
000000b0: 1b02 8cbe 1116 59bd d6a6 343c 2965 53bd
000000c0: ba31 4bbe 2a53 2abe 42e0 38be 8efd e5bd
000000d0: c773 c9bd e789 16be 0ade 79be 9270 e3bd
000000e0: cb11 75be a4c3 92be ee22 56be b3fa f8bd
000000f0: 16bb f6bc 902f a1bd 5428 543d a580 c33d
00000100: cdfb 6abe 5b13 87bd 756e 383b c36a d8bd
00000110: d788 1ebe fa05 a9be b3bf 1bbe 4d2e 63bd
00000120: cb44 acbd 00c7 953d 79a0 23be 0cbb 70bd
00000130: ec1b 88bd f015 21be a84c d4bd 49ff 2bbe
00000140: 89e8 46be 347b 9fbe cc6e 15be 9475 33be
00000150: 045a 4cbe 729a 03be 36d7 62be 7489 9bbd
00000160: 890f 3abe 7685 fabd f80f 4ebe c545 0a3d
00000170: bc70 21be 31fb 73be de73 44be 310e 05be
00000180: c6d3 65be f06d 903c 53a3 41be bff5 a2be

bn1.running_mean f4 [100]
0.52013016 -0.026222957 0.033494547 -0.061189692 -0.097515956 0.21265419 0.0047669164 0.04788671
-0.11886236 0.283202 0.19736537 0.00888615 -0.56333137 -0.42116284 0.20517848 0.15092298
-0.19610891 0.22036204 0.21355058 -0.12003087 -0.07101871 -0.05509479 -0.67565084 -0.24210393
0.030649103 0.54259986 -0.1603738 -0.06597257 0.022451192 -0.28330854 0.033600327 0.27550513
0.44517207 0.118968904 0.037497286 0.4398287 -0.17731959 -0.6984967 -0.09799428 -0.17920473
-0.0051925755 -0.083517745 0.030711228 0.6053387 0.45009834 0.41626018 -0.37960553 -0.25391856
0.29382455 0.49949852 0.18969719 -0.38447276 -0.024552234 -0.0727909 0.14256811 -0.45282534
0.020003684 -0.006894604 0.16025838 -0.18237926 0.4148902 -0.040933337 -0.12368566 0.19482894
-0.26367486 0.22387117 -0.21985453 -0.4689438 -0.4254163 -0.010330763 -0.20935224 -0.6307656
0.5544025 0.24076363 0.06306918 0.33021253 -0.6147403 -0.58587575 -0.00562696 -0.33673322
-0.4480272 0.2531844 -0.46006736 0.16173661 0.11357346 -0.5560039 -0.0066389227 -0.15456198
0.16394553 0.0287592 0.009300947 -0.18161133 0.22731955 -0.117611565 -0.2217624 0.48637238
0.30571336 -0.16686732 0.08648679 -0.29519305
00000000: 4027 053f 87d1 d6bc 9431 093d 0ba2 7abd
00000010: 72b6 c7bd 05c2 593e cb33 9c3b db24 443d
00000020: 1c6e f3bd daff 903e 261a 4a3e 3797 113c
00000030: 7c36 10bf a8a2 d7be 4f1a 523e 8e8b 1a3e
00000040: c6d0 48be 96a6 613e 01ad 5a3e bfd2 f5bd
00000050: 4272 91bd 13ab 61bd 74f7 2cbf 18ea 77be
00000060: d413 fb3c d3e7 0a3f 0839 24be a01c 87bd
00000070: 90eb b73c d10d 91be 7fa0 093d 020f 8d3e
00000080: 98ed e33e f8a5 f33d c196 193d 3a31 e13e
00000090: 4493 35be aed0 32bf 3ab1 c8bd 7281 37be
000000a0: 7b26 aabb 5a0b abbd 1d96 fb3c 7af7 1a3f
000000b0: 4a73 e63e 0e20 d53e a85b c2be 9d01 82be
000000c0: 2c70 963e 45be ff3e fb3f 423e 9dd9 c4be
000000d0: c421 c9bc 6513 95bd 60fd 113e b9d8 e7be
000000e0: c4de a33c 21ec e1bb c61a 243e a1c1 3abe
000000f0: 7d6c d43e b7a9 27bd e84e fdbd 3d81 473e
00000100: 6400 87be 7c3e 653e 8c21 61be 6719 f0be
00000110: 2ad0 d9be 5c42 29bc 6f60 56be db79 21bf
00000120: 52ed 0d3f be8a 763e 6a2a 813d 9e11 a93e
00000130: 9f5f 1dbf f4fb 15bf 5d62 b8bb 4c68 acbe
00000140: d263 e5be 63a1 813e f38d ebbe 489e 253e
00000150: 3499 e83d 4656 0ebf 528b d9bb 7f45 1ebe
00000160: 56e1 273e 6a98 eb3c 0063 183c 52f8 39be
00000170: 75c6 683e 55de f0bd af15 63be cd05 f93e
00000180: 7686 9c3e 44df 2abe fc1f b13d 8b23 97be

bn1.running_var f4 [100]
0.022961099 0.025309281 0.028986486 0.029802127 0.024557205 0.026391005 0.018296788 0.02962973
0.019917537 0.019295752 0.027569298 0.024533138 0.024949403 0.03264664 0.02269077 0.017128117
0.019374091 0.021083932 0.021256283 0.02237892 0.019423952 0.019705663 0.031225208 0.014805199
0.026416646 0.034734104 0.024231898 0.021874046 0.020911539 0.036479395 0.019359622 0.021337278
0.02621379 0.029290918 0.016173415 0.024749923 0.028908884 0.033173155 0.030143272 0.020142544
0.023748904 0.02377295 0.02337527 0.029450387 0.026990378 0.02158246 0.015683169 0.014665399
0.019954564 0.021770198 0.015353165 0.022855809 0.020226032 0.02359997 0.03480454 0.031794053
0.021286706 0.026808621 0.022810437 0.021582056 0.03753945 0.021182401 0.019198488 0.028084222
0.017526636 0.017751046 0.0173476 0.024376871 0.034842193 0.02428509 0.017354507 0.022973895
0.030542567 0.033478744 0.016381742 0.027049566 0.029201765 0.041141517 0.019828012 0.029109914
0.01608297 0.017648324 0.020887276 0.018941728 0.03297523 0.035197422 0.017800542 0.019078558
0.023926003 0.017791566 0.026077252 0.01849556 0.022068065 0.02363318 0.0140705025 0.02720383
0.01799828 0.027946379 0.018309379 0.021590939
00000000: ea18 bc3c 6955 cf3c 1175 ed3c 9723 f43c
00000010: 312c c93c f331 d83c 25e3 953c 0cba f23c
00000020: 1a2a a33c 2012 9e3c 02d9 e13c b8f9 c83c
00000030: b162 cc3c 7cb8 053d fee1 b93c 4450 8c3c
00000040: 6ab6 9e3c 36b8 ac3c a821 ae3c ff53 b73c
00000050: fb1e 9f3c c56d a13c 02cc ff3c 8191 723c
00000060: b967 d83c 5945 0e3d f981 c63c 3331 b33c
00000070: ad4e ab3c 6b6b 153d 1298 9e3c 84cb ae3c
00000080: 4dbe d63c 82f3 ef3c 1c7e 843c 5ac0 ca3c
00000090: 53d2 ec3c 93e0 073d 06ef f63c fa01 a53c
000000a0: 108d c23c 7dbf c23c 7f7d bf3c f041 f13c
000000b0: ed1a dd3c b3cd b03c fd79 803c 2447 703c
000000c0: c177 a33c 6a57 b23c d78b 7b3c 1b3c bb3c
000000d0: 10b1 a53c b954 c13c 358f 0e3d 7b3a 023d
000000e0: 7561 ae3c c19d db3c f4dc ba3c dacc b03c
000000f0: f7c2 193d b786 ad3c 2646 9d3c e210 e63c
00000100: 0594 8f3c a46a 913c 8e1c 8e3c 01b2 c73c
00000110: b0b6 0e3d 86f1 c63c 0a2b 8e3c c033 bc3c
00000120: 6834 fa3c 0221 093d 0133 863c 0d97 dd3c
00000130: 8a38 ef3c 0284 283d 5b6e a23c ea77 ee3c
00000140: 6fc0 833c 3893 903c cb1b ab3c af2b 9b3c
00000150: 0911 073d 2c2b 103d 71d2 913c a34a 9c3c
00000160: 7700 c43c 9ebf 913c f69f d53c 0084 973c
00000170: 16c8 b43c 5f9a c13c f787 663c 91da de3c
00000180: 2171 933c ceef e43c 8dfd 953c 7bdf b03c

fc2.weight f4 [100, 100]
-0.09535314 -0.07424904 0.062424205 0.14366361 -0.02475608 0.13218433 -0.071921006 0.023153018
0.1869562 0.030822814 0.007139616 0.14677384 -0.025333295 0.05417414 -0.0015058257 -0.12622209
0.09568949 -0.09923396 0.003404929 -0.08370272 0.04805394 -0.03237673 -0.097653486 0.0053634713
0.099511504 -0.0046496736 -0.028590703 -0.034493685 0.051419895 0.0033848071 -0.20297813 -0.00025720475
0.042390447 -0.0052146185 0.014148205 -0.11240974 0.13199554 0.10745599 0.02672365 -0.027345994
-0.04234202 -0.15370196 0.15160865 0.043308843 0.10378183 0.0460283 -0.010183199 0.1461643
0.026488766 -0.1218913 -0.10054419 0.024167348 0.020292785 -0.121105865 -0.1587706 -0.09366
-0.11590135 0.066487566 -0.076390244 0.10725709 0.14314799 0.049840122 0.065725155 -0.25888446
0.000734731 -0.060009196 -0.031240521 -0.061450753 0.04021987 -0.008276666 -0.16145745 0.054280564
-0.033919405 0.015650127 0.14959623 -0.009309458 -0.033077996 -0.15488392 0.1454125 0.001972709
-0.0018987139 -0.06263189 0.12859608 0.12757017 -0.0023071887 -0.02115902 -0.08497819 0.037112907
-0.21062194 -0.108349204 -0.22058423 -0.03418519 0.049270727 0.1269666 0.25144625 0.024791991
0.004098742 -0.047760636 -0.1255243 0.08846903 0.05501557 0.06753328 0.009667417 -0.12031375
0.025874123 -0.047677837 0.112627275 0.032410003 -0.13840613 -0.08762303 0.07953635 -0.035705782
-0.024566434 -0.065219626 0.05618146 -0.018229406 0.040496383 -0.011473535 0.010136669 -0.089099795
-0.053828225 0.18231954 0.27695858 -0.18693477 0.077114604 0.09556641 0.08236117 0.050376672
-0.020182526 -0.033849586 0.1314745 0.112496905 0.11896954 -0.060101397 -0.092366844 0.01942003
-0.060892276 -0.21026736 -0.18099527 0.011477999 -0.18976755 0.018250702 -0.15188204 0.02171819
-0.11598901 0.0014745791 0.123101644 -0.03602232 -0.0767133 -0.0059132376 -0.0007909116 -0.09720118
0.03970719 0.024186306 0.021158788 0.07201737 -0.029386511 0.023160433 0.24780731 -0.16660947
-0.053884424 0.006342663 -0.034966946 0.12313508 0.016227337 0.03698416 0.11282328 -0.12516682
0.09821713 0.041300658 -0.025518313 -0.100142024 0.07242427 0.054324 -0.076809116 0.022526333
0.03366023 -0.12207689 -0.061029896 0.0013191247 -0.025710383 0.09214414 -0.05904239 -0.18103142
-0.08218373 -0.081103094 -0.17928693 0.08187248 0.033729777 0.16051395 0.03690953 -0.17375323
0.040013127 -0.06630017 -0.004642023 -0.04930321 -0.047078457 0.17222525 -0.15607674 -0.017190795
0.059012275 0.03725676 -0.1085645 -0.024220742 -0.1327656 0.07517298 -0.035416875 0.058940783
0.0068004476 0.036100328 -0.063138425 0.14088722 -0.041534614 0.28483295 0.002195829 -0.033035394
0.06073732 0.11465644 0.06601073 0.09484742 0.17567876 -0.123597965 -0.014128141 -0.16422383
-0.011619739 0.07695905 0.10265171 -0.029218508 -0.13818786 -0.06057685 -0.009396399 0.052122664
0.18164803 0.010796565 0.007765531 0.063062854 0.047818497 -0.108706236 -0.12939909 0.06952244
-0.07076653 0.12841217 0.033744458 0.07216311 0.103153735 -0.04353558 0.012250807 -0.0012483153
-0.008475063 -0.08940096 -0.2134896 -0.19093367 0.04608151 0.07184006 -0.10256635 0.010665431
00000000: 8248 c3bd e10f 98bd 86b0 7f3d 8e1c 133e
00000010: 43cd cabc 545b 073e 524b 93bd 66ab bd3c
00000020: 7271 3f3e 2080 fc3c 71f3 e93b e24b 163e
00000030: c587 cfbc b4e5 5d3d 205f c5ba 5d40 01be
00000040: daf8 c33d 2d3b cbbd 3b25 5f3b 556c abbd
00000050: 35d4 443d 769d 04bd 8dfe c7bd 0fc0 af3b
00000060: b0cc cb3d 4a5c 98bb 0d37 eabc 4049 0dbd
00000070: ab9d 523d a4d3 5d3b 80d9 4fbe 70d9 86b9
00000080: 9ba1 2d3d 64df aabb dfcd 673c 1437 e6bd
00000090: d729 073e e311 dc3d 8eeb da3c b504 e0bc
000000a0: d36e 2dbd 0c64 1dbe 4c3f 1b3e 9d64 313d
000000b0: 918b d43d 2c88 3c3d 6fd7 26bc 18ac 153e
000000c0: f8fe d83c 25a2 f9bd 1dea cdbd 9afa c53c
000000d0: 0e3d a63c 5a06 f8bd c394 22be d0d0 bfbd
000000e0: b05d edbd a22a 883d 7d72 9cbd 9ba9 db3d
000000f0: 6395 123e 2825 4c3d e99a 863d 818c 84be
00000100: f69a 403a 34cc 75bd 1fec ffbc c9b3 7bbd
00000110: 97bd 243d da9a 07bc 1a55 25be 4c55 5e3d
00000120: 13ef 0abd b234 803c c12f 193e b286 18bc
00000130: cb7c 07bd e499 1ebe 04e7 143e 9148 013b
00000140: 44de f8ba 2645 80bd b1ae 033e c1a1 023e
00000150: 3434 17bb ae55 adbc 0c09 aebd b403 183d
00000160: 47ad 57be 30e6 ddbd d5e0 61be c505 0cbd
00000170: 1ad0 493d 8803 023e 90bd 803e 9318 cb3c
00000180: bd4e 863b a8a0 43bd 7189 00be 402f b53d
00000190: 0258 613d e34e 8a3d 1664 1e3c 0e67 f6bd
000001a0: f8f5 d33c d649 43bd 21a9 e63d 5ac0 043d
000001b0: 56ba 0dbe b473 b3bd f4e3 a23d 3a40 12bd
000001c0: 8c3f c9bc de91 85bd 881e 663d d655 95bc
000001d0: 89df 253d 7efb 3bbc 4514 263c f479 b6bd
000001e0: fc7a 5cbd f9b1 3a3e 84cd 8d3e d46b 3fbe
000001f0: 43ee 9d3d 52b8 c33d f9ac a83d c557 4e3d
00000200: d355 a5bc dda5 0abd 40a1 063e c764 e63d
00000210: 4da6 f33d e22c 76bd d42a bdbd c116 9f3c
00000220: 2e6a 79bd 5450 57be d356 39be 380e 3c3c
00000230: 6d52 42be 7f82 953c f786 1bbe 58ea b13c
00000240: a58b edbd aa46 c13a b71c fc3d 248c 13bd
00000250: dd1b 9dbd d5c3 c1bb 2e55 4fba 6a11 c7bd
00000260: 02a4 223d 5c22 c63c 3255 ad3c d87d 933d
00000270: fbbb f0bc f3ba bd3c 33c1 7d3e ac9b 2abe
00000280: eab5 5cbd 1dd6 cf3b 8039 0fbd 3f2e fc3d
00000290: 31ef 843c b47c 173d e40f e73d bb2b 00be
000002a0: 1026 c93d e12a 293d c80b d1bc 4317 cdbd
000002b0: 2d53 943d d882 5e3d 194e 9dbd 2589 b83c
000002c0: 4fdf 093d 7303 fabd 7cfa 79bd 7be6 ac3a
000002d0: 959e d2bc 11b6 bc3d 6fd6 71bd 4d60 39be
000002e0: f24f a8bd 6119 a6bd fe96 37be c2ac a73d
000002f0: 3c28 0a3d c55d 243e 732e 173d 5eec 31be
00000300: cee4 233d 62c8 87bd 1c1c 98bb 2af2 49bd
00000310: 57d5 40bd d15b 303e 95d2 1fbe b6d3 8cbc
00000320: dbb6 713d 8b9a 183d 1157 debd 946a c6bc
00000330: b5f3 07be 4bf4 993d 4911 11bd e46b 713d
00000340: 4ad6 de3b f0dd 133d b84e 81bd bd44 103e
00000350: 3320 2abd a0d5 913e e6e7 0f3b 1f50 07bd
00000360: b2c7 783d ffd0 ea3d a230 873d 5d3f c23d
00000370: 22e5 333e ee20 fdbd b879 67bc 4b2a 28be
00000380: b860 3ebc b59c 9d3d 0f3b d23d a75b efbc
00000390: 1e81 0dbe 6e1f 78bd 5bf3 19bc 937e 553d
000003a0: f101 3a3e 13e4 303c ff75 fe3b 1927 813d
000003b0: 54dd 433d 60a1 debd 3281 04be c861 8e3d
000003c0: 0bee 90bd 7b7e 033e a137 0a3d 41ca 933d
000003d0: 4442 d33d 5d52 32bd 9cb7 483c 839e a3ba
000003e0: feda 0abc da17 b7bd 059d 5abe 1e84 43be
000003f0: f7bf 3c3d e220 933d 4e0e d2bd 0fbe 2e3c

fc2.bias f4 [100]
0.068547055 0.05636741 -0.07419097 0.037267227 -0.029597027 0.04988486 -0.051977027 0.03516194
0.010155376 0.027290052 -0.0012346961 0.056196585 -0.044981603 -0.02831673 -0.03819751 0.010604766
0.029582871 0.06277651 -0.04961955 -0.09542681 0.07895086 0.05986748 0.095855 -0.08697182
-0.0009812469 0.08540344 0.02710157 0.016692968 0.08650718 0.072082154 0.065467596 0.04439392
-0.02074976 -0.021837162 -0.072539546 0.0938404 -0.068727225 0.023299439 0.09284171 0.03263741
0.0966507 0.08588953 -0.07557669 0.039598737 -0.0049650185 -0.07186009 -0.09630947 0.038172744
0.05730391 -0.04202812 0.046997137 -0.097245015 -0.064009316 0.009002404 -0.024508255 0.020302296
-0.02493696 0.097027645 0.07436531 -0.07240792 -0.036234315 0.06012024 0.027031397 0.04001346
-0.042906206 0.030691855 -0.03148131 -0.044158213 0.09666923 0.050348684 -0.048066527 -0.040274926
-0.005892432 0.026815621 0.06691357 0.06558988 -0.017925635 0.049372915 0.088668175 0.07851082
0.041945077 0.08356565 0.0576845 -5.778178e-05 0.040997237 0.013823641 -0.04515327 -0.08322209
0.048316676 -0.06633387 -0.017815018 -0.011860463 -0.09171316 0.031156948 0.083334886 0.030883862
0.057368618 -0.048789926 0.040142722 -0.054812957
00000000: 6662 8c3d 83e1 663d 6ff1 97bd 85a5 183d
00000010: 7775 f2bc 1154 4c3d dde5 54bd f705 103d
00000020: bc62 263c 638f df3c 87d5 a1ba 642e 663d
00000030: a13e 38bd 7df8 e7bc fe74 1cbd 9dbf 2d3c
00000040: c757 f23c f990 803d df3d 4bbd 226f c3bd
00000050: fdb0 a13d 9a37 753d a04f c43d 481e b2bd
00000060: 2f9d 80ba 00e8 ae3d 1d04 de3c b1bf 883c
00000070: ad2a b13d cf9f 933d e013 863d 66d6 353d
00000080: 67fb a9bc d9e3 b2bc 9d8f 94bd 652f c03d
00000090: dcc0 8cbd 77de be3c cb23 be3d ceae 053d
000000a0: cdf0 c53d dae6 af3d f4c7 9abd 4932 223d
000000b0: 98b1 a2bb 622b 93bd e63d c5bd 065b 1c3d
000000c0: 81b7 6a3d ae25 2cbd 1280 403d 6528 c7bd
000000d0: 5117 83bd d27e 133c 89c5 c8bc 0051 a63c
000000e0: 9848 ccbc 6eb6 c63d d74c 983d 9b4a 94bd
000000f0: 6f6a 14bd a440 763d f370 dd3c 27e5 233d
00000100: 6bbe 2fbd 7c6d fb3c 8cf2 00bd 3edf 34bd
00000110: 84fa c53d 6c3a 4e3d 68e1 44bd 52f7 24bd
00000120: 4d15 c1bb 6fac db3c fb09 893d fd53 863d
00000130: c8d8 92bc 413b 4a3d a997 b53d 48ca a03d
00000140: 9ace 2b3d 7824 ab3d 9546 6c3d b75a 72b8
00000150: b8ec 273d 8e7c 623c a3f2 38bd 5870 aabd
00000160: b5e7 453d 0dda 87bd cdf0 91bc 6352 42bc
00000170: 1cd4 bbbd db3c ff3c 7bab aa3d 2700 fd3c
00000180: 5bfb 6a3d f2d7 47bd b26c 243d 8d83 60bd

bn2.weight f4 [100]
1.2158325 1.258347 1.235683 1.188879 1.292242 1.3276674 1.3326347 1.197507
1.2601714 1.2818394 1.2623878 1.137289 1.2800791 1.4217683 1.2448492 1.2205198
1.3431444 1.410912 1.2331989 1.1927621 1.2602993 1.1226274 1.2639407 1.2883314
1.2369518 1.3718678 1.3436245 1.2919002 1.2394861 1.3886441 1.2951882 1.3146378
1.1839504 1.3143222 1.3588752 1.3312013 1.3003168 1.2943598 1.363602 1.2634081
1.273854 1.2836428 1.2502617 1.37221 1.2184554 1.3026558 1.2629181 1.3264521
1.2949353 1.3256824 1.358961 1.1804837 1.156837 1.1753631 1.2875557 1.1692294
1.2384747 1.1867346 1.1117295 1.1989545 1.2130245 1.4182295 1.3004906 1.2126769
1.3722658 1.2688627 1.2816484 1.4213487 1.3337611 1.2687045 1.2980685 1.2729497
1.348863 1.1973097 1.2632667 1.3315691 1.2615907 1.2587513 1.2666566 1.3665874
1.3737675 1.2547287 1.2693927 1.4707086 1.3098922 1.3305871 1.3455945 1.2680631
1.3053241 1.3065649 1.2642807 1.2922026 1.3940496 1.2402552 1.2964888 1.2373497
1.3699307 1.2432377 1.3408785 1.2679304
00000000: 66a0 9b3f 8411 a13f dc2a 9e3f 302d 983f
00000010: 3068 a53f 01f1 a93f c693 aa3f e947 993f
00000020: 4c4d a13f 5013 a43f ec95 a13f b092 913f
00000030: a2d9 a33f 81fc b53f 3857 9f3f fe39 9c3f
00000040: 28ec ab3f c498 b43f 76d9 9d3f 6eac 983f
00000050: 7d51 a13f 41b2 8f3f cfc8 a13f 0be8 a43f
00000060: 7054 9e3f 5d99 af3f e3fb ab3f fc5c a53f
00000070: 7ba7 9e3f 17bf b13f bac8 a53f 0d46 a83f
00000080: b08b 973f b63b a83f 9fef ad3f ce64 aa3f
00000090: c870 a63f 95ad a53f 838a ae3f 5bb7 a13f
000000a0: a60d a33f 684e a43f 9308 a03f 94a4 af3f
000000b0: 59f6 9b3f 6dbd a63f 4da7 a13f 2fc9 a93f
000000c0: 71c0 a53f f6af a93f 6ff2 ad3f 171a 973f
000000d0: 3c13 943f 4c72 963f a0ce a43f 4fa9 953f
000000e0: 5786 9e3f ebe6 973f 274d 8e3f 5777 993f
000000f0: 6344 9b3f 8b88 b53f 7a76 a63f ff38 9b3f
00000100: 68a6 af3f 186a a23f 0e0d a43f c1ee b53f
00000110: afb8 aa3f e964 a23f 1c27 a63f 04f0 a23f
00000120: 8ba7 ac3f 7241 993f b9b2 a13f db70 aa3f
00000130: ce7b a13f c31e a13f ce21 a23f 56ec ae3f
00000140: 9dd7 af3f f39a a03f 767b a23f 2e40 bc3f
00000150: 8caa a73f ae50 aa3f 713c ac3f e44f a23f
00000160: dc14 a73f 853d a73f f3d3 a13f e566 a53f
00000170: 3870 b23f afc0 9e3f 58f3 a53f 7a61 9e3f
00000180: e459 af3f 6a22 9f3f e8a1 ab3f 8b4b a23f

bn2.bias f4 [100]
-0.13958606 0.0023819527 -0.023292353 -0.106530905 -0.05973333 -0.031098608 0.11141692 -0.062014017
-0.17734754 -0.10314297 -0.095460765 -0.15324686 -0.0050408477 0.13328691 -0.14091532 -0.14551067
-0.038859244 0.003117117 -0.011581558 -0.14053735 -0.071791016 -0.18837948 0.0399439 -0.03674382
-0.044986703 0.10516035 0.0016622504 -0.07710571 -0.07093852 -0.008706033 0.047632556 0.08468431
-0.053348992 0.0024545079 -0.048683774 0.088277504 -0.009531341 -0.028050033 0.014782903 -0.12488681
-0.03267875 -0.044749755 -0.11336759 0.028944239 -0.040491417 0.10617271 0.020916965 0.006378678
-0.0196901 0.03269313 0.02848033 -0.15059584 -0.062736124 -0.13590705 0.01880595 -0.19072597
-0.07116879 -0.10174402 -0.19531342 -0.09849193 -0.09147119 -0.0011244828 -0.061232876 -0.08094566
0.069307566 -0.09718201 -0.08872244 0.16172639 0.028597878 -0.06358087 -0.08453965 -0.083576925
-0.09628719 -0.16783004 -0.045075707 0.024139347 -0.12795988 0.043121636 -0.035377815 -0.1113005
0.01892254 -0.09024522 -0.1227638 0.10985084 -0.07031125 0.0043662162 -0.11077437 -0.11740698
0.021772841 -0.08983519 -0.072700635 0.026882408 0.032135755 -0.07682116 -0.05944513 -0.07919538
-0.07583277 -0.06440295 0.13114415 -0.071563005
00000000: a6ef 0ebe 891a 1c3b 9bcf bebc e02c dabd
00000010: f0aa 74bd 82c2 febc 8e2e e43d 6902 7ebd
00000020: 989a 35be 9f3c d3bd ef80 c3bd bfec 1cbe
00000030: b22d a5bb 5d7c 083e 1b4c 10be c000 15be
00000040: df2a 1fbd 8c48 4c3b 93c0 3dbc 06e9 0fbe
00000050: 2b07 93bd 8de6 40be 379c 233d b080 16bd
00000060: fa43 38bd 4f5e d73d dedf d93a 99e9 9dbd
00000070: 3748 91bd c0a3 0ebc 5b1a 433d f86e ad3d
00000080: 7984 5abd cfdb 203b a368 47bd d6ca b43d
00000090: 5729 1cbc 2fc9 e5bc fd33 723c a8c4 ffbd
000000a0: 27da 05bd 854b 37bd 442d e8bd 781c ed3c
000000b0: 54da 25bd 1471 d93d 0e5a ab3c 3b04 d13b
000000c0: 224d a1bc 3be9 053d 954f e93c cc35 1abe
000000d0: cc7b 80bd 382b 0bbe f00e 9a3c ab4d 43be
000000e0: f1c0 91bd 2b5f d0bd 3e00 48be 23b6 c9bd
000000f0: 3f55 bbbd 6263 93ba 53cf 7abd d7c6 a5bd
00000100: 20f1 8d3d 5d07 c7bd 1cb4 b5bd 9a9b 253e
00000110: 1946 ea3c b036 82bd 2023 adbd 612a abbd
00000120: 3832 c5bd a3db 2bbe 4ea1 38bd e1bf c53c
00000130: ea07 03be 50a0 303d 54e8 10bd 84f1 e3bd
00000140: 7103 9b3c 7cd2 b8bd 966b fbbd 7af9 e03d
00000150: 58ff 8fbd 7a12 8f3b acdd e2bd 1273 f0bd
00000160: f55c b23c 83fb b7bd 12e4 94bd 7f38 dc3c
00000170: c8a0 033d 6a54 9dbd bd7c 73bd 3031 a2bd
00000180: 364e 9bbd b2e5 83bd a74a 063e a08f 92bd

bn2.running_mean f4 [100]
0.0053010387 -0.10949258 -0.026608799 0.18637177 -0.20849508 0.06360154 0.2555666 0.10651311
-0.2766352 -0.3497823 -0.12814392 0.57932454 -0.38587725 -0.062363908 0.12983978 -0.2876114
0.091896094 0.052055374 0.15634952 0.14311224 0.60486746 0.27411747 -0.18587811 0.17469177
0.18439686 -0.23910914 -0.123226695 -0.36512607 0.29614067 -0.18708366 -0.33344236 -0.26237467
-0.47455835 -0.060274553 -0.3276055 -0.06378537 0.038357075 -0.40707117 0.12664506 -0.36318272
0.20851092 0.45902312 -0.24159177 -0.25303462 -0.02636607 -0.22835332 -0.47961268 0.13135922
-0.07460361 -0.33497432 -0.1696038 -0.24429668 -0.47834194 0.16158178 0.23902261 -0.047016546
-0.14653187 0.025024211 0.13908301 -0.4034776 0.035824534 0.15165506 0.19305879 0.33828855
-0.21190508 -0.21404845 0.22144586 -0.31699648 -0.2059717 0.46248755 -0.46686372 0.49128753
-0.069361486 0.19611779 -0.74681556 -0.12208684 -0.0393363 0.36243045 0.06358922 0.45078108
0.13858253 -0.1396298 -0.10422372 0.17403133 -0.016002456 0.31835058 -0.16102308 -0.29221708
-0.036097668 0.2024427 -0.2563184 -0.19798693 -0.18269163 0.32381773 -0.07811964 -0.37576717
0.31529883 -0.30157897 0.44601402 -0.14447737
00000000: 56b4 ad3b a53d e0bd b2fa d9bc 3ed8 3e3e
00000010: bc7f 55be 8641 823d a0d9 823e 8c23 da3d
00000020: 21a3 8dbe aa16 b3be 2938 03be 9d4e 143f
00000030: b491 c5be 4c71 7fbd b8f4 043e cd41 93be
00000040: 0534 bc3d 0438 553d 171a 203e 048c 123e
00000050: 98d8 1a3f 2059 8c3e d556 3ebe 66e2 323e
00000060: 88d2 3c3e 07d9 74be 475e fcbd cef1 babe
00000070: c09f 973e dc92 3fbe f5b8 aabe f955 86be
00000080: 50f9 f2be 73e2 76bd e8bb a7be e7a1 82bd
00000090: 4f1c 1d3d a26b d0be 3eaf 013e 16f3 b9be
000000a0: e383 553e 1405 eb3e d563 77be c18d 81be
000000b0: a8fd d7bc 74d5 69be cb8f f5be 0883 063e
000000c0: c7c9 98bd c181 abbe 9eac 2dbe e928 7abe
000000d0: 3ce9 f4be b275 253e 58c2 743e 6c94 40bd
000000e0: 730c 16be 93ff cc3c c76b 0e3e 9e94 cebe
000000f0: bfbc 123d 774b 1b3e 34b1 453e 2834 ad3e
00000100: a5fd 58be 842f 5bbe b4c2 623e 5d4d a2be
00000110: 3fea 52be 2bcb ec3e c308 efbe 0a8a fb3e
00000120: 650d 8ebd 1ad3 483e 4e2f 3fbf aa08 fabd
00000130: 1a1f 21bd 7c90 b93e 113b 823d c7cc e63e
00000140: 94e8 0d3e 1dfb 0ebe 3f73 d5bd 4535 323e
00000150: 9517 83bc d9fe a23e 3ce3 24be 7a9d 95be
00000160: 26db 13bd 244d 4f3e 2a3c 83be 16bd 4abe
00000170: 8413 3bbe 70cb a53e 31fd 9fbd 8e64 c0be
00000180: d96e a13e 8f68 9abe f35b e43e e0f1 13be

bn2.running_var f4 [100]
0.23654114 0.22507069 0.21714601 0.21982814 0.23210515 0.22940785 0.18663196 0.25638166
0.24176311 0.16450001 0.20675544 0.17184976 0.19534323 0.219039 0.25739473 0.19311498
0.24032913 0.2466026 0.24788782 0.22839801 0.29453242 0.21928333 0.2038538 0.26957574
0.19500864 0.19634667 0.18679364 0.21998572 0.19202681 0.20213298 0.22342359 0.2197563
0.2115663 0.23101231 0.2274604 0.21197553 0.23754472 0.20171453 0.19644217 0.20580128
0.23900494 0.2300725 0.19966276 0.22954462 0.2031297 0.22264114 0.28329718 0.27814212
0.1563386 0.2191298 0.21685833 0.1881153 0.34682435 0.18263893 0.289828 0.19332036
0.19268598 0.21008569 0.17937717 0.20502485 0.1827076 0.23494674 0.19054732 0.2085671
0.31250712 0.21725722 0.2779528 0.19439304 0.22917742 0.20603764 0.24821818 0.23210865
0.25881186 0.19941683 0.2778971 0.21797392 0.19009534 0.2034063 0.16439925 0.277334
0.3070205 0.19954506 0.24807844 0.23870687 0.19258709 0.2294701 0.22590098 0.19795865
0.20417339 0.23966439 0.2232977 0.21189265 0.24382135 0.19418353 0.21405542 0.17898051
0.21848185 0.18223599 0.23970905 0.18441053
00000000: d737 723e ee78 663e 865b 5e3e a11a 613e
00000010: f9ac 6d3e e4e9 6a3e 731c 3f3e 7544 833e
00000020: c090 773e b172 283e b3b7 533e 62f9 2f3e
00000030: 0e08 483e c24b 603e 3ec9 833e efbf 453e
00000040: d718 763e 6485 7c3e 4ed6 7d3e 2be1 693e
00000050: f4cc 963e cf8b 603e 0dbf 503e d505 8a3e
00000060: 58b0 473e 1a0f 493e d546 3f3e f043 613e
00000070: ada2 443e f3fb 4e3e 27c9 643e cc07 613e
00000080: d6a4 583e 7e8e 6c3e 61eb 683e 1d10 593e
00000090: ec3e 733e 418e 4e3e 2328 493e 92bd 523e
000000a0: b6bd 743e 2098 6b3e 6574 4c3e bf0d 6b3e
000000b0: 3b01 503e 0afc 633e 540c 913e a568 8e3e
000000c0: 3a17 203e 9063 603e 1c10 5e3e 4ca1 403e
000000d0: f692 b13e b305 3b3e 5664 943e c6f5 453e
000000e0: 794f 453e b420 573e a6ae 373e 09f2 513e
000000f0: b317 3b3e e195 703e d61e 433e 9d92 553e
00000100: ef00 a03e ad78 5e3e d44f 8e3e f80e 473e
00000110: 7cad 6a3e 88fb 523e e82c 7e3e e4ad 6d3e
00000120: fd82 843e ed33 4c3e 8748 8e3e 8e34 5f3e
00000130: 5aa8 423e be49 503e 4758 283e b9fe 8d3e
00000140: ca31 9d3e 8a55 4c3e 4608 7e3e 936f 743e
00000150: 8d35 453e 36fa 6a3e 9652 673e acb5 4a3e
00000160: d412 513e 956a 753e 27a8 643e 63fa 583e
00000170: 4eac 793e 0cd8 463e 5831 5b3e ab46 373e
00000180: b5b9 5f3e 129c 3a3e 4a76 753e 1dd6 3c3e

fc3.weight f4 [7, 100]
-0.15044902 -0.010887768 0.08551465 0.14824657 0.0023030983 0.10024983 0.056439716 -0.20228179
0.12540318 -0.29934415 -0.14677897 0.06637332 0.18284318 0.07436514 0.15059564 -0.0314677
-0.21141042 -0.29392046 0.0810637 0.21037512 -0.04824037 -0.12604852 -0.21643259 -0.18445443
0.070463926 0.03207918 -0.2049589 -0.0502329 0.10062285 0.11881718 0.08253723 -0.30786598
0.02237493 0.104807906 -0.2243803 -0.3905661 -0.5065094 0.072731525 0.10812389 -0.14385858
-0.22252396 -0.4014457 -0.038533796 0.059611578 0.11853561 0.13418347 -0.0235308 0.047837317
-0.4192253 -0.29210514 -0.25775394 -0.24891636 -0.25629726 -0.24300894 0.08958323 0.02434758
0.21622095 -0.101901904 -0.13182832 0.018398855 -0.23696597 0.10735822 0.11379159 0.1301265
-0.0047516963 0.1187 0.17876977 -0.5734061 -0.29390898 0.18987826 -0.25730678 0.16021931
0.13822201 0.21443444 -0.40393373 -0.36429825 0.17463581 0.07284014 -0.109091334 -0.032096773
0.10496886 -0.018369427 -0.23175354 -0.5016739 -0.1576441 0.08907285 0.16688879 0.15120497
0.18568406 0.12925 -0.31113726 0.08464467 0.10133411 -0.16638683 -0.029277153 -0.3923946
0.13825902 0.10263333 0.04207295 -0.19282243 0.11613224 -0.0342104 -0.08143704 0.07750265
-0.12185754 0.04542152 -0.41492632 -0.079177946 0.07150548 0.16483192 0.106735684 -0.22900571
0.12636821 0.053792942 -0.008673439 0.10880447 -0.38196743 0.14614514 0.15802397 -0.25542474
-0.2372452 0.15006322 0.16849065 0.11401405 -0.27403858 0.07870928 0.12236566 0.12500264
-0.26385754 0.08842736 0.06350775 0.1551276 -0.005629995 0.05560363 0.06483119 0.07398052
0.02341861 -0.38812762 0.06532932 -0.03358432 -0.09383505 -0.15490444 -0.016309775 0.121987306
-0.4425531 0.095555544 -0.4757484 -0.37472427 0.054313324 -0.045503944 0.12798612 -0.15807699
0.0213967 0.1855816 -0.21505271 -0.108112305 -0.0057722074 0.08006349 0.09388021 -0.20347583
0.1851956 0.108776726 0.12733401 -0.19696225 -0.24557512 0.15106918 0.17957354 0.12318644
0.09692126 -0.19762519 0.04234546 -0.2987919 -0.15607151 -0.07164119 0.13754801 0.118032895
0.15410142 -0.08602924 -0.29505125 -0.39469817 -0.30173942 0.16599949 0.064983904 0.10417653
-0.25915688 -0.41795906 -0.3279155 0.059320547 -0.38968718 0.20965573 -0.019786134 0.16592741
0.15068378 0.18586631 -0.26869118 -0.18465023 -0.12540482 0.1583609 0.0394452 -0.24707417
-0.17225306 0.00545881 -0.11098095 -0.14685394 -0.46195966 -0.37330726 -0.27067125 0.098667465
-0.18891785 0.16545917 -0.30788323 -0.12721415 -0.09723644 0.093368344 0.08125529 -0.122637026
0.13717435 -0.27636492 0.12970261 0.060210917 0.16830389 -0.12698588 -0.10010665 0.05648078
0.13370761 0.059189588 -0.036678214 -0.21461828 -0.087101996 -0.22280225 0.15697627 0.094072156
0.018842937 0.16156672 -0.3931992 -0.11319416 0.13372248 0.06516812 -0.36379266 0.15178892
0.20993309 0.09307068 0.037273146 -0.037722252 -0.122763924 0.13455135 0.09605741 0.098846555
0.12078445 0.11404627 -0.39323124 -0.0016334985 0.11436453 0.16594756 0.06034769 -0.03356666
00000000: 4f0f 1abe 9c62 32bc 4e22 af3d f3cd 173e
00000010: 94ef 163b c84f cd3d 552d 673d f522 4fbe
00000020: b169 003e a343 99be 3a4d 16be bcee 873d
00000030: 3e3b 3b3e c04c 983d be35 1a3e 46e4 00bd
00000040: f97b 58be be7c 96be ba04 a63d 936c 573e
00000050: b297 45bd dd12 01be 81a0 5dbe 9fe1 3cbe
00000060: 644f 903d 7565 033d bfe0 51be 03c1 4dbd
00000070: 5a13 ce3d 6c56 f33d 4709 a93d 9ca0 9dbe
00000080: a14b b73c 87a5 d63d f3c3 65be 48f8 c7be
00000090: 9aaa 01bf 44f4 943d 0f70 dd3d aa4f 13be
000000a0: 52dd 63be 4a8a cdbe 9dd5 1dbd 452b 743d
000000b0: ccc2 f23d 6467 093e aac3 c0bc 10f1 433d
000000c0: b3a4 d6be ce8e 95be 53f8 83be eee3 7ebe
000000d0: 6539 83be 56d7 78be 6a77 b73d 9374 c73c
000000e0: 0669 5d3e f2b1 d0bd 01fe 06be 32b9 963c
000000f0: 35a7 72be a0de db3d 910b e93d e23f 053e
00000100: 1eb4 9bbb fc18 f33d 6c0f 373e beca 12bf
00000110: 3d7b 96be 726f 423e b7bd 83be 8810 243e
00000120: 128a 0d3e b494 5b3e 67d0 cebe 4d85 babe
00000130: bbd3 323e 362d 953d 476b dfbd e877 03bd
00000140: eaf9 d63d 7b7b 96bc cd50 6dbe b36d 00bf
00000150: 746d 21be d46b b63d e5e4 2a3e 7ad5 1a3e
00000160: f623 3e3e 1d5a 043e 624d 9fbe 2f5a ad3d
00000170: 4288 cf3d 4f61 2abe a4d6 efbc f2e7 c8be
00000180: c693 0d3e 6c31 d23d b054 2c3d 3e73 45be
00000190: bdd6 ed3d 3420 0cbd 76c8 a6bd b6b9 9e3d
000001a0: 7290 f9bd ea0b 3a3d 3971 d4be 0c28 a2bd
000001b0: 7771 923d b3c9 283e 3d98 da3d 7980 6abe
000001c0: ab66 013e fd55 5c3d 0a1b 0ebc e1d4 de3d
000001d0: 3c91 c3be 12a7 153e 09d1 213e 08c7 82be
000001e0: 68f0 72be 2caa 193e d088 2c3e 3380 e93d
000001f0: c94e 8cbe 5532 a13d d99a fa3d b100 003e
00000200: 5618 87be 6719 b53d 5a10 823d c5d9 1e3e
00000210: d27b b8bb a2c0 633d 37c6 843d 1983 973d
00000220: 63d8 bf3c aab8 c6be 61cb 853d b68f 09bd
00000230: 972c c0bd 459f 1ebe 149c 85bc 7bd4 f93d
00000240: 5296 e2be a0b2 c33d 4b95 f3be dcdb bfbe
00000250: a677 5e3d 5862 3abd cb0e 033e efde 21be
00000260: 2248 af3c 1a09 3e3e c736 5cbe fc69 ddbd
00000270: c924 bdbb 54f8 a33d 4444 c03d f85b 50be
00000280: eaa3 3d3e 55c6 de3d d963 023e 79b0 49be
00000290: 0b78 7bbe e1b1 1a3e 20e2 373e 2c49 fc3d
000002a0: a77e c63d 425e 4abe 6f72 2d3d 40fb 98be
000002b0: 36d1 1fbe 9eb8 92bd 63d9 0c3e 3bbb f13d
000002c0: c3cc 1d3e 1930 b0bd f510 97be e115 cabe
000002d0: 977d 9abe c5fb 293e 4816 853d 815a d53d
000002e0: 36b0 84be bbfe d5be 8ae4 a7be 1afa 723d
000002f0: 1485 c7be feaf 563e 8816 a2bc e0e8 293e
00000300: d94c 1a3e bd53 3e3e e491 89be f314 3dbe
00000310: 1f6a 00be 5c29 223e 4a91 213d 0301 7dbe
00000320: 1b63 30be d1df b23b fb49 e3bd e160 16be
00000330: fa85 ecbe 2122 bfbe 6c95 8abe 2b12 ca3d
00000340: ae73 41be 216e 293e dfa2 9dbe 6d44 02be
00000350: e623 c7bd e737 bf3d 2c69 a63d 1f29 fbbd
00000360: 6f77 0c3e b47f 8dbe c3d0 043e b99f 763d
00000370: db57 2c3e 9608 02be b704 cdbd 6458 673d
00000380: a6ea 083e c870 723d e53b 16bd e5c4 5bbe
00000390: 8862 b2bd 4626 64be 63be 203e e7a8 c03d
000003a0: 815c 9a3c bf71 253e 6851 c9be 57d2 e7bd
000003b0: 8cee 083e dd76 853d 0843 babe 8e6e 1b3e
000003c0: b3f8 563e d79b be3d baab 183d a682 1abd
000003d0: a76b fbbd d4c7 093e bfb9 c43d 1070 ca3d
000003e0: d65d f73d 1791 e93d 9b55 c9be 1d1b d6ba
000003f0: f337 ea3d 28ee 293e 242f 773d 327d 09bd

fc3.bias f4 [7]
0.036961567 -0.01569835 0.033749107 0.042146318 -0.0038997158 0.035627175 -0.022440037
00000000: 0365 173d d399 80bc 813c 0a3d 9ea1 2c3d
00000010: 6092 7fbb cded 113d 2bd4 b7bc
