code/3rd_model_pt.pt (torch_old, 74296 bytes, 14 tensors)

fc1.weight f4 [100, 63]
0	0x3dbd363b	0.09238859
1	0x3c9d8776	0.019229632
2	0x3dc537ae	0.09629761
3	0xbd7b5cbe	-0.061367743
4	0x3d3adf4f	0.04562312
5	0x3de9984a	0.11406
6	0x3ddea51a	0.108713344
7	0x3c244dce	0.010028316
8	0x3e05cf13	0.13067274
9	0x3dbbccc9	0.09169919
10	0xbe12c8b8	-0.1433438
11	0xbd23f891	-0.040031973
12	0x3cddb821	0.027065339
13	0xbde0a9e9	-0.10969908
14	0xbe83994e	-0.257029
15	0x3ca58287	0.020203842
16	0x3e117b36	0.14207157
17	0xbd067de2	-0.032834895
18	0xbe146ddc	-0.14495033
19	0x3be48864	0.006974267
20	0x3c2fcebc	0.010730442
21	0x3b201f4b	0.0024432715
22	0x3db6c536	0.08924334
23	0xbcc20e78	-0.02368854
24	0x3dcac35f	0.09900545
25	0xbe4a55a6	-0.19759235
26	0xbc9c763f	-0.019099353
27	0xbe032d17	-0.12810169
28	0x3dc9232a	0.0982116
29	0xbd8ce574	-0.06879702
30	0xbd63d016	-0.055618368
31	0x3cd99182	0.026558641
32	0x3d9f1cdf	0.077691786
33	0xbd41baab	-0.04729716
34	0xbdd213b4	-0.10257664
35	0x3c6aef9e	0.014339356
36	0x3d76bdc1	0.060239557
37	0xbd426a2d	-0.04746454
38	0x3cfec8fe	0.0311017
39	0x3dfdba40	0.1238904
40	0x3b809680	0.003924191
41	0x3e296b01	0.16544725
42	0x3dd9130a	0.105993345
43	0xbdc0771d	-0.09397719
44	0xbeddeb6f	-0.43343684
45	0xbd37be15	-0.04485901
46	0xbd250686	-0.040289424
47	0x3c8593f8	0.016305909
48	0x3ec5fbdc	0.38668716
49	0xbd14a20f	-0.036287364
50	0xbdf2c75a	-0.118544295
51	0x3acf58ec	0.0015819347
52	0xbde8beaf	-0.11364495
53	0xbe03120c	-0.12799853
54	0x3cbff14d	0.02343049
55	0x3df66419	0.12030811
56	0xbe05e995	-0.13077386
57	0xbbb93afb	-0.005652783
58	0xbdeeb1c6	-0.11655001
59	0xbdb2cc37	-0.08730357
60	0x3daccc41	0.08437396
61	0x3cfa7c55	0.030576864
62	0x3d95b253	0.07309403
63	0x3cd77d18	0.026304767
64	0x3d72919f	0.059220906
65	0x3dfe2f63	0.12411382
66	0x3e6bb5b7	0.23018537
67	0xbd0c0714	-0.034186438
68	0x3df97ee5	0.12182406
69	0x3e04ba28	0.12961638
70	0x3e3fc7e7	0.187286
71	0xbe798f03	-0.24370961
72	0xbdcccf9e	-0.10000537
73	0xbd2e8b62	-0.042613395
74	0xbde9b2aa	-0.114110306
75	0x3e303be7	0.17210351
76	0x3cd13c2b	0.025541386
77	0xbda5ba09	-0.08092124
78	0xbd8d13e7	-0.06888562
79	0xbdb00a42	-0.085957065
80	0x3e077205	0.13227089
81	0xbdb9ca8f	-0.09071838
82	0xbdf748b9	-0.120744176
83	0x3e48721e	0.19574782
84	0x3cccd1c1	0.025002362
85	0xbca5e5f2	-0.020251248
86	0xbcd39d6b	-0.025831899
87	0x3e2e48fc	0.17020029
88	0x3e1c227b	0.15247528
89	0xbdf7f621	-0.12107492
90	0x3def2b8d	0.116782285
91	0xbc5c1a0e	-0.013433946
92	0xbe808391	-0.25100377
93	0xbdd29b2f	-0.10283505
94	0x3d3ebcd6	0.046566807
95	0x3dc8a83d	0.09797714
96	0xbe4736e0	-0.19454527
97	0x3c4104e0	0.011780947
98	0xbb0eee78	-0.002180962
99	0x3dbc4547	0.09192901
100	0x3de93f81	0.113890655
101	0x3db7d618	0.08976382
102	0x3d93a057	0.07208317
103	0xbe05bab0	-0.13059497
104	0xbcf2b9d7	-0.029629631
105	0x3c920102	0.017822746
106	0x3dc5a8c2	0.096513286
107	0xbd5f3e18	-0.054502577
108	0x3d618400	0.055057526
109	0xbcd57aca	-0.026059527
110	0x3d321ea9	0.04348627
111	0xbc5e4c98	-0.013568066
112	0x3e5bb96f	0.21457456
113	0x3daac852	0.08338989
114	0x3e1c2ba4	0.15251023
115	0xbdaea0a7	-0.08526736
116	0x3d31e404	0.043430343
117	0x3d4fdbae	0.050746612
118	0xbc96a789	-0.018390434
119	0x3e46aff3	0.19403057
120	0x3d9a8c8f	0.07546341
121	0xbd0d806f	-0.034546312
122	0xbdae296d	-0.08503995
123	0xbe662b2a	-0.22477403
124	0xbe97e186	-0.29664248
125	0xbdcc3949	-0.09971864
126	0x3db0b40f	0.086280935
127	0x3d038cd4	0.032116726
128	0xbd1f8e5b	-0.03895412
129	0x3dae15ac	0.08500227
130	0x3d64a494	0.055821016
131	0xbdec8bef	-0.11550128
132	0xbce2d64b	-0.027690073
133	0x3e0b9276	0.13630089
134	0xbdc627ad	-0.09675536
135	0xbcaf5464	-0.021402545
136	0xbe405bb4	-0.18784982
137	0x3c8c94af	0.017160742
138	0x3e8b5381	0.27212146
139	0xbd14ec50	-0.036358178
140	0x3d36b81e	0.04460918
141	0x3d158c24	0.0365106
142	0x3d40112e	0.046891384
143	0x3dbe5404	0.092933685
144	0xbdba9010	-0.09109509
145	0x3c309eb5	0.010780026
146	0x3e123595	0.14278252
147	0xbe8cd373	-0.27505073
148	0x3cac1297	0.021004958
149	0x3bbc9501	0.0057550673
150	0xbd55e348	-0.052218705
151	0x3d47e1e2	0.048799403
152	0xbe17f20d	-0.14838429
153	0xbd8908e2	-0.066911474
154	0x3dea55fa	0.1144218
155	0xbd44109e	-0.04786741
156	0xbdb0cd1d	-0.08632872
157	0xbde06a99	-0.10957832
158	0xbe1ef142	-0.1552172
159	0xbd9a729f	-0.075413935
160	0x3e607c6a	0.2192246
161	0xbda77998	-0.08177489
162	0xbc1f4d64	-0.009723041
163	0x3d13f268	0.03611985
164	0xbdb82503	-0.089914344
165	0x3e555160	0.20831823
166	0x3c052d99	0.008128547
167	0x3dbbb29c	0.091649264
168	0x3e30a0dc	0.17248863
169	0x3cf5d667	0.030009462
170	0x3dd28509	0.10279281
171	0xbdc30dd0	-0.09524119
172	0x3d012cfe	0.03153705
173	0x3d8b6126	0.06805639
174	0xbdf8d764	-0.121504575
175	0x3e2bcf7c	0.16778368
176	0x3e9fa6f4	0.31182063
177	0x3e08febc	0.13378423
178	0xbdef19c7	-0.116748385
179	0x3dfded66	0.12398796
180	0xbd3373f3	-0.04381175
181	0xbd8b4e67	-0.068020634
182	0xbe327e67	-0.17431031
183	0x3dd6d285	0.10489372
184	0x3ca8200c	0.020523094
185	0xbcece40e	-0.028917339
186	0xbe4f0713	-0.20217542
187	0xbe52d88d	-0.2059042
188	0x3e6a2a04	0.2286759
189	0x3e2b0f29	0.16705002
190	0xbc95d9fb	-0.018292418
191	0x3d4fdee2	0.050749667
192	0x3e5c575e	0.21517703
193	0xbe04fd1a	-0.12987176
194	0xbe942072	-0.28931004
195	0x3ddee389	0.10883243
196	0xbe196fdb	-0.14984076
197	0xbafb2bdc	-0.0019162851
198	0x3e2d1f6d	0.16906519
199	0x3bd068b4	0.006360138
200	0x3d3171df	0.043321487
201	0x3e06a643	0.13149361
202	0x3d8e78ee	0.06956659
203	0xbdc97f9c	-0.09838793
204	0x3d6be1e8	0.057588488
205	0x3d3e5c05	0.046474475
206	0xbe023622	-0.12715963
207	0xbc3a5173	-0.011371958
208	0xbcbf2874	-0.02333472
209	0xbdb97550	-0.09055579
210	0x3d153680	0.03642893
211	0x3e53fc8b	0.20701806
212	0x3e4c75bb	0.19966786
213	0xbe5fc96d	-0.21854182
214	0xbd918149	-0.07104737
215	0xbcd26e76	-0.025687438
216	0xbe307069	-0.17230381
217	0x3b85a68b	0.0040786914
218	0xbd2ab3ff	-0.041675564
219	0xbb99e9ab	-0.004697045
220	0xbc482708	-0.012216337
221	0x3d9180b8	0.07104629
222	0x3e64cc89	0.22343649
223	0x3e222b95	0.15836938
224	0xbddeb68f	-0.10874664
225	0x3dc92dce	0.0982319
226	0xbd4855f4	-0.048910096
227	0x3e238c4b	0.15971486
228	0x3d0bdbe3	0.034145247
229	0xbcae22d4	-0.021256842
230	0x3e359491	0.17732455
231	0xbe882f2a	-0.26598483
232	0xbd8ea3f1	-0.06964863
233	0xbd84f4af	-0.06491982
234	0x3cafbeb9	0.021453248
235	0xbe0f8f6b	-0.14019553
236	0x3dae43eb	0.08509048
237	0xbe9756e7	-0.2955849
238	0x3c863e98	0.016387269
239	0x3e29b4f5	0.16572936
240	0xbbaf42f6	-0.0053485585
241	0xbd569e09	-0.052396808
242	0x3b9fdce4	0.004878627
243	0x3cc44759	0.023959802
244	0xbd86ae16	-0.06576173
245	0xbccfe1e4	-0.025376268
246	0xbe09ad74	-0.13445073
247	0xbe8db671	-0.27678254
248	0xbe81043d	-0.25198546
249	0xbc815852	-0.015789185
250	0xbdd27dd1	-0.10277904
251	0x3e5f0b99	0.21781768
252	0x3e0ff986	0.1406003
253	0x3cb44192	0.022003923
254	0x3e5fb613	0.218468
255	0x3e6e79a9	0.23288597

fc1.bias f4 [100]
0	0xbd97f6ce	-0.07420121
1	0xbca5ad13	-0.02022413
2	0x3d2b1c1d	0.041774858
3	0x3d51415b	0.05108772
4	0xbd522b64	-0.05131091
5	0xbbe23863	-0.0069036945
6	0xbb42b3a8	-0.0029709134
7	0xbdb68326	-0.08911733
8	0xbd751702	-0.059836395
9	0xbdf5004e	-0.11962949
10	0xbde41478	-0.111367166
11	0x3dc5cdd9	0.09658403
12	0xbdae8348	-0.08521134
13	0x3de69662	0.11259152
14	0xbd70eb57	-0.058818188
15	0x3da699c7	0.081347995
16	0x3cf91092	0.03040341
17	0xbce80956	-0.028324764
18	0x3da0950b	0.07840928
19	0xbc2f1e87	-0.010688431
20	0xbcb331a1	-0.02187425
21	0x3bb39cb9	0.0054813293
22	0xbdf90d3a	-0.12160726
23	0x3cdb3e1a	0.02676301
24	0xbd3607f8	-0.044441193
25	0x3d2c6ff8	0.04209897
26	0x3db560bd	0.08856342
27	0xbd312b6c	-0.0432543
28	0x3d58add0	0.052900136
29	0x3d94101f	0.07229637
30	0xbce90c5a	-0.028448272
31	0x3d221f0a	0.039580382
32	0x3d8ae700	0.06782341
33	0xbbf65cb4	-0.0075183753
34	0xbdedfa40	-0.11619997
35	0x3dc97773	0.09837236
36	0xbd92c736	-0.07166903
37	0xbd1dd8c5	-0.038536806
38	0x3dd2355a	0.10264082
39	0x3c064db0	0.008197233
40	0xbdb665f1	-0.089061625
41	0xbdd04c8c	-0.1017085
42	0x3da0f419	0.07859058
43	0x3de93191	0.11386407
44	0x3dbf5815	0.09342972
45	0xbbc6171f	-0.0060452367
46	0x3dd53222	0.10409953
47	0x3d81dd3f	0.063410275
48	0xbd3795c0	-0.044820547
49	0x3e03e9f8	0.12882221
50	0xbd621e58	-0.05520472
51	0x3d2fc5e5	0.042913336
52	0xbca016ee	-0.019542184
53	0x3d57ddff	0.052701946
54	0xbd1e40fa	-0.038636185
55	0xbda7e1d9	-0.08197374
56	0xbdb26c6c	-0.08712086
57	0xbd8f4f43	-0.0699754
58	0xbdcb03c0	-0.09912825
59	0xbd9a3203	-0.0752907
60	0xbd82d204	-0.063877136
61	0x3db9e595	0.090769924
62	0x3e1d5540	0.15364552
63	0xbdcc82f7	-0.09985917
64	0x3daf58ad	0.085618354
65	0x3da143ae	0.07874237
66	0xbdc81cf4	-0.09771147
67	0x3cb255c1	0.021769406
68	0x3dfa21c8	0.122134745
69	0x3d89bf2d	0.06725917
70	0x3cef2fe6	0.029197644
71	0xbd3d7c84	-0.046261325
72	0xbdb5c1b3	-0.08874836
73	0xbd92ef05	-0.071744956
74	0xbc99b98c	-0.018765233
75	0x3d34a7e1	0.044105414
76	0x3c9a773e	0.018855687
77	0x3dcfc595	0.10145108
78	0x3d0c4b04	0.034251228
79	0xbd2a42aa	-0.041567482
80	0xbde4ac3f	-0.11165666
81	0x3d14c65b	0.03632198
82	0x3d8ab874	0.06773463
83	0xbe060d43	-0.13090996
84	0xbd890753	-0.0669085
85	0x3dc1a6aa	0.09455617
86	0x3dd020ac	0.10162482
87	0xbd2650cf	-0.04060441
88	0x3dc506c0	0.09620428
89	0x3df9c72a	0.12196191
90	0x3dcda597	0.100413494
91	0xbd18382c	-0.037162945
92	0x3d175932	0.036950298
93	0x3dd28c29	0.1028064
94	0xbcb05535	-0.021525005
95	0xbc8ecf88	-0.017432943
96	0x3dcd0ac9	0.10011823
97	0x3c7d962b	0.015477697
98	0xbdf66a57	-0.120320015
99	0x3d818ff2	0.063262835

bn1.weight f4 [100]
0	0x3f60a425	0.87750465
1	0x3f8abf1d	1.0839573
2	0x3f8466be	1.0343854
3	0x3f6618bb	0.89881486
4	0x3f7ee8a0	0.9957371
5	0x3f809192	1.0044425
6	0x3f783a0d	0.9696358
7	0x3f841980	1.0320282
8	0x3f8952b4	1.0728364
9	0x3f80865b	1.0041002
10	0x3f828676	1.0197284
11	0x3f85800c	1.0429702
12	0x3f602d38	0.87569
13	0x3f82162e	1.0163019
14	0x3f8631bb	1.0483927
15	0x3f6c8c1d	0.92401296
16	0x3f694c30	0.9113188
17	0x3f7f570f	0.99742216
18	0x3f82eb89	1.022813
19	0x3f68748c	0.90802836
20	0x3f887b39	1.0662605
21	0x3f4e7c12	0.80658066
22	0x3f903850	1.1267185
23	0x3f7a6471	0.9780951
24	0x3f726c7d	0.9469679
25	0x3f831915	1.024203
26	0x3f6a7440	0.91583633
27	0x3f69bf1c	0.91307235
28	0x3f71cfe5	0.94457847
29	0x3f7221fe	0.9458312
30	0x3f799006	0.9748539
31	0x3f75504a	0.95825636
32	0x3f82111f	1.0161475
33	0x3f7740cc	0.9658325
34	0x3f6cfa1c	0.92569137
35	0x3f6d616e	0.9272679
36	0x3f8d653a	1.1046517
37	0x3f820673	1.0158218
38	0x3f81f8ae	1.0154016
39	0x3f68cc4d	0.9093674
40	0x3f8941e0	1.0723228
41	0x3f6de7b5	0.9293168
42	0x3f6a5dd2	0.9154941
43	0x3f86fd64	1.0546079
44	0x3f640658	0.8907218
45	0x3f81c048	1.0136805
46	0x3f79a802	0.97521985
47	0x3f690301	0.9102021
48	0x3f80bec0	1.0058212
49	0x3f7fd25c	0.9993036
50	0x3f739ebf	0.951641
51	0x3f752135	0.95753795
52	0x3f813df9	1.0097038
53	0x3f7f4e20	0.99728584
54	0x3f8119ce	1.0086
55	0x3f865bac	1.0496726
56	0x3f80d1fa	1.006408
57	0x3f6c095b	0.92201775
58	0x3f79fa6b	0.9764773
59	0x3f7ebc2e	0.9950589
60	0x3f8a13a4	1.0787244
61	0x3f6f43a1	0.9346257
62	0x3f8a5f60	1.0810356
63	0x3f9188ab	1.1369833
64	0x3f83ec29	1.0306445
65	0x3f8a1cab	1.0789999
66	0x3f870349	1.0547878
67	0x3f73f517	0.9529585
68	0x3f87ef59	1.0619918
69	0x3f77b3b9	0.9675861
70	0x3f7da4af	0.9907941
71	0x3f84185b	1.0319933
72	0x3f6df455	0.92950946
73	0x3f81e0d1	1.0146734
74	0x3f5c8e1b	0.86154336
75	0x3f6f8633	0.93564147
76	0x3f8a8f9f	1.082508
77	0x3f8031bb	1.0015177
78	0x3f7f09df	0.9962444
79	0x3f6de78b	0.9293143
80	0x3f89a8e1	1.0754663
81	0x3f70adc7	0.94015163
82	0x3f81d56f	1.014326
83	0x3f7ffdfd	0.9999693
84	0x3f80b1df	1.0054282
85	0x3f815719	1.0104705
86	0x3f8bfd93	1.093676
87	0x3f7afab6	0.98038805
88	0x3f6a61c8	0.9155545
89	0x3f871bf0	1.0555401
90	0x3f70bd69	0.94039017
91	0x3f746f12	0.9548198
92	0x3f785b68	0.97014475
93	0x3f829e7b	1.0204614
94	0x3f82fbd4	1.0233102
95	0x3f836c83	1.026749
96	0x3f8f4252	1.1192114
97	0x3f5f2078	0.8715892
98	0x3f5eebaf	0.87078375
99	0x3f78df6a	0.972159

bn1.bias f4 [100]
0	0xbe83c22b	-0.25734076
1	0x3bcfa6a1	0.0063370024
2	0xbdddca90	-0.10829651
3	0x3cd5599e	0.02604371
4	0xbe1e42c7	-0.15455161
5	0xbe39ec3a	-0.1815652
6	0xbe0c123f	-0.13678835
7	0xbe8ebc7d	-0.2787818
8	0xbdba62f2	-0.091009036
9	0x3cbbe324	0.022935458
10	0x3d4a1051	0.049331967
11	0xbe297a98	-0.16550672
12	0xbe4286ef	-0.18996786
13	0xbd8dfe7d	-0.069333054
14	0xbe1ae171	-0.15125062
15	0xbe3fbd99	-0.1872467
16	0xbdfa03f6	-0.12207787
17	0xbe221e31	-0.1583183
18	0xbe886d31	-0.26645806
19	0xbe128361	-0.1430793
20	0xbddc5703	-0.10758784
21	0xbe5a4eb1	-0.21319081
22	0xbba7d03e	-0.00512126
23	0xbe47fe80	-0.19530678
24	0xbe26d02f	-0.16290353
25	0xbd36708e	-0.044540934
26	0xbe0492f3	-0.12946682
27	0xbe4ff84a	-0.20309559
28	0xbe1a5efc	-0.15075296
29	0xbe1e39ea	-0.1545178
30	0xbe07f4e5	-0.13277014
31	0xbe0c26c5	-0.13686664
32	0xbe11cce0	-0.1423831
33	0xbe0d7aa6	-0.13816318
34	0xbd88e98b	-0.0668517
35	0xbe16af77	-0.14715372
36	0xbe0a91c0	-0.13532162
37	0xbd688190	-0.056764185
38	0xbe2d168e	-0.16903135
39	0xbe328f7b	-0.17437546
40	0xbe0fe45c	-0.14051956
41	0xbe88ccdb	-0.26718792
42	0xbdea1333	-0.11429443
43	0xbe2e8efd	-0.17046733
44	0xbe301697	-0.17196117
45	0xbe88065d	-0.26567355
46	0xbe1f6949	-0.15567507
47	0xbe51b5f8	-0.20479572
48	0xbdf4a98e	-0.119464025
49	0xbe5e0767	-0.21682511
50	0xbe7d373a	-0.24728099
51	0xbd80f890	-0.062974095
52	0xbe943fc8	-0.2895491
53	0x3d670d35	0.05640908
54	0xbe55baf8	-0.20872104
55	0xbc9f36dc	-0.019435339
56	0x3ceea09b	0.029129317
57	0xbdfbc289	-0.12292964
58	0xbe29fd93	-0.16600637
59	0xbe969e68	-0.2941773
60	0xbe54e16d	-0.20789118
61	0xbda871f1	-0.082248576
62	0xbd915901	-0.07097054
63	0xbe43f265	-0.19135435
64	0xbe5fe416	-0.21864352
65	0xbda958b8	-0.08268875
66	0xbe7a1c40	-0.24424839
67	0x3d79da71	0.060999338
68	0xbe4697bd	-0.19393821
69	0xbd9e5025	-0.0773013
70	0xbe5a0328	-0.21290267
71	0x3b01f7dd	0.0019831576
72	0xbe620062	-0.22070459
73	0xbe30da9a	-0.1727089
74	0xbde90960	-0.11378741
75	0xbe85c900	-0.26129913
76	0xbe24e5b8	-0.16103256
77	0xbe3414fe	-0.17586133
78	0xbe70dc5c	-0.2352156
79	0x3d267b6e	0.040645055
80	0xbe1bfb74	-0.1523264
81	0xbe183dc6	-0.14867315
82	0xbe0a39e6	-0.13498649
83	0xbd4c6ba5	-0.049907345
84	0xbca1156a	-0.019663531
85	0xbe5e22fa	-0.2169303
86	0xbdc04265	-0.09387664
87	0xbe5be4e1	-0.21474029
88	0xbe88a40e	-0.26687664
89	0xbe31aa45	-0.17350109
90	0xbe54037b	-0.20704453
91	0xbe8a8a9c	-0.27058876
92	0xbe9c6fa7	-0.30553934
93	0xbd8ab7cd	-0.067733385
94	0xbda0dc21	-0.07854486
95	0xbe2899ac	-0.16464871
96	0xbd5f1228	-0.054460675
97	0xbe47079d	-0.19436498
98	0xbea46f78	-0.32116294
99	0xbe4d1d6a	-0.20030752

bn1.running_mean f4 [100]
0	0xbc0e3c96	-0.008681437
1	0x3eebef79	0.4608114
2	0x3da53c4a	0.0806814
3	0x3dd0df87	0.101988845
4	0xbd0ce353	-0.03439648
5	0x3e2f7f60	0.17138433
6	0x3ec44d50	0.38340235
7	0xbe23aad6	-0.15983137
8	0x3ddfbfa9	0.10925228
9	0xbe376b94	-0.17912132
10	0x3dc4bab6	0.09605925
11	0x3e13b51f	0.14424561
12	0x3e8b08ee	0.2715525
13	0xbf02ffb2	-0.5117141
14	0xbe8b8053	-0.2724634
15	0xbef2ddc4	-0.4743482
16	0x3d6d08bb	0.057869654
17	0x3e57106c	0.21002358
18	0xbc62d316	-0.013844272
19	0xbe878847	-0.2647116
20	0xbf24d36c	-0.64385104
21	0xbef3cee9	-0.47618797
22	0xbe299384	-0.16560179
23	0x3e446e18	0.19182622
24	0xbe371691	-0.17879702
25	0x3f5d4a1b	0.864412
26	0x3f2628aa	0.649058
27	0xbea4c76a	-0.3218339
28	0x3bda0846	0.0066538183
29	0x3eb32388	0.34988046
30	0xbee4319c	-0.445691
31	0x3e6293f6	0.22126755
32	0xbe23b409	-0.15986647
33	0xbd7fed3e	-0.06248211
34	0xbee4e62b	-0.44706854
35	0x3c95ec27	0.018301083
36	0x3eb2d3db	0.34927258
37	0x3d8a474b	0.06751879
38	0x3f25a71d	0.6470812
39	0x3e632fbf	0.22186182
40	0xbe257936	-0.1615952
41	0xbdf8d83e	-0.1215062
42	0x3ef9ff7d	0.48827735
43	0xbe414995	-0.18875726
44	0x3f1615e2	0.5862714
45	0xbe47734b	-0.19477575
46	0x3e088429	0.13331665
47	0xbf1066d2	-0.5640689
48	0xbdd352de	-0.1031854
49	0x3ee490e7	0.44641802
50	0xbe59aa8b	-0.21256463
51	0x3ebaf81a	0.3651741
52	0xbd8103f1	-0.0629958
53	0xbebd835f	-0.3701429
54	0x3cf17320	0.029473841
55	0xbc478733	-0.01217823
56	0xbe59825f	-0.21241139
57	0xbde718d9	-0.11284036
58	0xbe9c9a41	-0.30586436
59	0xbe95233f	-0.29128453
60	0xbe18f1d5	-0.14936002
61	0xbd3e1f84	-0.046416774
62	0x3f42a4ad	0.76032525
63	0xbe745571	-0.23860718
64	0xbef0a7d8	-0.47003055
65	0x3eb5161d	0.35368434
66	0xbeee91a3	-0.46595487
67	0x3e46e9a8	0.1942507
68	0xbee2b959	-0.44282034
69	0x3ebc7992	0.368115
70	0xbdb99603	-0.090618156
71	0xbec7d68d	-0.39030877
72	0xbea61b40	-0.32442665
73	0x3da54e62	0.08071591
74	0xbe2dff88	-0.16992009
75	0xbe4dfea0	-0.20116663
76	0x3cdfeeca	0.027335543
77	0x3b960e7d	0.004579364
78	0x3e14d3e2	0.14533952
79	0xbcc93174	-0.024559714
80	0xbf13c7c8	-0.57726717
81	0xbe973407	-0.2953188
82	0x3d92be14	0.07165161
83	0xbde6bdae	-0.11266647
84	0xbe37c82d	-0.17947455
85	0x3ed07ced	0.4072031
86	0x3e7837f9	0.24240102
87	0xbcb5218e	-0.022110727
88	0x3dda9392	0.10672678
89	0x3e493926	0.19650707
90	0x3e0fc3cf	0.14039539
91	0xbdd90b23	-0.10597827
92	0x3ea9e929	0.331857
93	0x3e77eb43	0.24210839
94	0x3cea93f2	0.028634999
95	0x3f23f8b2	0.64051354
96	0x3eb640fa	0.35596448
97	0xbf176315	-0.5913556
98	0x3e30ffd6	0.17285094
99	0x3f023552	0.5086261

bn1.running_var f4 [100]
0	0x3cc6ed3e	0.024283048
1	0x3c9cd31d	0.019143635
2	0x3ca669cb	0.020314118
3	0x3d01bc6a	0.031673826
4	0x3c8aa9ed	0.01692673
5	0x3ca78745	0.020450244
6	0x3cb35ba0	0.021894276
7	0x3cc59742	0.024119977
8	0x3ca8710b	0.020561716
9	0x3cd3f3ea	0.025873143
10	0x3cf5fefd	0.030028814
11	0x3cb52693	0.02211312
12	0x3cd19e7c	0.025588267
13	0x3cf82a0b	0.030293485
14	0x3ca60a9d	0.020268733
15	0x3ce04a5b	0.027379205
16	0x3d2267f9	0.039649937
17	0x3c864e0b	0.016394636
18	0x3cf90b74	0.03040097
19	0x3cf04291	0.029328616
20	0x3c9d5ccd	0.01920929
21	0x3ce39c4a	0.027784485
22	0x3c598ac2	0.013277711
23	0x3cb2a01e	0.021804865
24	0x3cd5d618	0.026103064
25	0x3cf6859d	0.030093009
26	0x3cb6cda7	0.02231486
27	0x3cd892fa	0.026437271
28	0x3d02a6b6	0.03189727
29	0x3cbd76f7	0.023128016
30	0x3ca52799	0.020160483
31	0x3cbc7455	0.02300469
32	0x3caaeb5c	0.020864181
33	0x3cea7e3f	0.028624652
34	0x3ce2405e	0.027618583
35	0x3cdd18de	0.026989397
36	0x3c860652	0.016360436
37	0x3cb465b6	0.022021156
38	0x3ce195b0	0.027537197
39	0x3d2040b0	0.03912419
40	0x3ca76d44	0.020437844
41	0x3cb7f8be	0.022457477
42	0x3ca81e7e	0.020522352
43	0x3cb95cde	0.02262729
44	0x3c9fd7c8	0.019512072
45	0x3ca8c71c	0.020602755
46	0x3c8895c0	0.016672969
47	0x3d0c8a9d	0.03431188
48	0x3caa140e	0.020761516
49	0x3c8b0805	0.016971597
50	0x3cd35e78	0.025801882
51	0x3c989cf7	0.018629534
52	0x3cbff246	0.023430955
53	0x3c899cce	0.016798403
54	0x3cc89780	0.024486303
55	0x3cbb5c15	0.022871057
56	0x3cbf5993	0.023358142
57	0x3ca4cf2f	0.020118324
58	0x3ca729e5	0.020405719
59	0x3cea94b5	0.028635362
60	0x3ce11b51	0.027478846
61	0x3cdfc708	0.027316585
62	0x3d0ed51b	0.034871202
63	0x3c85306a	0.016258437
64	0x3cc8c5f4	0.024508454
65	0x3cb494dd	0.02204364
66	0x3c95cf03	0.018287187
67	0x3d108e4b	0.03529195
68	0x3cc66800	0.024219513
69	0x3d007a13	0.03136642
70	0x3cba06a8	0.022708252
71	0x3ce4cae6	0.02792878
72	0x3ce15afa	0.027509201
73	0x3c9cd74a	0.019145627
74	0x3cae5eff	0.021285532
75	0x3cfc3622	0.030787531
76	0x3cd2e765	0.025745103
77	0x3ca5fd1a	0.02026229
78	0x3d094f26	0.033522747
79	0x3cbf009f	0.023315726
80	0x3c99918e	0.018746164
81	0x3d233134	0.039841846
82	0x3c9d17b1	0.019176336
83	0x3cc1c0fd	0.023651594
84	0x3ca00d1d	0.019537503
85	0x3ce3ae21	0.027792992
86	0x3c98fd2e	0.018675413
87	0x3ccce13d	0.025009746
88	0x3ceebe15	0.029143373
89	0x3c9de160	0.019272506
90	0x3d00f1a4	0.031480446
91	0x3c9b547e	0.018961187
92	0x3cd57b2a	0.026059706
93	0x3cba499c	0.022740178
94	0x3cb469b9	0.022023069
95	0x3cad2b4a	0.021138806
96	0x3ce07c9c	0.027403168
97	0x3cc0bb2c	0.02352675
98	0x3cb61e80	0.02223134
99	0x3cde22a0	0.02711612

fc2.weight f4 [100, 100]
0	0xbd3dcce4	-0.046337977
1	0xbd306974	-0.043069318
2	0x3e554029	0.20825256
3	0x3d182eaa	0.037153877
4	0x3d63fd60	0.05566156
5	0x3dceb518	0.10093135
6	0xbdd4dde0	-0.10393882
7	0xbd39b64b	-0.045339864
8	0x3e0e4046	0.13891706
9	0xbd0d1e5a	-0.034452774
10	0xbdfcb316	-0.123388454
11	0x3d8977df	0.06712317
12	0xbd6b2e7a	-0.05741737
13	0x3c72baef	0.014815076
14	0xbe2a5214	-0.16632873
15	0xbda493d4	-0.080360085
16	0x3dbb7d46	0.091547534
17	0xbe0d4eb9	-0.13799562
18	0x3e310b16	0.17289385
19	0xbbe18b32	-0.0068830485
20	0x3d0ddf30	0.034636676
21	0xbd7e10a2	-0.06202758
22	0xbbe8d7d8	-0.0071058087
23	0x3a5ae68f	0.0008350396
24	0x3c0c001f	0.008544951
25	0xbcaa1971	-0.020764085
26	0xbd69fa26	-0.057123326
27	0xbc830b24	-0.015996523
28	0x3dba5887	0.090989165
29	0x3de1401e	0.109985575
30	0xbb0f27c6	-0.0021843775
31	0x3d6aaf59	0.05729613
32	0xbdd8674d	-0.10566578
33	0x3b20dd9c	0.0024546152
34	0x3db39cde	0.087701544
35	0xbb24aaac	-0.0025126142
36	0x3d02a41c	0.03189479
37	0x3dc0cfa3	0.094146036
38	0x3d4ec729	0.050482903
39	0xbd4a83da	-0.04944215
40	0xbbfcbb7d	-0.00771278
41	0x3d8d4c23	0.068992876
42	0x3d2700ea	0.040772356
43	0x3d2828d5	0.041054565
44	0x3de2d1f7	0.11075204
45	0xbcff1e85	-0.031142483
46	0x3da01f5d	0.07818482
47	0xbddcc5bd	-0.10779903
48	0xbd7269d2	-0.05918295
49	0x3dfd25a6	0.123606965
50	0xbe1ec5a2	-0.15505078
51	0x3e08fe16	0.13378176
52	0xbdae1b91	-0.085013516
53	0xbd1468bf	-0.036232706
54	0xbe0ed9d2	-0.1395028
55	0xbd8a624e	-0.067570314
56	0x3c95afd8	0.018272325
57	0xbd9ef834	-0.07762185
58	0xbd87a7e1	-0.06623817
59	0x3e31d9e6	0.17368278
60	0x3d8a576f	0.06754958
61	0xbc8b6d65	-0.017019937
62	0xbd0f4e81	-0.034986977
63	0x3e5c82c1	0.21534254
64	0xbde2e549	-0.11078889
65	0x3d7f5750	0.062339127
66	0xbe3989a6	-0.18118915
67	0x3e2a7132	0.16644743
68	0xbe00d71e	-0.1258206
69	0xbb8e34bc	-0.0043397825
70	0xbd8c8b49	-0.06862504
71	0x3d90b8da	0.07066508
72	0x3de97478	0.11399168
73	0x3d62b15f	0.055344936
74	0xbd788e14	-0.06068237
75	0xbd4e0633	-0.05029888
76	0x3d876376	0.066107675
77	0xbd13f5bf	-0.036123034
78	0x3e00acd6	0.12565932
79	0x3e3f1c00	0.18663025
80	0xbd55824b	-0.05212621
81	0x3e25192a	0.1612288
82	0xbd318d41	-0.0433476
83	0xbdab73f5	-0.083717264
84	0x3d8e4b60	0.069479704
85	0xbe517b57	-0.20457207
86	0xbe22277d	-0.15835376
87	0xbe18256e	-0.14858028
88	0x3d99b420	0.07505059
89	0x3c85b5b9	0.016322004
90	0x3de3292d	0.11091838
91	0x3e0fc0c4	0.14038378
92	0x3d8db7ca	0.069198206
93	0xbdf9943d	-0.12186477
94	0x3da96bb7	0.08272498
95	0xbd7f0b93	-0.062266897
96	0xbd3d9364	-0.04628314
97	0x3d2f0e48	0.04273823
98	0xbd35ae6c	-0.044355795
99	0xbd97891d	-0.07399199
100	0x3c968892	0.018375669
101	0x3c8ec859	0.017429518
102	0xbdb87d8b	-0.090083204
103	0xbc9168b6	-0.017750125
104	0x3dc91001	0.09817506
105	0x3de79769	0.11308176
106	0x3bf87fc1	0.007583589
107	0xbcea5480	-0.028604746
108	0xbd2f4f6e	-0.04280036
109	0xbd214c24	-0.039379254
110	0x3da47caa	0.0803159
111	0xbd0054a2	-0.031330712
112	0xbdcc6f80	-0.099822044
113	0x3d053783	0.032523643
114	0xbe191b14	-0.14951736
115	0xbd425e83	-0.047453415
116	0xbdbd34c5	-0.092385806
117	0xbe5a8416	-0.2133945
118	0xbd8b1de4	-0.067928106
119	0x3dd57091	0.10421861
120	0xbdafef64	-0.08590582
121	0xbddd3f5f	-0.10803103
122	0x3e0cd202	0.13751987
123	0xbd6c9ae7	-0.057764914
124	0xbd2ae8a1	-0.04172576
125	0xbd816d11	-0.06319631
126	0x3d606103	0.054780018
127	0x3c5bc876	0.013414493
128	0x3e2e3a99	0.1701454
129	0xbc2801f2	-0.01025437
130	0x3d877453	0.06613984
131	0xbda635c0	-0.08115721
132	0xbd9273f1	-0.0715102
133	0x3b30acfb	0.0026958573
134	0xbdc531a0	-0.09628606
135	0x3c046491	0.0080806175
136	0x3e2ec44c	0.17067069
137	0xbdbb6652	-0.091503754
138	0xbe01f835	-0.1269234
139	0xbdb37cdb	-0.08764049
140	0xbd26d28c	-0.040728137
141	0xbdcfa87d	-0.101395585
142	0xbd304bfd	-0.043041218
143	0x3dc1a0a2	0.094544664
144	0xbc8b90f9	-0.017036902
145	0xbe03fd3d	-0.12889571
146	0xbda8f0f2	-0.08249082
147	0xbdf45880	-0.119309425
148	0x3ded578b	0.11588963
149	0xbdf4bbf7	-0.11949914
150	0xbc0ba5dd	-0.008523432
151	0x3df62e5a	0.120205596
152	0x3d869e4b	0.06573161
153	0x3d5063f6	0.05087658
154	0xbe1ec121	-0.1550336
155	0x3e0d5892	0.13803318
156	0xbd97e8ac	-0.074174255
157	0x3d098cbd	0.033581484
158	0xbc9b8b77	-0.0189874
159	0xbdfbc514	-0.12293449
160	0xbe58e074	-0.21179372
161	0xbe4bc5e2	-0.19899705
162	0xbe21c375	-0.15797217
163	0xbaebcce1	-0.0017990136
164	0xbdaa17d6	-0.083053276
165	0x3d001aec	0.031275675
166	0x3db6abe2	0.08919503
167	0xbd32355e	-0.043507926
168	0x3d6323dc	0.05545412
169	0xbdee4af6	-0.116353914
170	0xbdfd133b	-0.123571835
171	0xbdb6fc79	-0.08934874
172	0xbc9fba46	-0.019498002
173	0x3d928817	0.07154863
174	0xbd188760	-0.03723848
175	0x3d6212b0	0.055193603
176	0x3c16fbdf	0.009215324
177	0x3c9551e7	0.01822753
178	0x3e3681d3	0.17822962
179	0x3df6759b	0.1203415
180	0x3d57ce88	0.052687198
181	0xbd612d2f	-0.05497473
182	0xbe0933d0	-0.13398671
183	0x3dbe2bbb	0.09285685
184	0x3e0f6e00	0.14006805
185	0x3d93dbb8	0.072196424
186	0xbddf14c8	-0.108926356
187	0xbe4d2926	-0.20035228
188	0xbb539665	-0.0032285687
189	0x3c902c86	0.017599355
190	0x3d4297d4	0.047508076
191	0x3cdda373	0.027055478
192	0xbd170a5f	-0.036875125
193	0xbe4f9138	-0.2027024
194	0xbe5475c1	-0.20748045
195	0xbd83626f	-0.06415259
196	0x3e406f6d	0.18792506
197	0xbdd8c2ad	-0.105840065
198	0x3c98ba6c	0.01864358
199	0x3dce0001	0.100585945
200	0xbd8d5a2d	-0.06901965
201	0x3e0d636f	0.13807462
202	0x3dc00a35	0.09376947
203	0x3b07b81a	0.0020709098
204	0xbdc80162	-0.09765889
205	0x3d82e2d7	0.063909225
206	0x3de30093	0.11084094
207	0x3e8ab05d	0.2708768
208	0xbd3f0b3f	-0.046641584
209	0xbe37850b	-0.17921846
210	0x3d6d64dc	0.057957515
211	0x3db1d8a4	0.08683899
212	0xbe074ffd	-0.13214107
213	0x3dfe7eae	0.12426506
214	0x3c82ba85	0.01595808
215	0x3da722ee	0.08160959
216	0x3b1d7d9d	0.002403117
217	0xbc754efb	-0.014972444
218	0xbda0dd08	-0.07854658
219	0xbd0951fc	-0.033525452
220	0xbdfe68de	-0.124223456
221	0xbd36f678	-0.044668645
222	0xbd8f4676	-0.06995861
223	0xbc51c4bc	-0.012803253
224	0xbe811501	-0.25211337
225	0xbd062354	-0.032748535
226	0x3e111361	0.14167549
227	0x3d24bef4	0.04022117
228	0x3da92b1f	0.08260178
229	0xbd40e47d	-0.047092903
230	0x3dcc617e	0.09979533
231	0xbdb1535e	-0.08658479
232	0x3d042f49	0.032271657
233	0xbcbd8e62	-0.023139182
234	0x3d16fd79	0.036862824
235	0xbda60694	-0.081067234
236	0x3e052593	0.13002615
237	0xbd377a99	-0.044794653
238	0xbd9f411b	-0.0777609
239	0x392af362	0.0001630313
240	0x3d326565	0.04355373
241	0x3e1225f9	0.14272298
242	0xbb49c54e	-0.0030787769
243	0xbd9f2b4d	-0.07771931
244	0xbb01d1cb	-0.0019808884
245	0xbd65d9c6	-0.056115888
246	0x3cdbee37	0.026846988
247	0xbcbcef0a	-0.023063201
248	0x3db65b93	0.08904185
249	0x3dac6f8f	0.084197156
250	0xbe0ba3a5	-0.13636644
251	0x3dd914cf	0.10599672
252	0xbd253514	-0.040333822
253	0x3dabac2b	0.08382448
254	0xbe02e4df	-0.1278262
255	0xbde106a9	-0.109875984

fc2.bias f4 [100]
0	0xb9f81912	-0.00047320925
1	0xbd411cc1	-0.047146562
2	0xbd4222b1	-0.047396366
3	0x3d395987	0.045251396
4	0xbdc88360	-0.09790683
5	0x3c8b3a47	0.016995562
6	0xbc4d5347	-0.012532062
7	0x3da23f5d	0.07922242
8	0x3d432af1	0.047648374
9	0x3d433b76	0.04766413
10	0x3d8c8c5a	0.068627074
11	0x3db69838	0.08915752
12	0xbd051a36	-0.0324957
13	0xbd8bdb9b	-0.06828996
14	0x3da158a4	0.07878235
15	0x3d9ace0c	0.075588316
16	0xbd812d10	-0.06307423
17	0x3d356161	0.04428232
18	0x3d9efb70	0.07762802
19	0xbda0d450	-0.078529954
20	0x3d3efdbc	0.0466287
21	0x3a9050ec	0.0011010445
22	0xbda08b13	-0.07839026
23	0xbd7535e7	-0.05986586
24	0x3b91bb16	0.004447351
25	0x3da04bf7	0.07826989
26	0xbab57c15	-0.0013846183
27	0xbd452459	-0.048130367
28	0xbd989874	-0.07450953
29	0x3db1ad70	0.08675659
30	0x3d2b6753	0.041846585
31	0x3ca7d2a7	0.020486189
32	0xbd9923c2	-0.074775234
33	0x3d616b36	0.055033885
34	0xbd17fc2e	-0.03710573
35	0xbdb953dd	-0.09049199
36	0xbd73a764	-0.059485808
37	0xbc410b15	-0.011782427
38	0xbce20968	-0.027592376
39	0xbd4cd0af	-0.050003704
40	0xbd93cea7	-0.0721715
41	0x3d812731	0.06306303
42	0x3aa889e1	0.0012858474
43	0xbcab1686	-0.020884763
44	0xbd1fd8ac	-0.039024994
45	0x3b26e8e0	0.0025468394
46	0xbc084ad6	-0.0083186235
47	0xbd340a59	-0.04395518
48	0x3d7335b6	0.059377395
49	0xbb77bfe7	-0.0037803592
50	0x3db1ac50	0.08675444
51	0xbd54d1cd	-0.051957894
52	0xbcf807ee	-0.030277219
53	0x3d3b792a	0.045769848
54	0x3d86da6f	0.06584632
55	0x3c4dcbc6	0.01256079
56	0xbd5a0ff5	-0.053237874
57	0xbd94ed08	-0.072717726
58	0xbda70711	-0.08155645
59	0xbd676f2e	-0.056502514
60	0x3ce0ef97	0.027457995
61	0xbda201b6	-0.079104826
62	0xba96a9da	-0.0011494712
63	0xbbcb4795	-0.0062036016
64	0x3d91208d	0.07086287
65	0x3d815479	0.0631494
66	0xbcc555d2	-0.024088774
67	0x3dc5da75	0.09660808
68	0x3c0b3254	0.008495886
69	0xbd97e73a	-0.0741715
70	0x3b962e0a	0.004583125
71	0xbdaae6f8	-0.08344835
72	0x3d998397	0.07495802
73	0xbd90bded	-0.070674755
74	0xbd39cd99	-0.04536209
75	0x3d2a6f90	0.0416103
76	0xbd9a6fdf	-0.07540869
77	0xbc7af840	-0.0153179765
78	0xbd9d9fcc	-0.076964945
79	0x3d8295b7	0.06376212
80	0xbd44845d	-0.047977794
81	0x3d53f676	0.051748715
82	0x3d2cd15d	0.042191852
83	0x3dc4c7ad	0.09608398
84	0x3d8aa3c3	0.06769516
85	0x3d70bdf4	0.058774903
86	0xbdc40b97	-0.09572523
87	0x3db0afde	0.08627294
88	0x3d526bac	0.051372215
89	0x3b92cdb7	0.0044800895
90	0xbccec809	-0.025241869
91	0xbd461c44	-0.0483668
92	0x3d55770b	0.05211548
93	0xbd5553ad	-0.052081753
94	0x3d6eeab9	0.058329318
95	0xbd0a38a5	-0.033745427
96	0xbda23a31	-0.079212554
97	0xbd9fdde2	-0.07805993
98	0x3d7200bc	0.05908273
99	0x3dab1b6f	0.08354842

bn2.weight f4 [100]
0	0x3f920536	1.140784
1	0x3fa5ffe8	1.2968721
2	0x3f9eef23	1.2416729
3	0x3faa9327	1.3326157
4	0x3f997e0c	1.1991591
5	0x3fb24d2e	1.3929803
6	0x3fa36353	1.2764686
7	0x3f9e67b7	1.2375401
8	0x3f9b39f8	1.2127066
9	0x3fa680d5	1.3008066
10	0x3fa3bb88	1.2791605
11	0x3f9b8504	1.2149968
12	0x3fa5a208	1.2940073
13	0x3fa26c3d	1.2689282
14	0x3fa0980d	1.2546402
15	0x3fa44e27	1.283635
16	0x3f9703b3	1.1798004
17	0x3f9ada4d	1.209787
18	0x3f9a875f	1.2072562
19	0x3f9baefe	1.2162778
20	0x3f9dbe36	1.2323673
21	0x3fa73de7	1.3065766
22	0x3fa818ad	1.313253
23	0x3f92e1ef	1.14752
24	0x3fa2674c	1.2687774
25	0x3fa68b36	1.3011234
26	0x3f94f60a	1.1637585
27	0x3fa950f3	1.3227829
28	0x3fb7ccbd	1.4359356
29	0x3fa75617	1.3073148
30	0x3f9fba69	1.2478763
31	0x3f9345c6	1.1505668
32	0x3f97bd4f	1.1854647
33	0x3fa6e59b	1.303882
34	0x3f9e2da1	1.2357675
35	0x3fb3ce6c	1.404737
36	0x3fa990bb	1.3247293
37	0x3fb2092e	1.3909051
38	0x3fa39189	1.2778789
39	0x3f989191	1.1919423
40	0x3f9573b4	1.1675935
41	0x3fa25e68	1.268506
42	0x3facb1f5	1.3491808
43	0x3f9ede43	1.2411579
44	0x3fa1c187	1.2637185
45	0x3f9df78a	1.2341168
46	0x3fa0bd21	1.2557718
47	0x3fa7a2e9	1.3096591
48	0x3f9fea39	1.2493354
49	0x3fac7d7b	1.3475794
50	0x3fa07ff3	1.2539047
51	0x3f9ee7c5	1.241448
52	0x3fa0dd47	1.2567528
53	0x3f8f464e	1.119333
54	0x3f94c13b	1.1621469
55	0x3fa311bc	1.2739787
56	0x3f9dc11d	1.2324558
57	0x3fab3d2a	1.3378041
58	0x3f8f9860	1.1218376
59	0x3fadc998	1.3577147
60	0x3fac94e7	1.3482941
61	0x3fa486c1	1.2853624
62	0x3fad7e6b	1.3554205
63	0x3f9efcc2	1.2420886
64	0x3faa051a	1.3282807
65	0x3fa58686	1.2931678
66	0x3fb45b4a	1.4090359
67	0x3fa2fbf9	1.2733146
68	0x3fa161c5	1.2607962
69	0x3fa9f4a5	1.3277785
70	0x3fa8cbc6	1.3187187
71	0x3faa6462	1.3311884
72	0x3fa24b06	1.2679145
73	0x3fa440ec	1.2832313
74	0x3f9949a7	1.1975602
75	0x3f9df17f	1.2339324
76	0x3f9bf8f9	1.2185355
77	0x3f9664ae	1.1749475
78	0x3f9d7856	1.2302349
79	0x3f8fd0c0	1.123558
80	0x3fb089b6	1.3792026
81	0x3f9b259b	1.2120851
82	0x3fa2350a	1.2672436
83	0x3fb31660	1.3991203
84	0x3f9398f8	1.1531057
85	0x3fa59651	1.2936498
86	0x3f976760	1.1828423
87	0x3f9fc168	1.2480898
88	0x3faa2d22	1.3295023
89	0x3f962731	1.173071
90	0x3f9e60c8	1.2373285
91	0x3fa038a6	1.2517288
92	0x3fa4c420	1.2872353
93	0x3fa096bc	1.2546
94	0x3fa5edf8	1.2963247
95	0x3f9f85b7	1.2462682
96	0x3f9ec134	1.2402711
97	0x3f980c82	1.1878817
98	0x3faaef5a	1.3354294
99	0x3f9c5035	1.2211977

bn2.bias f4 [100]
0	0xbe59d9dc	-0.21274513
1	0xbe2108a3	-0.15725951
2	0xbc5132c2	-0.012768449
3	0x3c107f85	0.0088194655
4	0xbd56fdeb	-0.05248825
5	0x3bed9347	0.007250223
6	0xbd60d4ab	-0.054890316
7	0xbdc31767	-0.09525948
8	0xbe3227d4	-0.17398006
9	0xbe1a05e0	-0.15041304
10	0xbce3b800	-0.027797699
11	0xbe0d93b8	-0.13825881
12	0x3d851da4	0.06499794
13	0xbdd9d917	-0.1063711
14	0xbdee4398	-0.11633986
15	0xbd4a0b27	-0.049327042
16	0xbe3ff1a4	-0.18744522
17	0xbd15ad69	-0.03654233
18	0xbd9a800c	-0.07543954
19	0xbcbffcbc	-0.023435943
20	0xbe147f3d	-0.14501663
21	0xbde5865d	-0.112072684
22	0xbd92cc8e	-0.07167922
23	0xbe4688d4	-0.19388133
24	0xbdd7553f	-0.10514306
25	0xbdc87ae5	-0.09789065
26	0xbe56bd37	-0.20970617
27	0xbd5d0d8c	-0.053967997
28	0x3d6c99a6	0.057763718
29	0x3cdde102	0.027084831
30	0xbe122c2e	-0.14274666
31	0xbe01efe3	-0.12689166
32	0xbdc40ab6	-0.095723554
33	0xbd679d41	-0.056546453
34	0xbe040122	-0.12891057
35	0x3d239acf	0.03994256
36	0xbd0a836e	-0.033816747
37	0x3d1154c9	0.035481248
38	0x3cb80495	0.022463122
39	0xbdb0ac40	-0.08626604
40	0xbe85c1e7	-0.26124498
41	0x3c9f2b9b	0.019429972
42	0x3cd38980	0.025822401
43	0xbe037e0a	-0.12841049
44	0xbdcbc61b	-0.09949895
45	0x3cce6cbd	0.025198335
46	0xbc51a105	-0.012794738
47	0xbd96e0f0	-0.07367122
48	0xbdec05d8	-0.11524552
49	0x3c9df942	0.019283894
50	0xbdbeba56	-0.093128845
51	0xbd99a2b9	-0.0750174
52	0xbcd58679	-0.026065098
53	0xbe7b5a52	-0.24546173
54	0xbe005a41	-0.12534429
55	0xbc2a236b	-0.010384421
56	0xbe1c9145	-0.15289791
57	0x3d3ce8dd	0.046120513
58	0xbe0d5c0f	-0.13804649
59	0xbd174581	-0.03693152
60	0xbd0f0f1b	-0.034926515
61	0xbe2bc8de	-0.16775844
62	0x3ccbc618	0.024874732
63	0xbd6077c5	-0.05480172
64	0xbc101664	-0.008794401
65	0x3d8509da	0.0649602
66	0x3dd6cfaa	0.104888275
67	0xbd848c13	-0.064720295
68	0xbe28a004	-0.16467291
69	0xbd0d9857	-0.03456911
70	0xbb416d88	-0.0029514749
71	0x3ccb51a4	0.024819203
72	0xbdb79af6	-0.08965103
73	0xbd1e5aa4	-0.03866066
74	0xbde8b373	-0.11362352
75	0xbdd73c5c	-0.105095595
76	0xbe3b5857	-0.18295418
77	0xbccc6870	-0.024952143
78	0xbe0744d1	-0.13209845
79	0xbe03a010	-0.12854028
80	0x3d2948c6	0.041329168
81	0xbd92d91e	-0.07170318
82	0xbdae877d	-0.08521936
83	0x3dc362a0	0.095402956
84	0xbe44ee07	-0.19231425
85	0xbbcf8af8	-0.006333705
86	0xbdd9b6a1	-0.10630537
87	0xbe03ea0a	-0.12882248
88	0xbad767a8	-0.001643409
89	0xbd9dd4c8	-0.077066004
90	0xbddef525	-0.10886601
91	0xbd98636d	-0.07440839
92	0xbdc97d25	-0.098383226
93	0xbdc3f98d	-0.095690824
94	0x3d82e2bf	0.06390905
95	0xbd9f40bd	-0.0777602
96	0xbe142d8b	-0.14470498
97	0xbe05ed48	-0.13078797
98	0xb925ef34	-0.00015824736
99	0xbe142e76	-0.14470848

bn2.running_mean f4 [100]
0	0x3e270a51	0.16312529
1	0xbf24e62f	-0.6441373
2	0x3dbf0e5d	0.093289115
3	0xbeb5e084	-0.35522854
4	0xbdeabdc5	-0.11461977
5	0xbcc16a0f	-0.023610143
6	0xbe3eeab3	-0.18644218
7	0x3e56c49c	0.20973438
8	0xbd888a1c	-0.06666967
9	0x3e8789bd	0.26472273
10	0x3f0b2f5a	0.5436913
11	0xbd32117f	-0.043473717
12	0xbeaabb3b	-0.3334597
13	0xbeac6e91	-0.33678105
14	0xbc7cb32c	-0.015423577
15	0xbe05df6e	-0.13073513
16	0xbebec8e7	-0.3726265
17	0x3e8c5199	0.27406004
18	0xbcdadccc	-0.026716612
19	0xbeac1c37	-0.33615276
20	0xbd32d490	-0.043659747
21	0xbdf08c0f	-0.11745464
22	0xbe3f9c94	-0.18712074
23	0xbe533dff	-0.20629118
24	0x3e4a0dc0	0.19731808
25	0x3d9ea8ea	0.077470616
26	0x3d84426c	0.064579815
27	0xbe12bfb4	-0.14330941
28	0x3de3a3b2	0.11115207
29	0x3df870b0	0.121308684
30	0x3e6bdfb4	0.23034555
31	0xbc435d44	-0.011924092
32	0xbe01eff4	-0.12689191
33	0x3e200c27	0.15629636
34	0xbf1730c3	-0.5905878
35	0x3e00138c	0.12507457
36	0xbd4ddf6e	-0.050261907
37	0xbc11c98b	-0.008898149
38	0xbe2adbb9	-0.1668538
39	0xbbaf3a35	-0.005347515
40	0x3e1ad7be	0.15121362
41	0xbe9161d2	-0.28394943
42	0xbca3c763	-0.019992536
43	0x3dc6e4ec	0.09711632
44	0x3ea3bd0c	0.3198017
45	0x3de09399	0.10965652
46	0x3e2e5822	0.17025807
47	0x3e10bcfc	0.14134592
48	0x3d0e1fff	0.034698483
49	0x3f11fd9a	0.5702759
50	0x3ea2e729	0.31816986
51	0x3df99f8b	0.121886335
52	0x3e24bd3b	0.1608781
53	0x3d2f0271	0.042726938
54	0x3e088cb6	0.13334927
55	0x3efeb3bf	0.4974651
56	0x3ee0556d	0.43815175
57	0xbe1390de	-0.14410731
58	0xbdecf576	-0.115702555
59	0x3e30c984	0.17264372
60	0x3ecb9cf3	0.3976818
61	0x3ed79989	0.42109326
62	0x3e336430	0.17518687
63	0x3e53b34b	0.20673864
64	0x3efe7c34	0.49704134
65	0x3e23fb47	0.16013823
66	0xbc1a073a	-0.009401137
67	0xbe2b742d	-0.16743536
68	0x3dc5fa89	0.096669264
69	0xbdb03de9	-0.086055584
70	0xbe826067	-0.25464174
71	0x3d864a03	0.06557085
72	0x3e577fda	0.21044865
73	0x3ea194fc	0.3155898
74	0xbde52278	-0.11188215
75	0xbd8ce524	-0.068796426
76	0x3d6b7e17	0.057493296
77	0x3e331b71	0.17490937
78	0xbe34fb3e	-0.17673966
79	0x3d861b67	0.06548195
80	0x3da799f8	0.08183664
81	0x3e2f7702	0.17135242
82	0x3efb37e3	0.49066076
83	0x3e75703e	0.23968598
84	0xbc4ee3fb	-0.012627597
85	0xbe9e7f57	-0.30956528
86	0x3e40f498	0.18843305
87	0x3ed96f30	0.42467642
88	0x3e83c677	0.25737354
89	0xbea9fec6	-0.3320219
90	0x3dc9c7e7	0.098525815
91	0x3c795b83	0.015219572
92	0x3d986db2	0.07442798
93	0x3c111328	0.008854665
94	0x3df227fd	0.118240334
95	0xbe4d52bf	-0.20051096
96	0x3f07a88b	0.5299155
97	0xbdc748f5	-0.09730712
98	0x3ee3f89c	0.4452561
99	0x3ecd9cfa	0.40158826

bn2.running_var f4 [100]
0	0x3e40b18f	0.18817733
1	0x3e567c7f	0.20945929
2	0x3e3c7456	0.18403754
3	0x3e2e81f0	0.17041755
4	0x3e226faf	0.15862916
5	0x3e505423	0.20344596
6	0x3e4017ad	0.18759032
7	0x3e44ac6b	0.19206397
8	0x3e0e46e3	0.13894229
9	0x3e2e1365	0.16999586
10	0x3e455303	0.19269948
11	0x3e4fa0e3	0.20276217
12	0x3e45a9f9	0.1930312
13	0x3e2cc45b	0.16871779
14	0x3e563d16	0.2092174
15	0x3e811258	0.25209308
16	0x3e65fc85	0.2245961
17	0x3e33a5a3	0.17543654
18	0x3e365680	0.17806435
19	0x3e46f561	0.19429542
20	0x3e277099	0.16351546
21	0x3e60227f	0.21888159
22	0x3e474a62	0.19461969
23	0x3e11ef5f	0.14251469
24	0x3e606eeb	0.21917312
25	0x3e243b17	0.16038166
26	0x3e105cf1	0.14097954
27	0x3e682e83	0.22673993
28	0x3e5d2bb1	0.21598698
29	0x3e6c6597	0.23085628
30	0x3e50b45f	0.20381306
31	0x3e2c6f64	0.16839367
32	0x3e202505	0.15639122
33	0x3e3f18b9	0.18661775
34	0x3e396536	0.18105015
35	0x3e891ce9	0.2677987
36	0x3e2de94f	0.16983531
37	0x3e4ae13d	0.19812484
38	0x3e712583	0.23549466
39	0x3e3fcbb6	0.18730053
40	0x3e61b69a	0.22042313
41	0x3e71604c	0.2357189
42	0x3e37df19	0.17956199
43	0x3e3c423b	0.1838464
44	0x3e25884b	0.16165273
45	0x3e2b5d04	0.16734701
46	0x3e4ba04b	0.19885366
47	0x3e80bdbf	0.25144765
48	0x3e42b971	0.19016053
49	0x3e4db75e	0.2008948
50	0x3e0f117e	0.13971516
51	0x3e7c6771	0.24648835
52	0x3e37d910	0.17953897
53	0x3e4dd5c9	0.20101084
54	0x3e29c9ad	0.1658084
55	0x3e81dd38	0.2536409
56	0x3e3a7907	0.18210231
57	0x3e23aa4c	0.15982932
58	0x3e369029	0.1782843
59	0x3e562b7d	0.20915027
60	0x3e290464	0.16505581
61	0x3e6478fe	0.2231178
62	0x3e5501fb	0.20801537
63	0x3e51de4b	0.20494954
64	0x3e3fcf3e	0.187314
65	0x3e3ca2a8	0.18421423
66	0x3e2bc293	0.16773443
67	0x3e1a7177	0.15082346
68	0x3e4b93e6	0.19880638
69	0x3e644cbc	0.22294897
70	0x3e3fa66b	0.18715827
71	0x3e8368a8	0.25665784
72	0x3e392385	0.18079956
73	0x3e4aa4ac	0.1978938
74	0x3e409da4	0.18810135
75	0x3e3cd3d1	0.18440177
76	0x3e39a402	0.1812897
77	0x3e4c6442	0.1996012
78	0x3e2dbd58	0.1696676
79	0x3e3c88a3	0.18411498
80	0x3e34660d	0.17617054
81	0x3e110746	0.14162931
82	0x3e3a2829	0.18179382
83	0x3e32ea36	0.17472157
84	0x3e311de6	0.17296562
85	0x3e5bd307	0.2146722
86	0x3e587422	0.21138051
87	0x3e36721f	0.17816971
88	0x3e4f960f	0.20272087
89	0x3e4a57b7	0.19760023
90	0x3e23b215	0.15985902
91	0x3e4be31d	0.19910856
92	0x3e66df31	0.22546078
93	0x3e659d05	0.2242318
94	0x3e498ea9	0.19683327
95	0x3e481380	0.19538689
96	0x3e364529	0.1779982
97	0x3e6ffce6	0.23436317
98	0x3e667e56	0.22509131
99	0x3e59e212	0.21277645

fc3.weight f4 [7, 100]
0	0xbc3e7d7a	-0.011626596
1	0xbe4afc70	-0.1982286
2	0xbe946145	-0.2898046
3	0x3d0296d1	0.03188211
4	0xbe80c2d3	-0.2514864
5	0xbe15aef1	-0.14617516
6	0xbd7fed58	-0.062482208
7	0x3dcb5f35	0.09930269
8	0xbe741f0e	-0.23839971
9	0x3dd795ad	0.10526595
10	0x3ced8464	0.028993793
11	0xbe943990	-0.28950167
12	0x3decb6e4	0.11558321
13	0x3cb68edd	0.02228492
14	0x3d9b6833	0.07588234
15	0xbed653f6	-0.41860932
16	0xbe2caa19	-0.16861762
17	0xbebc3385	-0.36758056
18	0xbdbd08d4	-0.092301995
19	0xbd267865	-0.04064216
20	0x3df6a58b	0.120432936
21	0xbe883f80	-0.26610947
22	0x3cd53e56	0.0260307
23	0xbe0c4ee6	-0.13701972
24	0x3d04a49f	0.032383557
25	0x3e0c69de	0.1371226
26	0xbd7187cb	-0.058967393
27	0xbe0efcab	-0.13963573
28	0x3e136e02	0.14397433
29	0xbea33ecc	-0.31883848
30	0x3c18e1fc	0.009331223
31	0x3e0a21b6	0.13489422
32	0x3e405428	0.18782103
33	0x3e3107af	0.17288087
34	0xbe56ddef	-0.20983098
35	0x3d5f6179	0.054536317
36	0x3d85fb34	0.06542054
37	0xbca0ff7f	-0.01965308
38	0xbf036f85	-0.5134204
39	0xbe075463	-0.13215785
40	0xbd3c3c3c	-0.04595588
41	0x3e34d332	0.1765869
42	0x3e2821e7	0.16419183
43	0x3d529970	0.05141586
44	0x3a5384f4	0.0008068823
45	0x3e1820b0	0.1485622
46	0x3dd1fba2	0.10253073
47	0x3de6d6df	0.11271452
48	0xbe2d56a9	-0.1692759
49	0xbe5aaf7d	-0.21356006
50	0xbdec2448	-0.115303576
51	0x3e0add11	0.13560893
52	0x3df36cb6	0.11885969
53	0x3e14ad7f	0.14519309
54	0xbcc0011a	-0.023438025
55	0x3e180743	0.1484652
56	0x3dc78bc5	0.09743456
57	0xbeb52ad9	-0.35384253
58	0x3e0de8a4	0.13858277
59	0xbdf21dda	-0.118221
60	0x3dbce7dc	0.09223911
61	0xbe35bc98	-0.17747724
62	0x3e359ece	0.1773636
63	0x3e370a10	0.17874932
64	0x3e08136e	0.13288662
65	0xbc381cd9	-0.011237347
66	0xbe92e5d6	-0.28690976
67	0x3e20fa7e	0.15720555
68	0xbe29c3b6	-0.16578564
69	0x3e2550bc	0.16144079
70	0xbc6044b9	-0.01368826
71	0x3e0648e3	0.13113742
72	0x3e5c5f44	0.21520716
73	0xbc5cc324	-0.0134742595
74	0xbdd05706	-0.101728484
75	0xbc38478d	-0.011247528
76	0x3e5525a3	0.20815139
77	0x3bba303a	0.0056820186
78	0x3e3a10f2	0.18170527
79	0x3c556c9a	0.013026381
80	0x3dc6524c	0.09683666
81	0xbe8e35bc	-0.2777537
82	0xbe753ef1	-0.23949791
83	0xbe566718	-0.20937765
84	0x3e495157	0.19659935
85	0xbeb46220	-0.35231113
86	0xbe67a311	-0.22620799
87	0xbe61eeb2	-0.22063711
88	0x3e0a8d2a	0.13530412
89	0x3e40dbff	0.18833922
90	0xbed1bd92	-0.40964943
91	0xbe977f63	-0.29589376
92	0x3e225f21	0.15856601
93	0x3dc3e585	0.09565262
94	0xbee39212	-0.4444738
95	0xbd7eac2a	-0.062175907
96	0xbe4cfe25	-0.20018823
97	0x3d7f1240	0.062273264
98	0x3c375e96	0.011191985
99	0xbe5d17b6	-0.21591076
100	0x3d03adef	0.032148298
101	0xbe9e8b60	-0.3096571
102	0x3e413152	0.1886647
103	0x3e0f1825	0.13974054
104	0x3e17f0a9	0.14837898
105	0x3e0a6420	0.13514757
106	0xbebaaa14	-0.36457884
107	0xbec1ddcf	-0.3786454
108	0x3c627ddf	0.013823955
109	0xbe20f2c5	-0.15717609
110	0x3de0906d	0.10965047
111	0x3e05e432	0.13075331
112	0x3db181e8	0.08667356
113	0xbeb15a78	-0.34639335
114	0xbdeb2297	-0.11481207
115	0x3bb3dcaa	0.0054889517
116	0x3d91f344	0.07126477
117	0x3de08853	0.10963502
118	0x3e4bdd51	0.19908644
119	0x3d4ba284	0.049715534
120	0xbe62ba87	-0.22141467
121	0xbee70b7d	-0.45125952
122	0xbea825d0	-0.3284135
123	0x3d9dc50b	0.077035986
124	0xbe51add2	-0.20476463
125	0xbdbd3b40	-0.09239817
126	0xbe7a4fed	-0.24444552
127	0xbc9bf5dd	-0.019038135
128	0x3de95d29	0.11394722
129	0x3dfcdfde	0.12347387
130	0xbdd50c38	-0.10402721
131	0x3d664a6a	0.05622331
132	0xbe0b7b57	-0.13621269
133	0xbe882db1	-0.2659736
134	0xbe157388	-0.14594853
135	0x3d6cfb3a	0.057856776
136	0xbe167187	-0.14691745
137	0x3ded4dc9	0.11587102
138	0x3dad1aa3	0.08452346
139	0xbe5b003d	-0.2138681
140	0xbe42d2d3	-0.19025736
141	0x3d53bfb9	0.051696513
142	0x3e1a231f	0.1505246
143	0xbe95fb4b	-0.29293284
144	0xbe98004f	-0.29687735
145	0x3dde258b	0.108470045
146	0xbe3b1529	-0.1826979
147	0xbe897839	-0.26849535
148	0x3e2eccc5	0.17070301
149	0x3ddca05f	0.10772776
150	0xbd96348f	-0.073342435
151	0xbebf582e	-0.37371963
152	0xbe1d7034	-0.15374833
153	0xbe044045	-0.12915142
154	0x3e45700f	0.19281028
155	0x3d51bf14	0.051207617
156	0x3e1548c6	0.14578542
157	0x3de9a17f	0.11407756
158	0x3e41a52a	0.18910661
159	0x3e222d5c	0.15837616
160	0x3e23acff	0.15983962
161	0xbdf39ad6	-0.11894767
162	0x3dc3c407	0.095588736
163	0x3e51aa68	0.20475161
164	0xbca619c4	-0.020275958
165	0x3e2ecd31	0.17070462
166	0x3e1dfbd6	0.15428099
167	0x3d98b80c	0.07456979
168	0xbe3a3cb5	-0.1818722
169	0xbe2adac9	-0.16685022
170	0x3e2083ea	0.15675321
171	0xbe57c1a3	-0.2106996
172	0x3dd02c2b	0.10164674
173	0xbe7d35bf	-0.24727534
174	0x3b5e55a0	0.0033925548
175	0x3dea279c	0.11433336
176	0xbe276574	-0.16347295
177	0xbe61740e	-0.22016928
178	0x3e09c549	0.13454165
179	0x3e0931c6	0.13397893
180	0xbecb321d	-0.3968667
181	0x3e2f0dc7	0.170951
182	0x3d9a4e90	0.07534516
183	0x3deaeaa3	0.11470535
184	0xbe016c0b	-0.12638871
185	0xbdc2ca89	-0.09511287
186	0x3e0e3d00	0.13890457
187	0xbe47e32c	-0.19520253
188	0x3dc5b7ca	0.096541956
189	0xbe1fcbfe	-0.1560516
190	0x3ddc95fd	0.107707955
191	0x3d247c0b	0.04015736
192	0xbe620aeb	-0.22074477
193	0xbe5ef423	-0.21772818
194	0x3d8f4c9d	0.06997035
195	0xbcb809f4	-0.022465684
196	0x3d59da55	0.053186733
197	0x3d993f64	0.07482794
198	0xbe198db2	-0.14995459
199	0xbe8c0277	-0.2734563
200	0xbea5c121	-0.32373908
201	0xbe70d60c	-0.23519152
202	0xbe29eef3	-0.16595058
203	0xbec38045	-0.381838
204	0xbdb2da67	-0.08733063
205	0x3d914269	0.07092745
206	0xbe02b42c	-0.12764043
207	0x3d9e2ec2	0.07723762
208	0xbe67566c	-0.22591561
209	0x3e1a41aa	0.15064111
210	0x3bd0d85d	0.0063734488
211	0xbdf3d576	-0.11905949
212	0xbeaaafd4	-0.3333727
213	0xbe97b362	-0.29629046
214	0x3debf261	0.115208395
215	0x3e1d6068	0.15368807
216	0xbec0f57e	-0.37687296
217	0x3dd96120	0.10614228
218	0x3e2fef10	0.17181039
219	0xbe9f49c8	-0.31110978
220	0xbe343128	-0.17596877
221	0x3db91da4	0.090388566
222	0x3e396e51	0.18108489
223	0xbe2756ba	-0.16341677
224	0x3defb8e4	0.11705187
225	0xbbbda00f	-0.0057869027
226	0xbda8fab0	-0.0825094
227	0x3de122ad	0.10992942
228	0xbdcbd7d7	-0.099532776
229	0x3d518f52	0.05116207
230	0x3e538895	0.2065757
231	0x3dbd51ab	0.092440926
232	0x3ccd12be	0.025033351
233	0xbe8fa255	-0.28053537
234	0x3e0f1bbe	0.13975427
235	0xbeda5cac	-0.42648828
236	0x3dea78f5	0.11448852
237	0x3e3847e1	0.1799617
238	0xbd80d6a7	-0.06290942
239	0xbd284a62	-0.041086562
240	0x3e1dd717	0.15414082
241	0xbc052466	-0.008126354
242	0xbe1a2d7c	-0.15056413
243	0x3de1723a	0.11008115
244	0x3dcf45b7	0.10120719
245	0xbde74735	-0.112928785
246	0x3e254e33	0.16143112
247	0xbea23da4	-0.31687653
248	0xbe37259a	-0.17885438
249	0x3e0b4a8d	0.13602658
250	0x3e490ba3	0.19633345
251	0x3deb0bbe	0.11476849
252	0x3e19278c	0.14956492
253	0xbecab5da	-0.39591867
254	0x3e039724	0.12850624
255	0xbe921b15	-0.28536287

fc3.bias f4 [7]
0	0x3dc6da9c	0.09709665
1	0x3df7bf14	0.12096992
2	0xbdb88ad9	-0.09010858
3	0xbcf38f0e	-0.0297313
4	0xbc9c048b	-0.019045135
5	0x3c3108b2	0.010805296
6	0xbd3d3c83	-0.046200287
