code/fng_pt2.pt (torch_old, 53998 bytes, 28 tensors)

fc1.0.weight f4 [16, 72]
000000 58 c0 44 bd bc c9 55 3d 7e bd 00 3d 4c b6 02 bd
       -0.048034996 0.052194342 0.031430714 -0.031912133
000010 8f 14 3a be 88 bf 33 be 04 fd 0a be 07 9b d0 3d
       -0.18171905 -0.17553532 -0.1357308 0.10185819
000020 1a 81 9a 3d c2 f1 cb 3b 2a a6 36 bc 76 0e f1 3b
       0.075441554 0.006223888 -0.011148015 0.00735646
000030 63 52 ad bd 09 d8 46 3e bc 02 e7 3d c4 a3 27 be
       -0.0846298 0.19418348 0.112798184 -0.16371065
000040 3c af 64 bc f5 c1 b3 bd e9 9b 2a bc 9e 7e 3c 3d
       -0.013957795 -0.08777229 -0.010413148 0.04601919
000050 5a 75 09 bc a0 7b a9 bd 79 82 de bd a0 3c 93 bd
       -0.008389795 -0.08275533 -0.108647294 -0.07189298
000060 91 33 85 bd 5e 2a 43 39 1d 5a d0 3c fb 3f 51 3d
       -0.06503976 0.00018612432 0.025433594 0.051086407
000070 12 be 82 bc 80 24 31 3c 46 7e fc 3d ff 2c b8 3e
       -0.015959773 0.010811925 0.12328772 0.3597183
000080 3e d3 a5 3e 29 52 e3 3a bc 44 05 be d7 08 86 be
       0.32387727 0.0017343211 -0.13014501 -0.2617862
000090 12 b1 80 3d 6b 04 4f 3d 32 31 e7 3b d1 cb 02 be
       0.062837735 0.050541323 0.007055425 -0.12773062
0000a0 47 65 00 bf 30 bd 51 bf 8c 9f 0d 3e 64 e9 d5 3d
       -0.50154537 -0.819293 0.13830394 0.10444906
0000b0 21 a7 51 3e 01 2e 1a 3c 04 e5 34 bd 6d c8 a7 3d
       0.20473911 0.009410382 -0.04416372 0.08192525
0000c0 be 0c fd 3c 24 9c 00 be ac 2a 90 be 4a 4f 00 3e
       0.030889865 -0.12559563 -0.28157556 0.12530246
0000d0 ae 2b 27 bd 57 32 e8 3d 38 bc 98 3c 0e f6 95 3c
       -0.04081314 0.113377266 0.018644437 0.018305805
0000e0 15 2f 37 3d aa 19 ce 3b ce 8c 96 3e d5 2e af 3e
       0.044722635 0.0062896805 0.294043 0.34215418
0000f0 2f bb 4b bd 6f 53 29 be cc 97 fd bd 97 99 88 bc
       -0.04973906 -0.16535734 -0.123824686 -0.0166748
000100 53 93 71 3c 50 1f a0 bd 11 51 61 3d 7e e9 d6 be
       0.0147445975 -0.078184724 0.05500895 -0.41975015
000110 78 64 8c be fa 47 8e 3d df 57 20 3d 8e f1 1f 3e
       -0.27420402 0.06947322 0.0391463 0.1561949
000120 0d 64 d8 3c 15 96 09 bd a2 7c ce bd 2a 39 9f 3d
       0.026414895 -0.033590395 -0.100823656 0.07774575
000130 54 b8 1e be e8 0d 72 3d 3a 34 11 3d d0 34 22 3e
       -0.15500003 0.059095293 0.035450198 0.15840459
000140 9e 8d 9d 3c 62 1a 9c 3c 29 0e 8f 3b dd ef 60 3c
       0.019232567 0.019055549 0.0043657017 0.013729063
000150 70 b4 d2 3d 49 15 16 3f 96 00 24 3f 85 93 1c bd
       0.10288322 0.5862623 0.64063394 -0.038226623
000160 20 7a 04 be 90 57 8c be a6 76 84 bd e6 83 ff bc
       -0.12937212 -0.27410555 -0.06467943 -0.031190824
000170 7c dd c0 bd 8a e4 17 3d cb b1 18 3d ff 77 d3 bd
       -0.09417245 0.037083186 0.03727893 -0.10325622
000180 ce 3b 7c 3c ff 72 d5 3c e0 8d 9d bc c8 82 da 3c
       0.015395118 0.026055811 -0.01923269 0.02667369
000190 22 c1 80 3d 77 fe bb bc 43 fe 0a bd f3 56 59 bd
       0.06286837 -0.022948487 -0.03393389 -0.053061437
0001a0 df 94 34 be 43 b4 f7 3b 19 01 0e 3d dd 8d 20 bb
       -0.17634915 0.0075593307 0.034669016 -0.002449862
0001b0 3d b8 7d bd e0 d0 1c bd bb 61 04 bd ce 3b 43 3d
       -0.06194328 -0.038285136 -0.032319766 0.047664456
0001c0 79 d3 ca 3d 82 89 2b 3e 37 d8 c1 bd fa 22 a9 bd
       0.099036165 0.16751674 -0.09465068 -0.082586244
0001d0 ff e8 fb bd 98 be 0a 3d 87 22 8c 3c ec 57 6f bd
       -0.123003 0.03387317 0.017106308 -0.05843346
0001e0 09 be bf bd 61 61 02 bf ab 46 43 bf 9e 38 83 3e
       -0.09362418 -0.5092984 -0.76279706 0.25629133
0001f0 ae 5a 74 3e 02 b6 19 3d 9e fb a9 bd 3f c9 c0 bc
       0.23862717 0.03752709 -0.08299945 -0.023533462
000200 8b 94 4d 3d 75 ef 74 bd b6 2f 0c be 4f 2f 2b be
       0.05019049 -0.059798677 -0.13690075 -0.16717266
000210 3c 50 5d 3c e3 e6 c2 3d 9d 61 35 3e 3e e5 fb bc
       0.013507899 0.095166944 0.17713018 -0.03074896
000220 f3 ae d1 bc df d9 18 bc d9 39 d0 bb 22 d2 81 be
       -0.025596118 -0.009329288 -0.006354552 -0.2535563
000230 14 a9 a3 be eb bb 0a 3e a0 34 5d bc 5f 8f cf 3c
       -0.31964934 0.13548248 -0.013501316 0.02533692
000240 c3 a9 d3 bd a3 45 f5 3b b8 33 ae bd fa a6 38 3c
       -0.10335114 0.007485108 -0.08505958 0.011270279
000250 06 96 cf 3d fb 75 08 bd 88 86 c1 3c 18 63 9e bc
       0.101360366 -0.03331564 0.02362372 -0.019334361
000260 2a d0 26 bd ae 29 9e 3d c5 ea 11 3d a2 8f c7 3c
       -0.040725864 0.077227935 0.035624284 0.024360482
000270 f5 c6 a6 bd 36 67 44 bb 59 a0 84 bd 27 5d 2e 3e
       -0.08143417 -0.0029968745 -0.064758964 0.17027722
000280 28 69 98 3d 75 64 0c 3d 10 c8 c3 3d af df cf bc
       0.07441932 0.03427549 0.09559643 -0.025375215
000290 05 93 98 3d 96 cc 4f 3b f9 bc 1e 3e 88 93 92 3e
       0.07449917 0.0031707636 0.15501775 0.28628182
0002a0 46 bf da bd e9 61 f7 bd d9 cf 36 be d4 a9 98 3c
       -0.10681014 -0.12079222 -0.17852725 0.018635668
0002b0 34 28 3d bc c4 9b 40 3d 10 e1 82 3b 1c 05 c5 be
       -0.01154523 0.04702355 0.0039941147 -0.3848046
0002c0 20 9f f5 be c5 9a 19 3e 99 90 22 3e 4f 42 5d 3d
       -0.47972965 0.15000446 0.15875472 0.054018315
0002d0 d1 13 c5 3c a9 4e 2c 3d 6b 33 85 bd af 9b ad bc
       0.0240573 0.042067204 -0.06503948 -0.0211924
0002e0 47 58 9e 3e c1 b1 bc 3e 73 6f f6 bd 2a cd a7 bc
       0.30926725 0.36854365 -0.12032976 -0.020483572
0002f0 e1 8d a4 bd 49 a7 c5 3d 04 ad 1c bd 91 01 23 bb
       -0.08034874 0.09651048 -0.038250938 -0.002487276
000300 6c 35 27 bd 98 47 df 3e 5a 98 ed 3e 91 50 02 be
       -0.04082243 0.4360931 0.46405298 -0.12726046
000310 9d 53 90 bb 25 14 24 be 86 d0 de bc ae 88 b0 3c
       -0.0044044987 -0.1602331 -0.027199041 0.021549549
000320 ae 9e 8f 3d c5 1d a2 bd c8 e1 5b be 7c 8f 93 be
       0.070126876 -0.07915834 -0.21472847 -0.28820407
000330 05 72 b5 3c 88 3a 10 3e f3 3c da bc d4 57 ab bd
       0.022149095 0.14084828 -0.026640391 -0.08366361
000340 95 55 0e bd 93 86 7b bb 91 df 58 3d 2d 8c 15 bf
       -0.034749586 -0.0038379773 0.052947585 -0.58417016
000350 1d a4 0c bf 6d c2 05 bd b5 34 90 3e 7e 3f 18 3e
       -0.54937917 -0.032656122 0.28165212 0.1486797
000360 5b 82 9b 3c ae 86 f1 bc ce b2 5d 3b 72 db 4f 3c
       0.018983057 -0.029483166 0.00338285 0.012686597
000370 98 cd e7 3e 5d d7 cf 3e ee fd 6c bd 2d 16 77 be
       0.45274043 0.40593997 -0.057859354 -0.24129553
000380 9a 0f ee bd 74 6c 60 3c 7f 68 60 bd a3 c8 7c 3c
       -0.116240695 0.013697732 -0.054787155 0.015428695
000390 c5 8a b2 3d 47 54 8c 3e 34 5c 9a 3e 7f 39 08 be
       0.087178744 0.2740805 0.3014847 -0.13303183
0003a0 5c dd 24 be 08 b7 24 bd 90 51 6a 3c 2d dc e0 3c
       -0.16100067 -0.040213615 0.014301673 0.027448738
0003b0 04 eb 53 bd 41 14 19 be 64 66 7e be 4a b1 7d be
       -0.0517378 -0.14949133 -0.24843746 -0.24774662
0003c0 13 64 96 3d e0 12 10 3e 42 f0 fb 3d a7 c3 35 3d
       0.073433064 0.140697 0.12301685 0.04437604
0003d0 f7 02 d2 bb 65 ff ee 3c 64 53 d4 bd 26 4c b1 be
       -0.006409045 0.029174516 -0.10367468 -0.3462841
0003e0 0b 86 ed be c9 24 0b 3e a6 c8 35 3d b8 62 9a 3b
       -0.4639133 0.13588251 0.044380806 0.004711475
0003f0 28 90 cb bc a5 69 40 bd 4e b4 b6 bd 33 b0 9e 3d
       -0.024849012 -0.04697575 -0.08921109 0.07748451

fc1.0.bias f4 [16]
000000 a3 19 bb bd ae 17 0e be 2e ad ca bd 54 eb a6 3d
       -0.09135749 -0.1387622 -0.09896313 0.08150354
000010 e7 82 51 3e 79 55 8a bb f0 99 46 be fb 37 e1 3c
       0.20460092 -0.004221615 -0.1939466 0.027492514
000020 fb f7 d7 3d 76 36 08 be cd 79 f9 3d 42 d1 05 3e
       0.105453454 -0.13302025 0.12181435 0.13068107
000030 40 bf a3 3d c9 c1 95 bd 21 51 e1 bd 93 06 9c 3c
       0.079954624 -0.07312352 -0.11001802 0.019046104

fc1.1.weight f4 [16, 81]
000000 76 b3 c4 bd 5e d7 81 3d a8 dd 53 bd e7 53 d0 3b
       -0.09604542 0.06339906 -0.05172506 0.006357658
000010 e0 f4 77 be 8b 63 5c be 7b b0 c1 3c 81 3e aa bd
       -0.24214506 -0.21522348 0.023643723 -0.08312703
000020 12 87 ba 3c 64 c2 7a 3c 5c 2c bb 3c 7e 77 2c 3d
       0.022769485 0.015305135 0.0228483 0.042106144
000030 31 e0 03 bc dd e4 86 3e 48 0e ac 3e ea 90 0e be
       -0.008049057 0.26346484 0.33604646 -0.13922468
000040 bd 3a d9 3c 18 d8 ed bd 16 a5 00 3c c4 ff 17 bd
       0.026517266 -0.11613482 0.00785186 -0.03710915
000050 ae a6 a5 bd 4b 35 89 3c a5 ed b0 be c0 e1 f6 be
       -0.08088432 0.016749045 -0.34556308 -0.4821911
000060 a8 20 11 3e 8c f4 52 3e 5d 9b 50 3d 40 93 45 bd
       0.14172614 0.206011 0.050929416 -0.04823613
000070 b4 59 2f bc 70 01 5a 3d d9 88 5a bb 5e 46 93 bd
       -0.010702539 0.053224027 -0.0033345728 -0.07191156
000080 d7 82 44 be c2 1b fe bd d0 ce 7f 3d 79 ba 9f 3d
       -0.19190536 -0.12407638 0.06245309 0.07799239
000090 1b ab 82 bd cd 88 5e bd 83 b1 84 bd c8 c3 3d 3d
       -0.06380292 -0.054329682 -0.0647917 0.04632929
0000a0 fd 7c 22 3f f9 8b 3a 3f 11 12 40 be b9 db 4c bd
       0.63471967 0.7286983 -0.18756892 -0.05001423
0000b0 06 80 8c be ff f4 21 3d 10 fc 5a bd 7b 36 e6 bc
       -0.27441424 0.039540287 -0.05346304 -0.02810215
0000c0 45 fa c0 bc b1 cf 9d be fd ed ff be 2d a7 ae 3d
       -0.023556838 -0.30822518 -0.49986258 0.0852798
0000d0 11 92 55 3d 91 46 78 3e d3 f3 2e ba a1 7b 38 bd
       0.052141253 0.24245669 -0.0006673906 -0.045039777
0000e0 43 7b 05 bd 99 63 8f 3d 89 0e 7b 3e 3a ca 0e 3f
       -0.032588255 0.070014186 0.24517263 0.55777323
0000f0 11 71 76 bd a4 79 0c be c2 f0 d2 bc 66 7d 9b 3d
       -0.060166422 -0.13718277 -0.025749568 0.07592277
000100 1f 29 c6 bd d6 17 6b bd 19 fe 75 ba 4f a4 15 bd
       -0.09675812 -0.05739578 -0.0009383872 -0.03653365
000110 05 5d b3 be 40 18 e3 3d cf cb bc 3c 8c 2b e8 3d
       -0.35031906 0.1108861 0.023046402 0.11336431
000120 c5 95 41 3c 15 ea fa 3c df 13 a0 bc 1c 68 ce 3d
       0.011815493 0.030629197 -0.019540725 0.10078451
000130 4c 3b 7a 3e c0 33 22 3e 93 cc 8a 3c 80 42 23 bd
       0.24436682 0.15840054 0.016943252 -0.03985834
000140 0a 86 b6 bc 55 84 93 3d dd 7c c7 3c f2 89 1b bd
       -0.022280712 0.07202975 0.024351532 -0.03797335
000150 a0 46 54 3d 27 e6 e2 3e 6d c3 f8 3e 53 1e 02 be
       0.051825166 0.44316217 0.48586598 -0.1270688
000160 97 cb c0 ba 49 2e c6 bd b7 5d 01 bc e0 57 f7 bd
       -0.0014709112 -0.09676797 -0.0078958785 -0.12077308
000170 1d 2b 9a 3c 98 52 c3 3c 0d 01 81 3d b5 9c 55 3d
       0.018819386 0.023843095 0.062990285 0.0521514
000180 31 6b e4 bb 9a f1 6d bd 53 09 4c bd 2a 59 9c bd
       -0.006970786 -0.058091737 -0.04981358 -0.07634194
000190 e5 58 4c 3b 74 78 79 3c 5f f9 2a 3c 03 15 d6 3d
       0.0031180915 0.015226472 0.010435431 0.104532264
0001a0 21 b1 40 3d 53 f1 98 3d b3 98 d2 3c 28 68 0e be
       0.047043923 0.07467904 0.025707578 -0.1390692
0001b0 b8 c0 17 bc 15 30 4b 3c d8 53 86 3a 3e 92 8c bd
       -0.009262256 0.0124016 0.0010248376 -0.06863831
0001c0 4e 7b 8b be 4b f5 bd be a4 28 1d 3c 14 dc 01 bc
       -0.27242512 -0.37101206 0.009592209 -0.007926006
0001d0 e7 27 3f 3e 25 97 01 bc ee 3b 1a 3c 88 fa d8 bd
       0.18667565 -0.007909571 0.009413702 -0.1059466
0001e0 3c 44 ea bb 2c 1f 03 3e 02 57 df 3e c9 08 b9 bd
       -0.0071492475 0.1280486 0.4362107 -0.09034879
0001f0 d1 77 8d bd d5 86 28 be 14 d9 54 3d e0 e8 a3 3d
       -0.06907619 -0.16457684 0.051964834 0.08003402
000200 9e bf 0c bd 44 95 98 bd b2 3f 1a bf 86 bb 13 bf
       -0.034362428 -0.07450345 -0.6025344 -0.57708013
000210 c3 27 c8 bc 5a df a8 3c b4 10 de 3d e9 3e 55 3d
       -0.024433022 0.020614315 0.108430296 0.05206195
000220 2a 98 cd bd eb 45 df 3d f5 f7 1d 3d af a2 ea bd
       -0.100387886 0.10902008 0.03856655 -0.11456811
000230 17 6c 24 bd 26 89 50 be ae df ac 3d 4a 51 0a 3c
       -0.040142145 -0.20364818 0.08441101 0.008442232
000240 e2 df c0 3d dc eb 04 3d b0 60 30 bd 99 5b b9 3d
       0.09417702 0.032451496 -0.04306096 0.09050674
000250 b9 75 cf bc cb 3d a7 3b e7 fb 0f 3e 4b 13 82 bd
       -0.02532469 0.005103802 0.14060937 -0.06351336
000260 05 5e f8 bd 02 f2 c0 bd aa 97 66 bc 43 cf c7 bb
       -0.12127308 -0.09421159 -0.0140742455 -0.0060977056
000270 2e a9 d6 bd 00 a4 17 bf 46 ef fa be 1e e5 01 3e
       -0.10481487 -0.5923462 -0.49010676 0.12685058
000280 c9 6e f4 3d ad b1 17 3e 54 c6 34 bd fd a4 8e 3d
       0.11935193 0.14813872 -0.044134453 0.06965063
000290 38 b4 8b bd 3a a4 f9 3c 42 3e 10 3e 08 50 b2 3d
       -0.068214834 0.030473817 0.1408625 0.08706671
0002a0 a9 18 21 bd 07 26 88 bd 02 26 5b bd 36 ae 26 ba
       -0.03933016 -0.06647878 -0.053503044 -0.0006358357
0002b0 62 06 5a bd 32 f8 ee 3d 67 38 e0 3d ff cb 83 3d
       -0.053228743 0.11668433 0.10948258 0.064353935
0002c0 ea d5 44 3e 1a 71 f2 3d d7 8c e4 bc f5 87 76 3c
       0.19222227 0.11837979 -0.027899189 0.015047063
0002d0 29 39 39 bd 43 2a af bd b5 e2 8f 3d 52 d1 02 3d
       -0.045220528 -0.08552983 0.07025663 0.031937905
0002e0 b7 06 d5 3e 48 29 df 3e 37 42 23 be 14 e2 36 be
       0.41606686 0.43586183 -0.15943228 -0.1785968
0002f0 4c f3 72 bc c0 40 9a bd a9 ed 63 bd bb f8 50 bd
       -0.014828514 -0.07531881 -0.055646572 -0.051018458
000300 c5 74 60 bd 82 6c 0c be 08 04 9b be d1 42 49 3e
       -0.05479886 -0.13713267 -0.30276513 0.19654395
000310 3c a4 b4 bb 5d 4c 0b 3d 36 fe 92 bc ee 13 04 bd
       -0.0055127423 0.034008373 -0.017943483 -0.03224557
000320 e8 b1 d8 bc 58 7d 16 3d 8c 1a 99 be e7 e3 34 be
       -0.02645202 0.03674063 -0.29903066 -0.17665063
000330 9e de c6 3d 48 33 41 3d a0 8f 69 3b 74 42 43 3d
       0.097104296 0.047168046 0.0035638586 0.047670797
000340 2a e8 79 bd 4e d6 55 bd da 52 ed bc d9 b9 f7 3e
       -0.061012425 -0.05220633 -0.02897017 0.48383978
000350 3d 69 c1 3e dd 1b 91 bc 50 f8 3d be 6b c0 32 be
       0.37775603 -0.017713482 -0.18551755 -0.17456214
000360 83 5d 5c 3b 84 8b 32 bd a9 bd 74 3d 28 27 f9 3c
       0.0033625073 -0.043590084 0.059751187 0.030414179
000370 a1 b4 6a be 26 2e 02 bf 1a 15 3b 3d 1e 3f 14 3e
       -0.22920467 -0.50851667 0.04567442 0.14477202
000380 61 d9 59 3e bc cf b0 3d 6e fd 8d 3c 32 2a b9 bd
       0.2127433 0.08633372 0.017332759 -0.09041251
000390 46 cf cd bc 37 a8 aa be 30 1b b3 be 2b 75 68 3d
       -0.02512325 -0.33331463 -0.3498168 0.056752365
0003a0 21 4e 5c 3e 99 cb d7 3d 72 29 aa 3d e8 5c 9a bc
       0.21514179 0.1053688 0.08308686 -0.01884313
0003b0 c7 63 b2 bd 70 d7 1d 3d d7 d3 28 3e 2a 7d 1b 3e
       -0.08710437 0.038535535 0.1648706 0.15184465
0003c0 78 64 a5 3c 51 28 db bd 8e 37 22 be a8 ac c4 3c
       0.020189509 -0.10701049 -0.15841505 0.02400811
0003d0 d2 d9 c6 ba c5 5a f6 bd c5 1e 9a 3c cd 3d 08 be
       -0.0015171117 -0.12029032 0.0188135 -0.13304825
0003e0 21 c3 ba ba 55 46 b9 3d dd ca 82 3d 54 6b a7 bc
       -0.0014248827 0.09046618 0.06386349 -0.02043692
0003f0 80 c3 71 bd e0 f4 a4 3d 4f c4 8e 3d fd 62 2c bd
       -0.059024334 0.08054519 0.06971037 -0.04208659

fc1.1.bias f4 [16]
000000 23 c7 10 3e a0 4d 4f be 87 92 b1 3a 89 d6 d3 bd
       0.14138465 -0.20244455 0.0013547697 -0.10343654
000010 85 1d d3 3d 88 8e c5 3c 1f 5a 82 bd db 38 5d bb
       0.10308365 0.024115816 -0.063648455 -0.0033755812
000020 82 56 a4 3d 39 85 36 bd 3c 98 e7 3d 35 60 66 be
       0.080243126 -0.044560645 0.11308333 -0.22497638
000030 cc be 6c bd 2c e4 c8 3d b2 cb 38 3e f5 73 f3 3d
       -0.057799146 0.09809145 0.18046454 0.118873514

fc1.2.weight f4 [16, 90]
000000 ac c3 26 bd d1 1c 3f 3c 82 9a 33 3d c1 59 3d 3d
       -0.04071395 0.011664585 0.043848522 0.046228174
000010 78 ed 77 3d e9 c3 52 bd 5f 2e aa 3d fc ac 0e 3d
       0.060529202 -0.051456366 0.08309626 0.03483294
000020 ce ab f8 bc ad 10 46 3c fd 4e b3 bb 88 1f 01 bc
       -0.03035536 0.012088937 -0.0054720626 -0.007881053
000030 03 83 d5 3d 7e 75 93 3e 59 26 bc 3e 62 28 6d 3c
       0.10425379 0.28800577 0.36748007 0.01447496
000040 c2 d5 c2 3c 33 97 b5 bd a5 3f e9 3b c9 3e e0 3c
       0.023783568 -0.088667296 0.0071181827 0.027373688
000050 dd 27 61 3d 90 49 a9 3c b8 c7 1a be fd 84 80 be
       0.054969657 0.02066496 -0.15115249 -0.25101462
000060 f0 31 a9 3c 40 6b d2 3d 48 f2 da 3d 16 51 11 3b
       0.020653695 0.102743626 0.10690743 0.0022173575
000070 cb da b7 bc 41 33 b3 bd d8 09 fa 3d 55 b7 4e 3f
       -0.022443196 -0.0875001 0.12208909 0.8074849
000080 a7 e9 51 3f 6c 20 2a bd 65 6d dd bd ce ea 30 be
       0.8199715 -0.041534826 -0.10811881 -0.17277071
000090 68 32 c5 bc 05 e3 b7 bd b8 ad 8f bb 14 14 5d bc
       -0.024071887 -0.089788474 -0.0043847226 -0.0134935565
0000a0 51 d5 92 3e 02 33 f4 3e e8 dc dc bc ca be 44 be
       0.28678373 0.47695166 -0.026960805 -0.19213405
0000b0 2a 97 0f be 53 c6 f1 3b 4c a8 00 3d 5b d5 e9 3b
       -0.14022508 0.0073783784 0.0314105 0.0071360297
0000c0 70 04 c5 bc 3f 04 20 3e 1d 80 ef bb dc 4b 8c 3c
       -0.024049968 0.1562662 -0.0073089735 0.017126016
0000d0 30 aa 42 bc e3 21 d5 3c 30 94 1d bc f3 62 3f 3d
       -0.011881396 0.026017135 -0.00961785 0.046725225
0000e0 aa a3 50 3d 72 e4 38 3d 81 65 14 be 21 e5 02 be
       0.050937332 0.045139737 -0.14491846 -0.12782718
0000f0 7b 59 5b bc 76 0a 3f bc a9 11 8e 3d a0 55 1b bd
       -0.013388033 -0.011660209 0.06936962 -0.037923455
000100 dc 75 a7 bc 3b 89 d2 bc d1 41 c9 bd 5f 8a 6c be
       -0.020441942 -0.025700202 -0.098270066 -0.2309966
000110 6e 04 12 bf 69 10 82 3d 17 c3 f3 3d c1 bc b9 3d
       -0.5703801 0.06350786 0.11902445 0.09069205
000120 87 66 ad 3c 6e a2 5c 3c 91 98 3e bc 0b 4d 91 3d
       0.021167053 0.013466461 -0.011633054 0.07094773
000130 92 68 ab 3e df 06 44 3e 27 20 3f 3d 2d 75 9a bd
       0.33478218 0.19143246 0.046661522 -0.07541881
000140 c1 23 81 bd 9d 48 1b bd 9f 76 a0 3c fe dc 39 3c
       -0.06305648 -0.037911046 0.019587813 0.011344193
000150 6e d9 64 3c d3 b3 25 bc d2 91 77 3e 43 51 a1 3c
       0.013967855 -0.010113674 0.2417672 0.019692069
000160 e8 29 a8 3c ee 93 60 3d c9 2d 54 ba 34 38 6c 3b
       0.020527795 0.054828577 -0.0008093981 0.0036044242
000170 16 e2 f1 3c 87 3b fd 3c 0d 2b ef be ad 5d 1a bf
       0.029526751 0.030912174 -0.46712533 -0.6029919
000180 00 cd 99 3d 1c c8 11 3e ca e7 76 3e a8 40 8b bb
       0.07509804 0.14236492 0.24111858 -0.004249651
000190 c9 52 fe 3b 7f d4 51 bc 3e 19 3b bd 0b 75 c0 3e
       0.0077613336 -0.012807011 -0.04567837 0.37589297
0001a0 b0 cb 18 3f 45 c7 e1 bb 82 b3 a8 bd 64 f2 0a be
       0.596858 -0.00689021 -0.082373634 -0.13569027
0001b0 9f 8c d9 bc 70 fa 26 bd 93 9b 4f 3d 96 e1 5b bd
       -0.026556311 -0.04076618 0.050685477 -0.053681932
0001c0 13 81 ca bd 00 68 de be ce 51 01 3d 75 b1 ae bc
       -0.098879 -0.4343872 0.031572156 -0.021324852
0001d0 1f c4 0c 3e 4a d7 bd bd 45 7b 49 3c 58 43 47 3d
       0.1374669 -0.09269579 0.012297456 0.04864821
0001e0 69 70 77 3b 5d f3 d5 3e 6a 31 08 3f 72 4d 44 be
       0.003775621 0.41787234 0.532004 -0.19170168
0001f0 5c 69 c0 bd 40 84 d2 bd b9 01 3b bc 36 e4 bb bc
       -0.09395096 -0.10279131 -0.011413985 -0.022935968
000200 82 6f c5 3d e0 18 92 3c fc d3 3f bf 68 04 72 bf
       0.09640409 0.017834127 -0.7493284 -0.94537973
000210 db a1 79 3e 48 79 bb 3d 27 13 c2 3e f9 c9 98 3c
       0.24378149 0.09153992 0.37905237 0.018650996
000220 a9 13 36 bc 9c 6f e8 3c 5f 63 b5 3d 0b 03 a9 3e
       -0.011113086 0.028373532 0.08856844 0.33010134
000230 ab 00 ed 3e 1f 34 13 bd 39 37 0a 3d 52 86 f1 bd
       0.46289572 -0.03593838 0.03374407 -0.11793198
000240 e1 c4 42 3d a4 8f 32 3d bf 25 6f bc 27 6c 1e 3d
       0.04755104 0.043594018 -0.014596402 0.03867736
000250 b4 1e dd 3e 8d 60 f8 3e 18 51 ea bd ef 59 96 bd
       0.43187487 0.48511162 -0.11441249 -0.07341372
000260 71 a5 ee bd 47 d7 43 3d 23 f6 96 3b 85 f2 b5 bd
       -0.11652649 0.047812726 0.0046069785 -0.088841476
000270 bf c4 f9 bb c2 26 4f 3e e2 dd e0 3d 62 cb 7c bc
       -0.007622331 0.20229629 0.10979821 -0.01542935
000280 5c c5 81 bd 71 d9 8b bd 33 42 86 bd 8f 60 8c bc
       -0.063364714 -0.06828583 -0.06555595 -0.017135886
000290 ac d0 27 bc 37 96 7b bc 86 3e 97 3e 4e ad d7 3e
       -0.010242622 -0.015355638 0.2953989 0.42124408
0002a0 6c 82 9e bd 37 7c 23 be 42 e1 18 3c fe 4d d5 3b
       -0.0773972 -0.15965353 0.009331049 0.0065095415
0002b0 cb 21 1c 3d 74 4e 71 bd 9f 77 9d bb 73 4f bc be
       0.038118165 -0.05891271 -0.0048055197 -0.36779365
0002c0 b9 d1 56 bc 27 9d 0d 3c 50 4d 86 bd 6c 7b 43 3d
       -0.013111525 0.008643425 -0.06557715 0.047725126
0002d0 bc ce ac 3d 70 d8 fc 3a ad fb 7d bd 0f 18 1b bc
       0.08437869 0.0019290578 -0.062007595 -0.009466185
0002e0 69 6d 05 3f 12 2e 43 3f 52 b5 1f bd 23 07 d0 bd
       0.5212007 0.7624217 -0.03899128 -0.10157611
0002f0 f9 c2 ef bd 8d a1 90 3b 80 d9 b7 bc 09 a5 23 3d
       -0.1170711 0.0044137896 -0.02244258 0.03995231
000300 43 e2 25 3d 66 fa 6f bc 26 e6 3f be 72 cf 29 bd
       0.040498983 -0.014647102 -0.18740138 -0.0414576
000310 d9 50 3d 3d 0d af 5f bd af 37 a4 bd 3a c5 89 bc
       0.04621968 -0.0546103 -0.08018433 -0.016817678
000320 c8 39 05 bd ff 3b 3a bb bb 9b 12 bf 2a e2 6b bf
       -0.032525808 -0.0028417108 -0.57268876 -0.92141974
000330 5f e2 fe 3b bc a5 00 3d 96 4a 7e 3e a2 ff 6d bc
       0.0077784504 0.031408057 0.2483314 -0.01452628
000340 e4 5f c7 3c 00 40 1a 3d 6c bb a6 bd ff 6b e0 bc
       0.024337716 0.03765869 -0.08141217 -0.027395247
000350 99 4f 91 be 69 ac a9 bd 96 46 34 bd 5e a2 a4 3d
       -0.2838104 -0.08284838 -0.04401263 0.080387816
000360 b7 a0 4d 3d 31 d2 56 3c f5 8b 0e 3d c5 9c 10 bd
       0.050202098 0.013111637 0.034801442 -0.035305757
000370 15 08 bb 3d 55 56 0f 3e 9e fb 6d 3d 6a 24 46 bd
       0.09132401 0.13997777 0.05810129 -0.04837457
000380 b6 fe bd bd 65 ab 7f bc 43 4d 8e bc 6d da 50 3b
       -0.09277098 -0.0156048285 -0.017370826 0.0031868473
000390 64 70 b8 bc 60 ca 84 3e 61 e1 0a 3d ce 82 d3 3d
       -0.02251453 0.2593565 0.033906344 0.103276834
0003a0 40 3e da bc 04 77 af bd d8 2b 39 3d 51 fd 92 bc
       -0.026641011 -0.08567622 0.04520783 -0.017943056
0003b0 54 e8 5b bd 8a 85 eb bc b3 54 1f 3e 85 1b ea 3d
       -0.053688362 -0.0287502 0.15559654 0.1143103
0003c0 8f 73 bb 3c 67 b9 6f 3d a3 b0 ff 3b 09 66 88 bb
       0.022882251 0.058526423 0.007803039 -0.004162554
0003d0 c7 72 57 3c ed 6f 3c bd c3 a1 31 bd 32 c0 63 be
       0.013149924 -0.04600518 -0.04336716 -0.22241285
0003e0 fe 04 ad be ea 20 9e 3b 22 56 07 3d 36 80 d2 3d
       -0.3379287 0.004825701 0.033041127 0.102783605
0003f0 55 16 b8 bc f7 63 55 bd 72 79 c9 3d 97 bb af 3d
       -0.022471586 -0.052097287 0.09837617 0.08580702

fc1.2.bias f4 [16]
000000 a2 61 a1 3d e6 08 93 3d bf fe 97 3d d4 94 cd 3d
       0.0787995 0.071794316 0.07421636 0.10038152
000010 e6 cd cc bc ac 7b a9 3d d1 13 f8 bc b7 41 cf bd
       -0.025000524 0.08275542 -0.030282887 -0.10119956
000020 0e 41 2b 3e 7b 6d db 3c 67 3a 2b 3d 4e 03 d3 3d
       0.16724035 0.026785603 0.041803744 0.10303365
000030 04 66 3d bd fc 54 bc 3d 92 65 16 be 2c dc 93 3d
       -0.046239868 0.09195897 -0.14687183 0.07219729

fc1.3.weight f4 [16, 99]
000000 55 10 a1 bc 5b ac 48 bd 1f 24 b1 bd 88 1a c8 3c
       -0.019661108 -0.048992496 -0.08649468 0.024426714
000010 f1 bc 0b bf c0 ee b2 be 5d c2 47 3e 20 1a ee 3c
       -0.54585177 -0.34947777 0.19507737 0.029065192
000020 ab ea 18 3d 38 9a db bc a6 76 b7 3c b3 ba 1f 3d
       0.03733317 -0.026806936 0.022395443 0.03899641
000030 58 b4 ba bc 4a 94 d9 be 42 46 d4 be b7 bb 8a 3c
       -0.022791073 -0.42495948 -0.41459852 0.016935213
000040 5e 0e 9e 3d 90 ee cb 3d ed 29 fd 3c d8 9d 4c bd
       0.07717584 0.099576116 0.03090378 -0.04995522
000050 2b 16 da bc 56 b4 29 bd 4b 45 17 bf 3c 72 d9 be
       -0.026621899 -0.041431747 -0.5909011 -0.42469966
000060 09 da 0e 3d 19 ec 9b 3d e4 26 63 3e 68 10 b6 bb
       0.034875903 0.076133914 0.22182804 -0.005556155
000070 de ba d7 3c 33 a9 5b bc 3b f4 68 3d fd 3f 2c 3f
       0.026334222 -0.013407039 0.05687354 0.6728514
000080 ab 70 1e 3f 92 23 e3 bd 95 02 1d be ae d6 28 be
       0.6189067 -0.11090769 -0.15333016 -0.16488144
000090 de 68 97 bd e3 7d 13 3d 0e 37 38 bc c6 67 ad bc
       -0.07393049 0.036008727 -0.011243595 -0.021167647
0000a0 ff e8 59 bf e0 38 24 bf 8c 25 18 3e 6a a4 de 3d
       -0.8512115 -0.64149284 0.14858073 0.10871203
0000b0 e7 20 92 3e 6c de 5a bd 6f ed 38 bb 2e 28 3d bc
       0.28540727 -0.053434774 -0.0028217693 -0.011545224
0000c0 96 9c 17 bd 59 53 02 3e b3 25 bd 3e 5a 17 82 bc
       -0.037014566 0.12727107 0.36942825 -0.015880276
0000d0 1d 5c 4a bc 0e b7 1e be c1 85 22 bd 1f 48 58 bd
       -0.012351063 -0.15499517 -0.03967834 -0.052803155
0000e0 81 52 ab 3c 7f e2 96 3d c0 95 bb 3e 5d 3a f6 3e
       0.020913364 0.073674195 0.36637688 0.48091403
0000f0 4b 25 a5 bb b9 f7 91 bd e4 c8 21 be 48 4c 68 bd
       -0.005039846 -0.071273275 -0.1579929 -0.056713372
000100 e7 c5 7b bc 2e 4c c8 bc 5d 17 ae 3c 5c fd 19 3d
       -0.015367008 -0.024450388 0.021251375 0.037595138
000110 54 83 a8 3d 17 6b 3c be c2 f2 bd 3c 9c 26 a6 bc
       0.08228174 -0.18400227 0.023187045 -0.020282082
000120 f2 15 f8 3b bd 0d 7b bd ea 1e 18 3d f3 92 9b 3d
       0.0075709755 -0.0612924 0.037138857 0.07596388
000130 40 af f6 be 00 17 93 be ea c6 60 3d fc 85 34 3c
       -0.4818058 -0.28728485 0.0548772 0.0110182725
000140 b4 a6 0a 3e df e9 d4 bc d4 df 3a 3d 2b d1 c0 3c
       0.13540155 -0.025990425 0.045623615 0.023537239
000150 3e eb bb bc ae 66 8c 3c a6 fe 18 be 7a f8 10 3e
       -0.02293932 0.017138805 -0.1494089 0.14157286
000160 01 46 3a bd 61 1e 1a 3d 3c 9b 2b bd 4f 27 62 3c
       -0.045476917 0.037626628 -0.04189609 0.013803317
000170 6e 40 22 3c e1 3c 0f bd 01 9f 60 3f 0a 33 74 bb
       0.009903057 -0.034970168 0.8774262 -0.0037261867
000180 ec 2a 84 bd a3 f1 28 3d d5 d4 30 be d0 1c 40 3d
       -0.06453499 0.041246068 -0.17268689 0.046902478
000190 6d 10 ca 3c b1 26 99 3d 4f 33 25 bd 00 7b 69 bd
       0.024666036 0.07478083 -0.040332135 -0.057002068
0001a0 51 12 8d be 14 22 18 bd 02 d7 64 3d bc 11 2c 3e
       -0.27553037 -0.037141874 0.05586911 0.1680364
0001b0 0a fb 99 3d 51 de 1a bd 20 a5 47 bd 57 ae 12 3d
       0.07518585 -0.037809674 -0.04874146 0.035810795
0001c0 d1 16 94 3d 47 28 bc 3e 49 c5 29 bd ba 32 d4 bb
       0.072309144 0.3674948 -0.04144791 -0.0064757736
0001d0 6f 96 b9 bd ee 0e 38 3a 09 33 b9 bc 91 7e 3e bc
       -0.09061896 0.00070212677 -0.022607343 -0.0116268555
0001e0 72 45 aa bc c2 ea 1a be 3e b0 31 3e d0 d4 54 3d
       -0.020785067 -0.15128615 0.17352387 0.051960766
0001f0 31 4d bd bd bb 14 db 3d f8 26 a5 bc d2 c2 c4 3b
       -0.09243239 0.106973134 -0.020160183 0.0060046697
000200 f9 0d 2a 3c 54 f9 f9 3c 60 dd 9b be 3f 1e 65 3c
       0.010379308 0.030514397 -0.30442333 0.013984262
000210 c5 50 00 3d bc d0 17 bb b7 ed fb 3d 16 89 17 bd
       0.031327028 -0.0023165187 0.123012 -0.03699597
000220 db f5 f1 bc c4 32 0e bd f7 c5 62 bd 65 6e 5a be
       -0.029536178 -0.034716383 -0.055364575 -0.21331175
000230 15 4c a8 bd 50 02 96 3d e3 0d 7e 3c 38 19 10 3e
       -0.082176365 0.0732466 0.015506241 0.1407212
000240 fb 5b 3b 3c 3f f6 86 bc 41 69 02 3d 2a a0 67 bd
       0.011435504 -0.016474841 0.03183866 -0.05654923
000250 44 9d 09 bf fb 5c d5 be 61 92 8b bc 1b bb 06 3d
       -0.53755593 -0.416725 -0.017037572 0.03289328
000260 03 7d fc 3d a9 17 75 bd 9b fb b5 bc 16 db 9b bc
       0.123285316 -0.059837017 -0.022214701 -0.019025367
000270 6d 40 ca 3b 38 01 21 be 81 78 3f 3e 54 6c 14 bd
       0.006172231 -0.15723121 0.18698312 -0.036236122
000280 8e f0 53 3d 3b ce 40 3c b5 f4 4f bd 47 e7 0c bd
       0.051743083 0.011767919 -0.05077048 -0.03440025
000290 97 1d 3c 3d 81 e0 12 bd 54 6c 0e bf 60 87 a0 be
       0.045926657 -0.035858635 -0.55634046 -0.31353283
0002a0 97 58 b5 bd 30 12 6c 3e 29 99 67 3e ee ef b7 bc
       -0.08854788 0.23053813 0.2261702 -0.022453275
0002b0 1d 43 12 3d ed ca 1d bd f0 0c 27 3c 23 7a 00 3f
       0.035708535 -0.038523603 0.010195956 0.50186366
0002c0 5d d0 50 3f 99 67 34 3c 6f 22 25 be ed 82 4e be
       0.8156794 0.011011028 -0.16126417 -0.20167132
0002d0 e6 22 17 3d 58 91 c5 3b 38 2b d1 3c 26 48 12 3d
       0.036898516 0.006029289 0.025533304 0.035713337
0002e0 cb 38 98 3f 48 e6 e8 3d 92 37 83 3d 48 95 01 be
       1.1892332 0.11372048 0.064070836 -0.12654603
0002f0 43 61 7f be fb 72 01 3c 9b 20 d0 3c 23 f8 23 bd
       -0.24939446 0.007900949 0.025406172 -0.040031563
000300 24 35 24 bc c4 e3 5f 3f d3 97 99 3d bd c8 09 bd
       -0.010022435 0.8745692 0.07499661 -0.033638705
000310 08 63 fd bd 37 83 1c be 1b 93 71 3d 43 2a 78 3c
       -0.12372404 -0.1528443 0.05897818 0.015146795
000320 70 fe b0 bc 5e 1a 3a 3d dd 4b 19 3e e1 6e 91 3c
       -0.0216057 0.045435302 0.14970346 0.017753066
000330 0d de 91 bc 4d 55 e2 bd 52 b0 05 3d b8 ae 9a 3c
       -0.017806077 -0.11051426 0.032638855 0.01888214
000340 3d a3 db bb fa 0f 8e 3c f4 ec 50 bc 29 f7 45 be
       -0.006702809 0.017341603 -0.0127518065 -0.19332565
000350 b5 eb 2a bf 11 af 9a 3c 81 e5 e2 3c b3 d6 e0 3d
       -0.6676591 0.018882306 0.027697327 0.109784506
000360 09 4d 38 3d f5 e3 c1 bc 2b 62 ac 3d b5 0b 71 3d
       0.04499534 -0.023668269 0.084171616 0.058849055
000370 85 25 37 3e 0e 0a c1 3d 7c ae e8 bc 3f ec 64 bd
       0.17885406 0.09425746 -0.028403513 -0.055889364
000380 32 ee 57 bd 1a 73 77 bd 67 06 a3 bc 02 e5 33 3c
       -0.052717395 -0.060412504 -0.019900514 0.010979893
000390 5d 58 85 3c 43 e8 a3 be 2c 4b 18 bf 15 0f 13 3d
       0.016277486 -0.3201314 -0.59489703 0.035903055
0003a0 d7 49 b7 3d 58 36 33 3e aa c4 17 bd 9d d0 8e bd
       0.08949631 0.17501199 -0.037052788 -0.069733836
0003b0 df 12 8d bd 15 34 1e 3b fd 59 3b be 49 12 86 be
       -0.06888365 0.002413993 -0.18296047 -0.26185825
0003c0 fd d8 b6 3d ee 9f 01 bd 4d 84 ea 3c 4a 73 37 3d
       0.08928106 -0.03164666 0.028627539 0.044787683
0003d0 f8 55 28 bd c4 6f 16 3d 29 51 1c bd 27 e7 2e 3f
       -0.04109761 0.03672768 -0.038163338 0.6832146
0003e0 35 14 fc 3e 96 a7 37 3d 27 2a 61 bc ea 24 39 be
       0.49234167 0.044837557 -0.01374296 -0.18080488
0003f0 4c a6 fd bc b9 d8 2e bc 83 7f ea bd d4 fc 8b 3d
       -0.030963086 -0.010671788 -0.11450102 0.068353325

fc1.3.bias f4 [16]
000000 3c eb b3 bd 19 d8 9f 3d 63 7d a4 bb f4 6d a2 3d
       -0.08785102 0.07804889 -0.00501983 0.07931128
000010 af 4e 6b 3e ce d2 01 3b 60 60 da bd c7 fa e2 3d
       0.22979234 0.0019809487 -0.10662913 0.11082988
000020 97 7b 8a 3d 30 28 b9 3d ae c7 a2 3d 1a 47 b9 bd
       0.06761854 0.09040868 0.07948242 -0.09046765
000030 21 ed 07 be 88 f8 09 3e c9 7a b7 3d e5 e6 e1 3b
       -0.13274051 0.13473713 0.08958966 0.00689398

fc1.4.weight f4 [16, 108]
000000 2f 36 86 bd c2 74 8c 3c 39 ec 22 3d cb c9 00 3d
       -0.065533035 0.017145518 0.03977606 0.031442445
000010 4d 58 b4 3e 66 9f e5 3d 15 90 8e bd 7b ce 1e 3b
       0.35223618 0.112120435 -0.06961075 0.0024231959
000020 a1 fa 2d bd 7a 10 89 bc 3a fa 2d bc fb 0a ca bb
       -0.042475346 -0.01673149 -0.010618741 -0.0061658598
000030 ee 28 15 bc 28 09 61 be d4 7e 42 ba f4 02 5a bc
       -0.009103997 -0.21976149 -0.00074194116 -0.013306368
000040 5e a2 b4 bc d4 1e 1a 3e ef f6 31 bc f7 86 34 3b
       -0.022050079 0.15050822 -0.010862096 0.0027546266
000050 06 ac a7 bd 71 95 2b bb b9 d9 88 be 54 38 ca bd
       -0.08187108 -0.0026181603 -0.2672861 -0.09874025
000060 9e e9 43 3d 7a d3 a0 3d c4 f9 0a 3b cd 81 bb bd
       0.047830217 0.07852836 0.0021206 -0.09155617
000070 30 33 25 bc 8c b6 0e 3d bd 53 02 3d 56 ff fb be
       -0.010083005 0.03484206 0.03181814 -0.49218243
000080 ec 27 0b be 9d ec 59 3c 8b 25 b5 39 3a 65 f9 3c
       -0.13589448 0.013301042 0.00034550982 0.030443776
000090 0d 63 40 bc 6d dd 85 bc 23 7d 32 3d 2b da ab bc
       -0.011742366 -0.016340936 0.04357637 -0.020978054
0000a0 cb 02 83 bf 04 a8 19 be 5f 2d 4b 3d d0 b8 53 bc
       -1.0235227 -0.15005499 0.049603816 -0.012922481
0000b0 31 50 61 3e 7c 19 3c bc 2e bc ed 3b 3d 57 0e 3d
       0.22003247 -0.011480685 0.007255099 0.034751166
0000c0 6b 31 5d 3d 54 9a 73 bf a5 e8 9b bb 88 0f 8b bd
       0.054002207 -0.9515736 -0.004757958 -0.06790072
0000d0 81 70 7c 3c 65 73 fe 3d 75 13 26 3d f3 e8 07 3c
       0.015407682 0.124243535 0.0405459 0.0082952855
0000e0 49 cf f5 bc f9 c2 0d 3c 74 df e7 3e 91 d7 b7 bd
       -0.030006068 0.008652442 0.4528767 -0.08976663
0000f0 0c 5e 80 bd 4a 68 4b 3d 88 d9 e2 bc 0c a9 9f 3b
       -0.06267938 0.049660005 -0.027691618 0.004872447
000100 1e ab 05 3d 79 8b 8c 3d ba f5 72 3d 00 84 aa 3f
       0.032633893 0.0686254 0.059316374 1.3321533
000110 92 01 0e 3e a8 fe 8c bd 8f 9d 12 be b8 40 61 be
       0.13867787 -0.06884509 -0.14317916 -0.21997344
000120 51 a7 ec bc d3 8c 47 3b 95 06 af bd 14 d4 3b 3d
       -0.028888376 0.0030448928 -0.08546177 0.04585655
000130 c0 c8 78 3f bd 12 61 bd b0 3a 90 bd c6 42 b2 bd
       0.9718132 -0.05494951 -0.07042444 -0.08704142
000140 23 95 e6 bd c1 54 16 bc 7b 62 fd b9 7c bd 3d bd
       -0.11258914 -0.00917548 -0.00048329294 -0.046323285
000150 c5 a8 e2 3b 85 33 97 3f 59 63 dc 3d f6 aa 0b be
       0.0069170916 1.1812598 0.107611366 -0.13639435
000160 33 f0 26 bd 8f dc 37 be ae da cb 3c 1f 6d 1b bc
       -0.040756416 -0.1795523 0.024884548 -0.009486466
000170 03 96 92 3d 13 fb 22 bc 0b 62 7a bf 9a 66 89 bd
       0.07157519 -0.009947556 -0.9780585 -0.06709023
000180 17 48 8b bd f0 4a 93 3d e7 69 62 3e 1e 51 ba 3b
       -0.068008594 0.071920276 0.22110711 0.0056859395
000190 2a 3b 5e bc 07 ce ab bc fd 3c 70 bc 26 27 ac 3f
       -0.0135639105 -0.020972265 -0.014662978 1.3449447
0001a0 37 b0 5c 3d 9e 38 df 3b 3e cd 9b bd f5 b4 20 be
       0.05387899 0.006812169 -0.07607506 -0.1569403
0001b0 6b 77 23 bd ac 4d a5 3c 5d c7 9f 3c d8 0e 20 bc
       -0.039908808 0.020178638 0.019504244 -0.009769164
0001c0 0e 84 c3 bf cd 80 86 be 96 38 d8 3d 7b e1 55 3d
       -1.5274675 -0.26270142 0.10557668 0.052216988
0001d0 b0 44 92 3e 65 ff da 3c 00 d0 b3 bc 01 21 85 3d
       0.2856803 0.02673311 -0.021949768 0.065004356
0001e0 92 87 fe 3a 66 7e 92 bf 28 c3 e3 bd 48 55 45 3d
       0.0019419065 -1.1444824 -0.111212075 0.048177034
0001f0 e0 be 06 bd c3 c9 6f 3e 97 e8 42 bd 8e 91 3f 3d
       -0.032896876 0.2341681 -0.047585096 0.04676967
000200 ff 54 91 bd f5 a6 8a 3d df 01 7e 3f b2 85 e8 3d
       -0.0709629 0.06770126 0.99221605 0.11353625
000210 d3 2d 44 be be 64 ec bc 21 f2 c4 bd f5 41 7b bd
       -0.19158106 -0.028856631 -0.09616495 -0.0613422
000220 b1 34 d8 3c 99 44 b7 bd 96 f8 08 bd 62 c0 42 3f
       0.026392313 -0.08948631 -0.033440195 0.760748
000230 d4 f3 1c 3e 2a b0 91 bd da 18 e0 3b fd 55 3d be
       0.15327388 -0.07113679 0.0068389 -0.18489833
000240 f1 4b 95 ba b3 19 a6 bc ef ab 56 bd 94 1c ca 3c
       -0.001139043 -0.020275926 -0.052410062 0.02467183
000250 db 4d 9e 3e 69 e8 25 bc f0 d4 32 3c 3a c5 6f bd
       0.30918774 -0.010126212 0.010915026 -0.0585377
000260 06 72 19 bd ed 47 cf 3c aa e7 9e 3d 97 e7 29 bd
       -0.037462257 0.025302852 0.0775903 -0.041480627
000270 05 97 27 3d 84 8a d0 be d8 2a a2 bc a5 c4 dc bc
       0.040915508 -0.4073068 -0.01979582 -0.026949236
000280 1b d6 7a 3d 1d 54 ff 3d c8 3c 4d 3c 0f ee c6 3c
       0.061239343 0.12467215 0.012526698 0.024283437
000290 5a a3 b6 3b ef ba 8c bd 58 33 90 bf 58 7e 17 bd
       0.0055736722 -0.06871592 -1.1265669 -0.036985725
0002a0 22 2a 79 3d 9d d0 72 3d 6d fc 22 3e d8 60 32 bd
       0.060831197 0.05928098 0.15916605 -0.04354939
0002b0 57 86 94 3c 05 23 b9 bc 21 4d f3 3d 52 86 9b 3c
       0.018130464 -0.022599706 0.118799455 0.018984947
0002c0 a5 3d dd bc a2 a4 86 3c af 82 88 bc fc 68 e8 bd
       -0.027006933 0.016435925 -0.016663877 -0.11348149
0002d0 b0 07 75 3d 87 c7 5f 3b 66 08 19 3c 18 3e 2c 3d
       0.059821784 0.0034146027 0.009340381 0.042051405
0002e0 97 c6 79 3e 89 43 fc bb f6 56 25 3c 99 4f 9b 3d
       0.24392162 -0.0076984805 0.010091534 0.075835414
0002f0 95 8d 03 be 12 27 c9 bc 2a a8 29 3a 3e 98 6e 3d
       -0.12846978 -0.024554763 0.0006471897 0.05825066
000300 73 ee 90 bd 0d f9 86 3f 1d 74 d1 3c b5 a9 a9 3c
       -0.070767306 1.0544754 0.025568062 0.020710805
000310 d6 e0 b0 bd a4 b0 9a be 05 f6 d4 bb 08 07 13 3d
       -0.08636634 -0.3021289 -0.0064990544 0.035895377
000320 74 12 1a 3d 86 c0 3e 3d 90 fe ad be 9f 16 75 bc
       0.037615255 0.046570323 -0.33983278 -0.014959007
000330 e3 cf d0 3d f6 86 a3 bc 35 9a 33 3d b1 99 84 3d
       0.10195901 -0.019961815 0.043848235 0.06474627
000340 00 75 7d 3b 2e 6f fe 3a 18 36 e1 3c 8f 08 f0 be
       0.0038674474 0.0019411796 0.027491614 -0.4688153
000350 2c 6b 48 bc f5 5b 2c 3d ae e1 d2 3c c0 24 fd 3c
       -0.012232583 0.042079885 0.025742378 0.030901313
000360 f5 f6 4e bc a0 1b 7b bc f2 45 b8 bc 06 53 7f 3b
       -0.012632121 -0.0153264105 -0.02249429 0.0038959398
000370 91 47 30 3e 8e be 59 3d c7 86 23 bd 22 f8 f2 3d
       0.172148 0.053160243 -0.039923456 0.11863734
000380 92 21 10 be cd a6 48 bd 1d fc c3 ba 1d 19 ee bc
       -0.14075306 -0.0489872 -0.0014952455 -0.02906471
000390 6d 5d 2d 3d 1a 42 47 be 0c 3e 34 bd 61 20 b2 bc
       0.042325426 -0.1945881 -0.044004485 -0.021743955
0003a0 60 46 90 3d 15 82 d4 3c 39 2c 1e 3d 53 80 ab 3b
       0.07044673 0.025940934 0.038616393 0.0052338033
0003b0 b7 9f b7 3d 50 dd 8a 3c bc 60 a1 bf 8f cb 9b bd
       0.0896601 0.016951233 -1.2607646 -0.07607185
0003c0 5f ca a8 3d dd d9 56 3d 58 d2 33 3e 87 c4 a6 bb
       0.08241724 0.052453864 0.17560709 -0.005089346
0003d0 00 0e b4 bc 8e 1c b3 3c b5 85 9a bd da 9d bc bf
       -0.021979332 0.021864202 -0.07545034 -1.4735672
0003e0 bf 62 61 be 11 6d 80 bd a7 18 84 3c 90 70 57 3e
       -0.22010325 -0.06270803 0.016125036 0.21039033
0003f0 27 a4 e2 3b ba 7a a3 3b 1c f1 1f 3c 96 3c d3 3b
       0.006916541 0.0049889954 0.009762075 0.0064464314

fc1.4.bias f4 [16]
000000 e8 59 ee 3d 49 4e 52 be 4e f9 4d be f3 07 d0 3d
       0.11638242 -0.20537676 -0.20114633 0.10157766
000010 4e 84 c5 bd e0 d2 43 3e 52 af 8b 3d d9 b0 e4 bc
       -0.09644376 0.19123411 0.06820549 -0.027916359
000020 c3 6b 8f 3d cc 6b e4 3a 2e 78 45 bc 04 02 74 be
       0.07002976 0.0017427146 -0.012052579 -0.23828894
000030 ee 5a 01 be 86 6c da 3d cb ad 09 be 23 47 12 3e
       -0.12632343 0.106652305 -0.13445203 0.14284949

fc1.5.weight f4 [16, 117]
000000 af 3a 17 3d 62 8b 08 3d 49 c3 de bc 91 a7 1c bd
       0.0369212 0.03333605 -0.027192729 -0.03824574
000010 c2 e7 1e 3e ec f8 1d 3e 6b ea 10 3e d7 74 09 3d
       0.15518096 0.15426987 0.14151923 0.033558693
000020 04 75 68 bd 2e 91 33 3d cf 06 b3 bb 31 4e 95 bc
       -0.05675222 0.043839626 -0.005463458 -0.018225761
000030 50 64 37 bd 4d bb 75 be 11 cb ed be 06 26 0f 3e
       -0.0447734 -0.23997231 -0.4644399 0.13979349
000040 ad d2 a7 3d fc aa c6 3d 1a 59 34 bd 08 d0 5f 3c
       0.0819448 0.097005814 -0.044030286 0.013660438
000050 ff 2e 67 3d 34 ed b5 bb 33 eb 26 be f8 c7 ba be
       0.056441303 -0.0055519585 -0.16300659 -0.3648069
000060 49 72 05 be 2f 57 2a 3b 3e c2 e4 3d 96 da 58 3d
       -0.13031878 0.0025991907 0.11169861 0.052942835
000070 fb 98 24 3c 62 06 c1 bd 45 5a 20 be 1b 6d 03 bf
       0.010046239 -0.094250455 -0.15659435 -0.51338357
000080 40 0c 05 bf f7 08 26 3e d3 c8 8e 3d fa 79 af 3d
       -0.51971817 0.16214357 0.06971898 0.08568187
000090 5d 1e 81 3c 53 55 ff 3c e7 50 09 bd 09 23 48 3d
       0.015761549 0.031168615 -0.03352442 0.048861537
0000a0 c2 d4 8d be b9 45 64 be b5 c2 a1 3d b0 62 2b bd
       -0.27701384 -0.22292222 0.078984655 -0.041842163
0000b0 33 d0 6a 3d cd d0 93 bc 53 d4 35 3d d2 25 86 bd
       0.05732746 -0.0180439 0.04439194 -0.065501824
0000c0 80 70 04 be 6f 64 54 be 3c 50 7b be 47 f8 8b 3d
       -0.1293354 -0.20741437 -0.24542326 0.068344645
0000d0 db fc 14 3d 6e 81 91 3d c3 dc a4 bc 73 8c 1e 3d
       0.036373954 0.07104765 -0.020124799 0.03870816
0000e0 dd 31 35 bd 00 b8 d2 bc 62 b6 a6 be 2c 97 d8 be
       -0.044237006 -0.025722504 -0.32561022 -0.42302835
0000f0 ff aa 05 3e 8c 5f a4 3d 3f e8 24 3e 4f 8e 20 3c
       0.13053511 0.080260366 0.1610422 0.009799554
000100 f9 75 6e 3c 85 ba 75 3d 0e d2 ee bc 98 6a b0 3e
       0.014554494 0.059992332 -0.029152896 0.34456325
000110 bc 9f 25 3f 1b 62 1b be 17 ce 07 be 64 ae 93 be
       0.6469686 -0.15174143 -0.13262211 -0.28843987
000120 f5 2f f3 3c d9 8e 46 bd cf d2 fd 3c e1 4e cb bb
       0.029685954 -0.048476074 0.03098431 -0.0062044715
000130 b1 bc 29 3e 14 4e 49 3e 70 be a7 bd 49 73 bd bd
       0.16575886 0.1965869 -0.0819062 -0.092505045
000140 09 7f 1d 3b e8 80 97 bd b5 d8 19 bc 13 a2 75 bd
       0.0024032018 -0.07397634 -0.009390046 -0.05996902
000150 0d 63 15 bc 1a 31 ea be 76 cc 26 bf 1a 6f af 3d
       -0.009117854 -0.45740587 -0.6515573 0.08566113
000160 67 c2 10 3e 8c 89 ca 3d 78 97 f8 3c d2 e0 cb bc
       0.14136659 0.09889516 0.030345663 -0.024887476
000170 07 ed 9e bd 5e 28 ab 3c 03 c0 18 3e b0 5b 69 3e
       -0.07760053 0.020893272 0.14916997 0.22788882
000180 da 93 09 bd 6c 95 e6 bd 68 54 8c bd be a7 0c 3d
       -0.033588268 -0.11258969 -0.06852037 0.03433966
000190 44 af bd 3c 4c a2 90 3d 54 9e db bd c5 27 ea 3e
       0.023154862 0.07062206 -0.10723558 0.45733467
0001a0 6d d2 0e 3f 9c 58 50 bd 08 56 4b be 06 81 7a be
       0.55789834 -0.050865754 -0.19857037 -0.24463281
0001b0 40 42 f6 bc 9f 74 35 3d 12 00 2d bc f1 a2 9b bd
       -0.030060887 0.04430067 -0.010559099 -0.07599438
0001c0 d1 ca 9e be 9d 38 ad be d1 9a c2 3d 0b 86 bd 3d
       -0.31014112 -0.33832255 0.09502185 0.09254082
0001d0 1f a3 15 3c 00 b6 95 3a 67 56 0b 3d 36 d3 60 bd
       0.009133129 0.0011422038 0.034017947 -0.054888926
0001e0 c8 a5 47 bc 69 8b 12 3f 1d 3b 32 3f 59 e3 b6 bd
       -0.012185521 0.57243973 0.6962145 -0.08930082
0001f0 6f e5 89 bd 31 7a f1 bd 9a d3 5e 3d f4 e2 43 3d
       -0.06733214 -0.11790884 0.054401018 0.04782386
000200 cd c1 e1 3d e3 6b b8 bc a1 79 08 3f f2 54 50 3f
       0.11023293 -0.022512382 0.5331059 0.81379616
000210 40 98 57 be 4e 12 30 bd 56 6a 5c be b5 d5 a6 3c
       -0.21054173 -0.042986207 -0.21524939 0.020365575
000220 23 04 a4 3c 2e 52 6f bd 39 2d 25 3d 70 1b ca bd
       0.020021504 -0.058427982 0.04032633 -0.098685145
000230 cd 5b 38 be b9 04 7e 3c d8 64 a0 3d ec 9c c1 3d
       -0.18003769 0.015504056 0.078317344 0.094537586
000240 bb 03 27 bd e3 5b ba bb 61 0a 89 3d f5 18 03 3c
       -0.040775042 -0.0056872233 0.06691433 0.008001556
000250 5b ed 0c 3e c8 87 43 3e 45 35 4f 3d 1f 86 f8 bd
       0.13762419 0.19094765 0.05058791 -0.121349566
000260 15 a0 56 bd fb 53 a7 bb 1f 2a 03 bc dc 02 c4 bd
       -0.05239876 -0.005106447 -0.008005648 -0.09570858
000270 da 63 95 bc 84 1a c1 bd 6e 5d 4d be 27 9b f4 3d
       -0.01823609 -0.094288856 -0.20055172 0.119436555
000280 51 3c fa bc e8 91 5c 3c 81 68 02 bd 6c 51 bf bc
       -0.03054634 0.013462521 -0.031837944 -0.023354255
000290 7a 45 9d bd 3d d8 33 3d b7 58 af 3e ad 27 e0 3e
       -0.07679267 0.043907393 0.34247372 0.4378027
0002a0 66 2f 04 3c 25 ed 41 be e3 c8 fd bd ba 89 a4 3b
       0.008067941 -0.1893812 -0.12391832 0.005021301
0002b0 8d 40 1f bc 1f 4a bb 3c c3 dc a5 3d bc 28 57 be
       -0.00971998 0.022862492 0.080987476 -0.21011633
0002c0 b0 f1 8c be 5f f5 cc 3d 33 2d 19 3d 76 9a 77 3d
       -0.27528143 0.10007738 0.03739662 0.06045004
0002d0 4b 28 aa bc cc d6 8f 3c 39 1f d3 3c e0 9e 21 3c
       -0.020771166 0.017558478 0.025771724 0.009864539
0002e0 8d 65 d1 be 76 2a b8 be d9 5f b0 3c d3 c2 d2 3d
       -0.4089779 -0.35969895 0.021530079 0.10291066
0002f0 3c b1 0a 3e ec 45 59 3c 99 31 07 bc 4c bb 14 bd
       0.13544172 0.0132613 -0.008251571 -0.036311433
000300 58 e0 e6 bc 74 af 9c be 33 46 16 bf 2c bd 31 3e
       -0.028183147 -0.3060261 -0.58700866 0.1735732
000310 f2 40 4a 3e bb 86 dc 3d 99 73 3c 3c db c6 02 bc
       0.19751337 0.10767885 0.01150217 -0.007981981
000320 c8 d7 69 bc 19 44 0c 3d 4e 13 09 bf 6a e0 46 bf
       -0.014272638 0.03424463 -0.5354508 -0.7768618
000330 7e 91 53 3d 2a 0c 41 3d d4 38 94 3d fa f1 8e 3c
       0.051652424 0.04713074 0.072374016 0.017449368
000340 05 1f 3d bb c4 80 12 3c 1d 71 47 bb 56 74 9f 3e
       -0.00288576 0.008941833 -0.003043241 0.31143445
000350 12 0e e0 3e b1 93 e2 bb 16 c4 c4 bd 95 17 32 bd
       0.43760735 -0.006914579 -0.09607713 -0.04347952
000360 15 cf 05 3d 03 b5 f6 3b f1 dc 02 bd 0e a0 ef bb
       0.032668192 0.0075289025 -0.031948987 -0.007312781
000370 8f 61 02 3e 2a 14 f0 3d 6b 60 8a bd d2 93 6d 3d
       0.12732528 0.11722596 -0.067566715 0.0580023
000380 45 3e 69 bd 33 ce 54 3d 4b 30 78 bc 0b 28 df 3c
       -0.05694415 0.05195446 -0.015148233 0.027240774
000390 70 12 c4 3d 48 d1 26 3d 68 b5 ce 3c ea 84 34 be
       0.09573829 0.04072693 0.025232986 -0.17628828
0003a0 75 ff 01 3d 20 fb 2b bd b1 36 5a bd 2f 76 b2 bc
       0.031737763 -0.04198754 -0.053274814 -0.02178487
0003b0 34 7f 78 bd 97 db 90 3d 0d f2 1b 3e f6 d1 bf 3e
       -0.060668185 0.070731334 0.15229054 0.37464875
0003c0 53 34 f0 bd 3e a8 ab bd 10 79 51 be a5 7f 85 bd
       -0.1172873 -0.08381699 -0.20456338 -0.06518487
0003d0 e6 7e e0 3d 87 7b 9a 3b 3a 70 97 3c 53 85 05 bf
       0.10961704 0.0047144326 0.018486131 -0.5215656
0003e0 44 ac 2e bf 72 fa 50 3e 91 a5 b1 3d 9f 56 0c 3e
       -0.68231606 0.20408037 0.086741574 0.13704918
0003f0 1d 93 9a 3d d7 72 8e 3d 3e bd a9 bb dd e5 81 bd
       0.07547591 0.06955498 -0.00518003 -0.06342671

fc1.5.bias f4 [16]
000000 f3 94 da bd c4 4c ae b8 40 84 21 be fd 76 8d bd
       -0.10672941 -8.311265e-05 -0.15773106 -0.06907461
000010 1c d2 68 bd 6d 1f 2c 3a 95 1b 1e 3e d8 0d 30 be
       -0.056841 0.0006565962 0.15440209 -0.17192781
000020 1f 30 d3 3b 5b d8 54 be a2 a6 47 bc 5b 99 95 3b
       0.0064449455 -0.20785658 -0.012185724 0.0045654005
000030 e1 11 9c 3d 9d 96 12 be ec ce 82 3b ef 72 70 bd
       0.07620598 -0.14315267 0.003991952 -0.05870336
